solved/Double_DQN_weights.pth (torch, 22367 bytes, 6 tensors)

linear1.weight f4 [64, 8]
0	0xbee467db	-0.44610485
1	0xbe4f5184	-0.2024594
2	0xbeea053a	-0.45707113
3	0x3e146f0b	0.14495485
4	0x3ee09277	0.43861744
5	0x3ee07836	0.43841714
6	0x3f1f8502	0.6231233
7	0x3d98d6d4	0.0746285
8	0xbe5d5909	-0.21615995
9	0xbe19904a	-0.14996448
10	0xbf68f660	-0.9100094
11	0x3edc805b	0.43066677
12	0x3f85b59a	1.0446045
13	0x3f3adc04	0.7299197
14	0x3e79066f	0.2431886
15	0x3e941dc9	0.28928974
16	0x3d98e733	0.07465973
17	0xbd40838e	-0.04700046
18	0x3def6051	0.11688293
19	0x3dcac14f	0.09900152
20	0xbeca35f7	-0.39494297
21	0x3dfb867f	0.122815125
22	0x3f47d274	0.780555
23	0xbfdddf6c	-1.7333808
24	0x3d98485c	0.074356765
25	0xbe078f97	-0.13238369
26	0xbf525335	-0.82158214
27	0x3fe2e9ea	1.7727635
28	0x3de71c4a	0.112846926
29	0x3d94f366	0.07272987
30	0xbee9cde9	-0.4566491
31	0x3d7ce896	0.06174525
32	0x3f86312e	1.0483758
33	0xbde17aa8	-0.11009723
34	0x3fd6e184	1.6787572
35	0xbf107981	-0.564354
36	0xbf67b1a7	-0.9050545
37	0x3eb997cc	0.36248624
38	0x3d9d9a30	0.076954246
39	0xbec0c935	-0.3765351
40	0xbde248ed	-0.11049066
41	0x3f17e70b	0.5933692
42	0xbf041176	-0.51589143
43	0xbf1ca55c	-0.6118982
44	0x3ed38097	0.41309044
45	0xbc23db68	-0.010001041
46	0xbef72d26	-0.48276633
47	0x3e724a89	0.23661245
48	0x3d47f194	0.04881437
49	0xbe174174	-0.14771062
50	0xbfc5a3a9	-1.544057
51	0x3f9e26f9	1.2355644
52	0xbecf3641	-0.4047108
53	0x3dfdd844	0.12394765
54	0xbd32496e	-0.04352706
55	0xbd594cc2	-0.053051718
56	0xbe830b3a	-0.25594503
57	0x3f18f21a	0.5974442
58	0x3ec477b7	0.38372585
59	0xbd45a0d6	-0.04824909
60	0x3f0d1c9e	0.5512179
61	0x3f4419e3	0.76602
62	0xbeaa40b6	-0.33252496
63	0xbe8ea09a	-0.27856904
64	0xbd278b1e	-0.040904157
65	0xbdf35e8c	-0.11883268
66	0x40237b01	2.5543826
67	0x3f4e6a25	0.80630714
68	0xbd8ade9a	-0.06780739
69	0xbcdc2bf8	-0.026876435
70	0x3ee4e43a	0.44705373
71	0xbee76ce2	-0.45200258
72	0x3e23211e	0.15930602
73	0x3e334026	0.1750494
74	0x3fd4b11a	1.6616547
75	0x3e9c4cc8	0.3052733
76	0xbf6464f9	-0.8921657
77	0x3f4f3bd5	0.8095067
78	0xbeeb035f	-0.4590101
79	0xbff55306	-1.9165962
80	0xbf46a42a	-0.77594244
81	0xbf007107	-0.50172466
82	0x3e14e683	0.14541058
83	0xbf8a8c75	-1.0824114
84	0xbe83cfe1	-0.25744537
85	0xbf33d335	-0.7024415
86	0xbfa8072e	-1.3127191
87	0x3e4e40c0	0.20141888
88	0xbe66e81e	-0.22549483
89	0x3c437638	0.011930041
90	0xbfcdd466	-1.6080444
91	0x3fc45538	1.5338507
92	0xbd4ab3ba	-0.049487807
93	0xbf931f0c	-1.149385
94	0x3dd19782	0.10233976
95	0x3f406989	0.75161034
96	0x3eaa9920	0.3331995
97	0xbdd5fcd6	-0.10448615
98	0xbe33e465	-0.17567594
99	0xbf6604e6	-0.89851224
100	0x3dfd89b2	0.12379779
101	0x3cfccd17	0.030859513
102	0x3ea09015	0.31359926
103	0x3ef1bf27	0.4721615
104	0x3ed27704	0.41106427
105	0x3d1088d4	0.03528674
106	0xbf19f21b	-0.6013505
107	0xbf51a715	-0.8189557
108	0xbd0fa8a5	-0.03507294
109	0xbded2b4a	-0.11580522
110	0x3db2accd	0.087243654
111	0x3ec81e25	0.39085498
112	0x3f035074	0.51294637
113	0x3edc48c5	0.4302427
114	0xbf2f9721	-0.6858998
115	0xbf7e391f	-0.9930591
116	0xbf49b490	-0.7879114
117	0xbf7bc03d	-0.9834021
118	0xbfa96fdd	-1.3237263
119	0x3e5136a5	0.20431001
120	0xbd362c64	-0.044475928
121	0x3ca60f4a	0.020270962
122	0x3fe34cd0	1.7757816
123	0xbe86a6f4	-0.2629925
124	0x3ef28db4	0.47373736
125	0xbdc4c30b	-0.09607514
126	0x3f32319b	0.6960694
127	0x3f42060e	0.7579049
128	0xbc71fe65	-0.014770125
129	0x3ebecc34	0.3726517
130	0x3ec9b0b8	0.39392638
131	0x3f35e88b	0.7105796
132	0xbf6cb578	-0.924644
133	0xbf36d444	-0.7141764
134	0xbe9d8046	-0.30761927
135	0xbd74553e	-0.059651606
136	0x3ee806fc	0.4531783
137	0x3d01c4f1	0.03168196
138	0x3f735e16	0.9506544
139	0x3f58c533	0.846759
140	0xbf32c0a3	-0.6982519
141	0x3ddfddfc	0.10931012
142	0xbc67e9d0	-0.014154866
143	0xbdae84a6	-0.085213944
144	0xbded7ed9	-0.1159646
145	0x3eb7ded1	0.35912183
146	0xbe607640	-0.21920109
147	0x3ef85aad	0.4850668
148	0x3f5a8b46	0.85368764
149	0x3f9ab046	1.2085044
150	0xbe0d0323	-0.13770728
151	0xbfc2e6ac	-1.5226645
152	0xbe6a010e	-0.22851965
153	0xbf0c1781	-0.54723364
154	0x3eb61896	0.35565633
155	0x4027f820	2.6245193
156	0x3e622b0c	0.22086734
157	0xbcd276f4	-0.025691487
158	0x3ecb2eec	0.39684236
159	0x3f01eb8b	0.50750035
160	0x3a64a426	0.000872197
161	0x3d8cf2cc	0.06882247
162	0x3ea71c9c	0.32639015
163	0x40576ece	3.366138
164	0x3cf81c15	0.030286828
165	0xbcd80ec8	-0.026374236
166	0x3b6c7313	0.0036079332
167	0x3adee2d1	0.0017004852
168	0xbe9c7fac	-0.30566156
169	0x3d6a93bd	0.0572698
170	0x3dee0e1c	0.11623785
171	0xbd870b42	-0.06593944
172	0xc0405a89	-3.0055258
173	0xbe70a8ca	-0.23501888
174	0xbde70713	-0.11280646
175	0x3e3fc48f	0.18727325
176	0xbf8cbae1	-1.0994531
177	0xbf2a6063	-0.66553324
178	0xbece4e3d	-0.40294066
179	0xbf72040c	-0.94537425
180	0x3e40da05	0.18833168
181	0x3bb262dd	0.0054439143
182	0x3cd2fe52	0.025756035
183	0x3df93330	0.12167966
184	0xbe5ee30d	-0.217663
185	0x3e54ea0d	0.20792408
186	0xbe4a7189	-0.19769873
187	0xbf30f34e	-0.69121253
188	0x3e89112c	0.26770914
189	0xbea267d5	-0.31719843
190	0xbca35435	-0.019937614
191	0x3ecccd5e	0.40000433
192	0xbe882994	-0.26594222
193	0x3dcc2e59	0.099697776
194	0xbec00ec4	-0.37511265
195	0xbedce0ac	-0.4314016
196	0x3fc1776a	1.5114567
197	0x3d9e151e	0.077188715
198	0xbfb62959	-1.4231368
199	0x3eb97dfa	0.36228925
200	0xbe5198c7	-0.20468436
201	0x3effacce	0.49936527
202	0x3eaf8b9f	0.3428621
203	0xbf802de5	-1.0014006
204	0xbeae089d	-0.33990946
205	0x3f8a4f86	1.0805519
206	0xbeb7a134	-0.35865176
207	0xbf01da3b	-0.5072362
208	0x3f786c43	0.97040194
209	0xbdebbb51	-0.11510337
210	0x3f01d813	0.5072033
211	0xbd58e189	-0.052949462
212	0x3f2ad667	0.667334
213	0x3f5ed315	0.87040836
214	0xbded2bc8	-0.11580616
215	0xbfae872a	-1.3634999
216	0xbeeadf88	-0.45873666
217	0x3d2bb93b	0.041924696
218	0xbe691e76	-0.22765526
219	0xbfa0a4a5	-1.2550246
220	0xbe7b763b	-0.2455682
221	0xbe862e3b	-0.26207146
222	0xbc24a402	-0.010048868
223	0xbeb1d88c	-0.34735525
224	0x3b021610	0.0019849576
225	0x3eb3ae48	0.35093904
226	0x3f8b84d6	1.0899913
227	0xbf5e6f57	-0.8688864
228	0xbd0c4627	-0.03424659
229	0x3fde8256	1.7383525
230	0x3e112ce4	0.1417728
231	0xbf26d034	-0.6516144
232	0xbf0a466e	-0.5401372
233	0x3f32bb87	0.69817394
234	0xbf056719	-0.5211044
235	0xbf3a617e	-0.7280501
236	0x3db7de49	0.089779444
237	0x3d9df8d0	0.07713473
238	0xbe975403	-0.29556283
239	0x3e163b9e	0.1467118
240	0x3e5145d3	0.20436792
241	0x3e29d3cf	0.16584705
242	0x3fb00232	1.375067
243	0xbd93c0bd	-0.07214496
244	0xbf91cabf	-1.1389998
245	0xbf07d722	-0.5306264
246	0x3f080129	0.5312677
247	0x3e299aec	0.16563004
248	0x3e8c5a9d	0.27412882
249	0x3e71c4cf	0.23610233
250	0x3ec2540a	0.37954742
251	0x3ecd704a	0.40124732
252	0xbf801982	-1.0007784
253	0xbf86391e	-1.0486181
254	0xbea6bd01	-0.32566074
255	0x3e7684e8	0.24074137

linear1.bias f4 [64]
0	0x3ca90c3c	0.020635717
1	0x3ebcbab0	0.3686118
2	0x3e85ba02	0.26118475
3	0x3ecb238e	0.39675564
4	0xbe61e433	-0.22059707
5	0x3ea1e831	0.3162246
6	0x3ca59d75	0.020216683
7	0x3f02e774	0.5113442
8	0x3aac29e1	0.001313504
9	0x3e2cc8a2	0.1687341
10	0xbf00eff5	-0.50366145
11	0x3e09b3e1	0.13447525
12	0x3ebb951e	0.36637205
13	0x3f0180fa	0.5058743
14	0x3dfc7965	0.12327842
15	0xbc2d2514	-0.010567922
16	0x3ec75d2b	0.3893827
17	0x3f170263	0.58988017
18	0x3e153543	0.14571099
19	0xbe690e22	-0.22759297
20	0xbc24541c	-0.010029819
21	0xbdfadc7a	-0.12249084
22	0xbe32929c	-0.1743874
23	0x3eab4d71	0.3345752
24	0x3ee0280b	0.4378055
25	0x3e96626d	0.29371968
26	0x3a92e55b	0.0011207269
27	0x3efe5839	0.49676684
28	0x3f015b8a	0.505303
29	0x3f1198a0	0.5687351
30	0x3dd769c3	0.10518219
31	0x3de500e9	0.11181814
32	0x3edb6664	0.42851555
33	0x3ecbbeeb	0.39794096
34	0xbd61a2ee	-0.055087022
35	0xbebfbe02	-0.37449652
36	0x3ef65f2e	0.4811949
37	0x3eec3903	0.46137246
38	0x3c14c8df	0.0090810945
39	0xbea6ae20	-0.32554722
40	0xb9efaf7d	-0.0004571638
41	0x3f13e4ed	0.5777119
42	0xbf0ed031	-0.55786425
43	0x3eb409dd	0.35163775
44	0xbe2321e1	-0.15930893
45	0x3dc21c7a	0.09478088
46	0x3f030921	0.51185805
47	0xbea8ad59	-0.32944754
48	0x3ba3423a	0.00498226
49	0xbc5e0e82	-0.013553264
50	0x3e8310bc	0.25598705
51	0x3f10b213	0.5652172
52	0x3df4129b	0.11917611
53	0x3eb16344	0.34646046
54	0x3ef57b02	0.4794541
55	0xbe1052f2	-0.14094141
56	0x3e874974	0.26423228
57	0x3e9be684	0.30449307
58	0x3e9c354d	0.30509415
59	0x3ed29390	0.41128206
60	0xbd90d0a1	-0.07071043
61	0x3ea31dc5	0.3185865
62	0xbcf9380a	-0.03042223
63	0x3e51039b	0.20411532

linear2.weight f4 [64, 64]
0	0x3ca2519a	0.019814301
1	0xbe7f457f	-0.24928854
2	0xbf14451c	-0.5791795
3	0x3ecf2a07	0.40461752
4	0xbf5898d5	-0.84608203
5	0x3e9df69f	0.3085222
6	0x3f25f23d	0.6482275
7	0x3eb3611d	0.3503503
8	0x3f775ee4	0.96629167
9	0xbe468278	-0.19385707
10	0xbf86c66c	-1.0529304
11	0x3dd61f63	0.10455205
12	0x3e3e2e83	0.1857243
13	0x3e4c4aea	0.19950452
14	0x3ea78a4c	0.327227
15	0x3ec449f5	0.38337675
16	0xbd8402c0	-0.06445837
17	0x3e112ca6	0.14177188
18	0xbe8852c5	-0.26625648
19	0xbf486415	-0.78277713
20	0x3f434a26	0.76285017
21	0x3f717ba7	0.94329304
22	0xbe88dd39	-0.2673128
23	0x3e4b68e3	0.1986423
24	0x3e2b01a4	0.16699845
25	0x3e6c1ddc	0.23058265
26	0xbebbf304	-0.36708844
27	0x3ede9259	0.4347103
28	0x3ea4c8bd	0.321844
29	0x3ece1a9f	0.40254685
30	0xbec749e2	-0.38923556
31	0xbe9459fd	-0.28974906
32	0x3efc8660	0.4932127
33	0x3dc9ed6c	0.09859738
34	0x3ee0b1d4	0.43885672
35	0xbeebbfed	-0.46044865
36	0x3ddec43b	0.10877272
37	0x3ee8632f	0.4538817
38	0x3f19ee36	0.60129106
39	0x3eb5270f	0.35381362
40	0x3e229670	0.158777
41	0x3db541ad	0.08850417
42	0xbf2cf68a	-0.6756369
43	0x3e62b3be	0.22138879
44	0xbe85db67	-0.26143953
45	0x3f16b6d1	0.58872706
46	0xbea2a58f	-0.31766936
47	0xbfb4c4d2	-1.4122565
48	0x3f3b6f47	0.7321667
49	0xbf02fe3d	-0.51169187
50	0x3e249f67	0.16076432
51	0x3e9eb6fe	0.30998987
52	0x3e61f7e9	0.22067226
53	0x3ebb8d3c	0.3663119
54	0x3e5aada0	0.21355295
55	0xbe94878c	-0.29009664
56	0xbef91ec8	-0.48656297
57	0xbde21545	-0.11039213
58	0xbebbbeff	-0.36669156
59	0xbd0d1e90	-0.034452975
60	0xbd878fdd	-0.066192366
61	0x3e89e7a4	0.2693454
62	0x3f9fa2a0	1.2471504
63	0xbedfdc80	-0.43722916
64	0xbd5a4d33	-0.05329628
65	0xbc5adf98	-0.013358973
66	0xbdd4892b	-0.10377725
67	0x3beb9bc7	0.007190201
68	0xbdfcad70	-0.12337768
69	0xbdf72212	-0.12067045
70	0x3debac73	0.115075015
71	0xba630c3d	-0.00086611864
72	0xbd983035	-0.0743107
73	0xbe29d884	-0.165865
74	0xbd81e5a2	-0.06342627
75	0xbc1dbe3b	-0.009627874
76	0x3ce6880a	0.02814104
77	0x3d8e4696	0.06947057
78	0xbe1545fb	-0.14577477
79	0x3c443b4e	0.01197703
80	0xbe1483c8	-0.14503396
81	0x3cde9934	0.027172662
82	0xbe1075cd	-0.14107437
83	0xbdede4a4	-0.11615875
84	0xbdd220d0	-0.10260165
85	0xbd4b248f	-0.049595412
86	0x3d85e29f	0.06537365
87	0xbda1e5ea	-0.07905181
88	0xbc9ea8bc	-0.019367568
89	0xbda7ca33	-0.08192863
90	0xbdbc2cb8	-0.09188217
91	0x3d9e3709	0.07725341
92	0x3c9b9bcd	0.01899519
93	0xbd9e3caf	-0.07726418
94	0xbe0f93d8	-0.14021242
95	0x3daec799	0.08534164
96	0xbdbabcc7	-0.09118038
97	0x3d844341	0.0645814
98	0xbdd21f6a	-0.10259898
99	0xbb2d5580	-0.0026448667
100	0xbd9a23c8	-0.07526356
101	0xbd82bd1a	-0.063837245
102	0xbe246c49	-0.16056933
103	0x3c920085	0.017822513
104	0x3a8bf832	0.0010678826
105	0x3dd7c560	0.10535693
106	0xbd845337	-0.064611845
107	0xbda05beb	-0.07830032
108	0xbd7d121c	-0.06178485
109	0xbdfa8c8a	-0.12233837
110	0x3d1b7c19	0.037960146
111	0x3dba2a13	0.09090056
112	0xbde9800c	-0.11401376
113	0xbbe90eda	-0.007112366
114	0xbe1f7909	-0.15573515
115	0x3d5e4e3f	0.05427384
116	0xbd8b1b64	-0.06792334
117	0xbe15f64f	-0.1464474
118	0x3d051ad6	0.032496296
119	0xbe09d16e	-0.13458797
120	0x3da9ccc9	0.08291013
121	0x3d7133af	0.05888718
122	0xbda1c514	-0.07898918
123	0x3da0492e	0.07826458
124	0xbdd84349	-0.105597086
125	0xbdae9159	-0.085238166
126	0xbd86b921	-0.06578279
127	0xbdca7cb8	-0.098870695
128	0x3f249d9c	0.6430299
129	0xbeb2c29a	-0.34914094
130	0x3f5b0049	0.8554731
131	0xbf04110a	-0.515885
132	0x3fd89f93	1.6923698
133	0xbed08b5f	-0.40731332
134	0xbffe5936	-1.9870975
135	0xbdff450e	-0.12464343
136	0xbfa386c8	-1.2775507
137	0x3e7e6b59	0.24845637
138	0x3fb40627	1.4064378
139	0x3cb90527	0.022585465
140	0x3e16d9f2	0.14731577
141	0x3db38d8c	0.08767232
142	0x3e3ef971	0.18649842
143	0xbefaa6f9	-0.48955515
144	0xbe638938	-0.22220314
145	0x3ead6fe4	0.33874428
146	0x3eaf84bd	0.3428096
147	0xbf61122a	-0.8791834
148	0xbf10c745	-0.5655406
149	0xbf6c96d8	-0.9241767
150	0xbe8f37c7	-0.27972242
151	0xbdcb02df	-0.09912657
152	0x3eebd603	0.46061715
153	0x3dd532d0	0.10410082
154	0x3e107a18	0.14109075
155	0xbdbca4e0	-0.09211135
156	0x3e884fd6	0.2662341
157	0xbe892008	-0.2678225
158	0xbd6beb91	-0.0575977
159	0x3e89f7df	0.26946923
160	0x3eaf7b95	0.34273973
161	0x3f0a84fa	0.54109156
162	0xbd8d7a5c	-0.06908104
163	0x3f8d4e28	1.1039476
164	0x3f0be446	0.5464519
165	0x3d4751cd	0.048661996
166	0xbd9f0955	-0.07765452
167	0xbbaf92a2	-0.005358056
168	0xbfce38c3	-1.6111072
169	0x3f075d57	0.528768
170	0x3f8d25c3	1.1027149
171	0xbe40ddc5	-0.18834598
172	0x3f0798c9	0.52967507
173	0xbf0a3a69	-0.53995377
174	0x3f1ba1ea	0.60793936
175	0x4002fc80	2.0466614
176	0xbf8edac4	-1.1160512
177	0x3e2c33ee	0.16816685
178	0xbde5f54c	-0.11228427
179	0x3ec27117	0.37976906
180	0xbe5f72b1	-0.21821095
181	0xbe9e1890	-0.30878115
182	0x3ebfbddf	0.37449548
183	0x3efe8380	0.49709702
184	0x3e9dea28	0.3084271
185	0x3e8a7582	0.27042776
186	0x3f087076	0.532966
187	0x3f11d6bd	0.5696829
188	0x3e7aea34	0.24503404
189	0xbe2a1428	-0.16609251
190	0xbf927fce	-1.1445253
191	0x3f17b4ba	0.5926014
192	0x3c8e5ac0	0.017377257
193	0xbc51093c	-0.012758549
194	0x3dd864b1	0.1056608
195	0x3c2b4d0d	0.010455382
196	0xbdf3e8f4	-0.11909667
197	0xbe02b25d	-0.12763353
198	0x3d5ed5c8	0.054403096
199	0x3cb6beee	0.02230784
200	0xbdd94196	-0.10608213
201	0xbdec4c9f	-0.11538052
202	0xbcae80a8	-0.021301582
203	0x3d8c7ba8	0.06859523
204	0xbde0f53e	-0.10984276
205	0xbdba0b36	-0.090841696
206	0xbdc6978c	-0.09696874
207	0xbdd1eed6	-0.102506325
208	0xbd0b3267	-0.033983614
209	0xbdb0dfd7	-0.08636444
210	0xbd91bee7	-0.0711649
211	0xbd6d7ecc	-0.05798225
212	0xbd8dfee4	-0.06933382
213	0xbda73a96	-0.08165471
214	0x3dd93e4b	0.106075846
215	0x3dc2378d	0.09483252
216	0xbdc5ade2	-0.09652306
217	0x3d1bb398	0.03801307
218	0x3b895e33	0.0041921376
219	0x3baac7b9	0.005211797
220	0xbd9691ca	-0.07352026
221	0xbdf51b90	-0.11968148
222	0xbdfacfa4	-0.122466356
223	0x3d06a718	0.032874197
224	0xbdf5e0d9	-0.12005777
225	0xbd88acce	-0.06673585
226	0x3d1d63c1	0.03842521
227	0xbde626e2	-0.11237885
228	0xbdde696c	-0.108599514
229	0x3d9b2692	0.07575716
230	0xbdeb8488	-0.11499888
231	0xbd90f118	-0.07077235
232	0xbcee3c37	-0.029081447
233	0x3cc3033a	0.02380525
234	0xbd4387f5	-0.04773708
235	0xbe1069fd	-0.14102931
236	0x3d0252dc	0.031817302
237	0xbd78e7de	-0.060768
238	0xbde0cece	-0.10976945
239	0xbd86f1ee	-0.06589113
240	0x3db0d0c6	0.086335704
241	0x3c9183c8	0.017763034
242	0xbde685f6	-0.1125602
243	0xbce9b828	-0.028530195
244	0x3d3f108c	0.04664664
245	0xbd828574	-0.063731104
246	0x3d0bf64e	0.03417044
247	0xbd8df854	-0.069321305
248	0x3d5ea66e	0.05435794
249	0xbd001244	-0.03126742
250	0x3c1bdddc	0.009513345
251	0x3dcb6e96	0.09933202
252	0x3d4d00ee	0.050049715
253	0x3dbf621d	0.093448855
254	0x3d8d4aa0	0.06898999
255	0xbbec6c38	-0.007215049

linear2.bias f4 [64]
0	0x3edd7ee8	0.43260884
1	0x3be9a5ce	0.007130361
2	0x3c2cd3a5	0.010548507
3	0x3d96f7e7	0.07371502
4	0x3ddc9879	0.10771269
5	0x3dd12a35	0.102131285
6	0x3db14d43	0.08657315
7	0x3e9bd87f	0.3043861
8	0xbced7eb3	-0.028991079
9	0x3b8406d7	0.0040291357
10	0x3d94ff90	0.07275307
11	0x3eab5def	0.33470103
12	0x3c77050d	0.015076888
13	0x3e781e4d	0.24230309
14	0xbdd7898a	-0.1052428
15	0xbcb5b970	-0.02218315
16	0xbf56749b	-0.83771676
17	0x3d4d6c51	0.050152127
18	0x3e9db558	0.30802417
19	0x3d4d5f8b	0.050139945
20	0x3e8f8ca4	0.28036988
21	0x3eab3356	0.33437604
22	0xbd0140ba	-0.03155587
23	0x3e2d4bf2	0.16923502
24	0x3e93b1fb	0.28846726
25	0x3eb7e221	0.3591471
26	0xbc8f942b	-0.017526707
27	0x3eb24736	0.34819955
28	0xbe15c053	-0.14624147
29	0x3c6f6c00	0.014613152
30	0xbdee2ac6	-0.11629252
31	0x3e7da627	0.24770413
32	0x3e56bc72	0.20970324
33	0xbd9ff581	-0.07810498
34	0xbebb1cdc	-0.36545455
35	0xbe448746	-0.19192228
36	0x3d99dc36	0.07512705
37	0xbf452ddc	-0.770231
38	0x3ea45128	0.32093167
39	0x3e9b958d	0.30387536
40	0x3dda54b8	0.1066069
41	0x3e732553	0.23744707
42	0xbcb44748	-0.022006646
43	0x3e910c5b	0.2832974
44	0x3e2ee37c	0.17078966
45	0xbc86ce20	-0.01645571
46	0xbda409e5	-0.080097
47	0xbdcb35db	-0.099223815
48	0x3ed002a0	0.40627003
49	0x3e078edf	0.13238095
50	0x3e9c812f	0.3056731
51	0x3d0c1d69	0.034207735
52	0x3c0c8eca	0.008578965
53	0x3eea7083	0.45788965
54	0xbbfe0066	-0.0077515123
55	0xbd5b2968	-0.053506285
56	0xbef0e5b3	-0.47050247
57	0x3d8a050e	0.06739245
58	0x3e4340e5	0.19067724
59	0x3e109f6a	0.14123312
60	0xbe3ec591	-0.18630053
61	0x3ebf85ee	0.37406868
62	0xbe53ec09	-0.20695509
63	0x3e95761e	0.2919168

out.weight f4 [4, 64]
0	0x3ec77f82	0.38964468
1	0x3ddba6df	0.107251875
2	0xbfda366e	-1.7047861
3	0xbd0653bc	-0.0327947
4	0x3e65e188	0.22449315
5	0xbedba477	-0.42898914
6	0xbe9d511d	-0.30725947
7	0xbf2a7472	-0.6658393
8	0xbd57cc58	-0.05268511
9	0x3e92a105	0.28638473
10	0xbf3e692c	-0.7437923
11	0x3edf2a67	0.43587038
12	0xbc572a4b	-0.013132642
13	0xbf2883ab	-0.6582591
14	0xbe5b0b7e	-0.21391103
15	0x3db16932	0.086626425
16	0xbf8ef946	-1.1169822
17	0x3d691392	0.05690343
18	0x3f16d297	0.58915085
19	0x3d633b25	0.055476326
20	0xbf694467	-0.9112
21	0x3f0bd03e	0.5461463
22	0xbf399706	-0.7249607
23	0xbe767e6d	-0.24071665
24	0xbf02a2a1	-0.510294
25	0x3f45fba1	0.7733708
26	0xbf5bdc16	-0.858827
27	0x3efdeae6	0.49593276
28	0x3d7c802e	0.06164568
29	0x3df2de1d	0.11858771
30	0x3dbaa954	0.09114328
31	0x3fb3ba48	1.4041224
32	0x3f857c27	1.0428513
33	0xbf510218	-0.8164382
34	0xbfb761e2	-1.4326746
35	0xbf62b9a3	-0.8856451
36	0xbf122f1c	-0.57103133
37	0xbfd6d75b	-1.6784471
38	0x401470a1	2.3193743
39	0x3f792fa5	0.97338325
40	0xbf6ed712	-0.9329692
41	0xbebb3a19	-0.36567762
42	0xbf73cad5	-0.9523137
43	0x3fadb40a	1.3570569
44	0x3f596036	0.8491243
45	0x3fa56116	1.2920253
46	0xbcd3ebaf	-0.025869219
47	0x3c3ba6e0	0.01145336
48	0x3f327eb7	0.697246
49	0x3f970624	1.1798749
50	0xbf0dad18	-0.55342245
51	0xbe99c78a	-0.3003505
52	0x3d0a7959	0.033807132
53	0x3f1b396c	0.60634494
54	0xbecc83e5	-0.39944378
55	0x3dacaa64	0.08430937
56	0xbf9bf54b	-1.2184232
57	0x3f8dd4bf	1.108055
58	0xbf44676f	-0.7672033
59	0x3fe3f567	1.7809266
60	0xbf836236	-1.0264347
61	0x3ed5eca7	0.41782114
62	0xbf2b0d48	-0.6681714
63	0x3f54c554	0.831136
64	0x3f0f3ace	0.55949104
65	0xbb6c6999	-0.0036073683
66	0xbfd5d007	-1.670411
67	0x3d9ea53d	0.077463605
68	0x3f119e74	0.56882405
69	0x3ab354ec	0.0013681925
70	0xbf323220	-0.69607735
71	0xbebba76f	-0.3665118
72	0xbb8a57c0	-0.0042218864
73	0x3e9e14fb	0.30875382
74	0xbf700917	-0.9376387
75	0x3f09616b	0.53664273
76	0x3dd0b1ec	0.10190186
77	0xbf06784a	-0.52527297
78	0xbf31998a	-0.69374907
79	0x3ccd26d4	0.025042929
80	0xbf646605	-0.8921817
81	0xbd78762c	-0.060659572
82	0x3f0ec7b2	0.5577346
83	0x3d62bd6e	0.055356435
84	0xbf7cf402	-0.98809826
85	0x3f0ea4a5	0.5571998
86	0xbf3763ae	-0.71636474
87	0xbf61765b	-0.8807122
88	0xbef4028f	-0.47658202
89	0x3f50032b	0.81254834
90	0xbf61ee42	-0.8825418
91	0x3ef96ce4	0.4871589
92	0x3b657124	0.0035010064
93	0x3dcf07bb	0.10108896
94	0xbb39ad18	-0.0028331932
95	0x3faffdb1	1.3749295
96	0x3f7519e4	0.9574263
97	0xbf3ca8f5	-0.7369531
98	0xbf9a76f4	-1.2067552
99	0xbf832dfc	-1.0248408
100	0xbf18ecc5	-0.5973628
101	0xbfd30459	-1.6485702
102	0x400b483b	2.1762836
103	0x3f8fca2a	1.123357
104	0xbf10c6bc	-0.56553245
105	0xbf062a9d	-0.5240877
106	0xbf72171a	-0.945665
107	0x3fa01a60	1.2508049
108	0x3f5a2611	0.85214335
109	0x3f907e5c	1.1288562
110	0xbc448995	-0.011995693
111	0xbb9389a0	-0.00450249
112	0x3f10cab0	0.56559277
113	0x3fa21a01	1.2664186
114	0xbf548e2a	-0.83029425
115	0xbf140142	-0.5781442
116	0xbd90246c	-0.07038197
117	0x3f02c315	0.5107892
118	0xbee0d277	-0.43910572
119	0x3cb09940	0.02155745
120	0xbf96e4b1	-1.1788541
121	0x3fb7f4b0	1.4371548
122	0xbf4777bd	-0.7791708
123	0x3ffd203f	1.9775466
124	0xbf8b206d	-1.086927
125	0xbd62404c	-0.0552371
126	0xbf511e9e	-0.81687343
127	0x3f542439	0.8286777
128	0x3f3334b4	0.70002294
129	0xbc6f8cf3	-0.014621007
130	0xbf9e3237	-1.2359074
131	0xbde6e18f	-0.11273491
132	0xbec75f31	-0.38939813
133	0xbf201d28	-0.6254449
134	0xbee9599f	-0.45576188
135	0xbf208009	-0.62695366
136	0x3b0dd252	0.0021640253
137	0xbf769dc3	-0.96334475
138	0xbf5d841b	-0.865297
139	0x3f04e47a	0.5191113
140	0xbd9ecfe2	-0.07754494
141	0xbf155402	-0.5833131
142	0xbeb7efb2	-0.3592506
143	0xbd12d64b	-0.035848897
144	0xbfa1d46f	-1.2642955
145	0xbde85b00	-0.11345482
146	0xbe531850	-0.20614743
147	0xbcd5ec62	-0.026113693
148	0xbf40a01f	-0.75244325
149	0x3f31b8aa	0.694224
150	0xbf33f028	-0.70288324
151	0x3f2a5cc2	0.6654779
152	0xbf5191cc	-0.81863093
153	0x3f3b848c	0.73249125
154	0xbf522046	-0.82080495
155	0x3f1e58af	0.6185407
156	0x3c44e493	0.012017387
157	0xbd444c81	-0.047924522
158	0xbbeb0ed7	-0.0071734
159	0x3fb0f2d5	1.3824106
160	0x3f86fd2a	1.054601
161	0xbf3351e9	-0.7004686
162	0xbfb44b68	-1.4085512
163	0xbf05159c	-0.519861
164	0xbf18774b	-0.59557027
165	0xbfe7c65d	-1.8107411
166	0x3fe1c833	1.7639221
167	0x3f225af1	0.63420016
168	0xbf2d8db3	-0.6779434
169	0xbf06edc5	-0.5270656
170	0xbf7edc19	-0.9955459
171	0x3fbad0e6	1.4595001
172	0x3f3f09b7	0.746242
173	0x3f9f3196	1.2437007
174	0xbae28136	-0.001728094
175	0x3d821f2e	0.06353603
176	0x3f485800	0.7825928
177	0x3f922bb2	1.1419585
178	0x3c549922	0.012975963
179	0xbf2c8fa6	-0.6740669
180	0xbd9f399a	-0.077746585
181	0x3f414e48	0.7551007
182	0xbf506cdb	-0.814161
183	0x3d87059a	0.06592865
184	0xbfaab54e	-1.333658
185	0x3f5205a8	0.8203988
186	0xbed17069	-0.40906075
187	0x40014822	2.0200276
188	0xbf893620	-1.0719643
189	0x3e71c0e8	0.23608744
190	0xbe19e941	-0.15030386
191	0x3f5334b4	0.82502294
192	0x3ee7c408	0.45266747
193	0xbd8aa745	-0.067701854
194	0xbfc40eca	-1.5317013
195	0xbcb5affc	-0.022178642
196	0xbe385ac1	-0.1800337
197	0xbf74e7de	-0.956663
198	0xbe1cf3ff	-0.15327452
199	0xbf71ca9c	-0.9444978
200	0xbd454320	-0.04815972
201	0x3ec633af	0.38711306
202	0xbe9bceb7	-0.30431148
203	0x3ef02ee3	0.46910772
204	0xbcf4d7dd	-0.029888088
205	0xbf28aebd	-0.6589163
206	0x3f12ad92	0.572961
207	0x3de45af8	0.111501634
208	0xbf8567be	-1.0422285
209	0xbd587ce7	-0.05285349
210	0x3efeda6d	0.4977602
211	0x3d983d13	0.07433524
212	0xbf389207	-0.7209782
213	0x3e87369e	0.26408857
214	0xbf5e60a2	-0.868662
215	0x3ee34807	0.4439089
216	0xbf0d91ed	-0.5530079
217	0x3f425be7	0.7592148
218	0xbf4ef42d	-0.8084133
219	0x3f1aa2de	0.60404766
220	0xbcd97f20	-0.026549876
221	0x3d454d77	0.04816958
222	0x3c9e0213	0.019288098
223	0x3fbcc299	1.4746886
224	0x3f8e9023	1.1137737
225	0xbf5e2cec	-0.86787295
226	0xbfdbd723	-1.717503
227	0xbf355c3f	-0.7084388
228	0xbede07c7	-0.4336531
229	0xbfc38fbb	-1.5278238
230	0x401fb5b1	2.4954646
231	0x3f81abaf	1.0130519
232	0xbfb5f77b	-1.421615
233	0xbe9032af	-0.2816367
234	0xbf7ec42d	-0.9951809
235	0x3fa69132	1.301306
236	0x3f5ff776	0.8748697
237	0x3fb6fb1d	1.4295384
238	0x3c22f8fe	0.00994706
239	0x3bc5cfc0	0.0060367286
240	0x3f5e46b5	0.8682664
241	0x3f91d4b2	1.1393034
242	0xbeddd2f4	-0.43325007
243	0x3cfc9656	0.030833405
244	0xbdd4be6f	-0.10387885
245	0x3ef83302	0.48476416
246	0xbece2b52	-0.40267426
247	0x3d1fce6c	0.03901522
248	0xbfb347ac	-1.4006248
249	0x3f579626	0.84213483
250	0xbf497dfe	-0.78707874
251	0x3fca0dd4	1.578547
252	0xbf6ff26b	-0.93729275
253	0x3f833184	1.0249486
254	0xbf1a4824	-0.6026633
255	0x3f480d44	0.7814524

out.bias f4 [4]
0	0x3e51d7e2	0.20492509
1	0x3ea52e80	0.3226204
2	0x3e715343	0.23566918
3	0x3cfd63b1	0.030931326
