solved/DoubleDQN.pth (torch, 22367 bytes, 6 tensors)

linear1.weight f4 [64, 8]
0.32304686 -0.6546598 0.57261455 1.7049412 -1.5169113 -0.26453334 0.60792565 0.49026042
-0.6340403 -1.1980944 -0.089805484 -0.18690382 1.0228398 -0.5337971 0.5045865 -0.012350723
0.16862725 0.015858153 0.016502226 0.004021821 -0.56548595 0.44811475 0.8563808 -0.6199598
0.33833328 0.18635045 0.6909492 3.7538505 -1.065849 0.8758349 -0.23537785 -1.2115812
0.9571745 -0.030876834 -0.061261788 -0.6699234 0.28537467 1.5668051 0.4574935 -1.2304592
0.35327488 0.6829065 -0.99498475 -0.3222936 0.5439195 -0.44282067 -1.1751666 -0.0029155044
0.05736185 -1.1497191 -2.3048773 0.90440166 0.20617425 -0.07366389 -0.0110976035 -0.010505011
-1.2631412 0.8362943 0.523334 -0.27237314 0.7954485 -0.57674277 0.24341784 -1.3375565
-1.3315948 -0.25061226 -1.2678648 -0.11212735 -0.59993356 -1.2403201 -1.0255378 0.61895394
1.5924475 -0.6234382 1.1504875 -0.0036205142 -2.2713017 -0.022958277 -0.15497814 0.45071518
-0.7003262 0.08684845 0.7405368 -2.2873464 0.98056537 -0.15203851 -1.3643469 -0.44110435
0.25016755 0.1743454 -0.21204147 0.21890448 2.9047053 -0.01588512 0.4330151 0.7660954
0.6578205 -0.41427 0.56778955 -1.024595 0.08206813 0.09651274 0.40255308 0.5945012
0.06738482 0.016792534 -0.70410365 -0.38002178 0.082029454 -0.13954857 -0.17784648 0.6763983
0.8747567 0.14907435 0.3488662 0.29738176 -2.4970315 -0.60470086 0.38913673 0.09388399
0.18501863 -0.44447237 1.3249868 1.6555461 -0.24089822 0.15588407 -0.008455548 1.5589066
0.27330172 0.37224716 0.29080826 0.8769168 -1.0812365 -0.71791226 -0.36486542 -0.2003131
0.99723434 -0.57811826 1.6016581 0.1890298 -0.8923958 0.472627 -1.1648521 0.10838131
-0.286832 0.16400665 -0.38576624 0.36813268 0.3605501 1.4732492 -1.6621532 -1.7202048
-1.9587812 -0.47879335 0.4564384 -1.0217446 0.15136957 -0.019691302 0.72248554 0.73253316
0.03208052 -1.8055036 2.0777566 2.029128 0.571536 -0.02012464 -0.44665226 0.46771523
-1.5198853 0.19579077 -1.5081666 -1.3687887 0.25656396 -0.07703494 -0.66364133 0.422478
0.7338727 -0.8778165 -0.9483258 -0.090424754 0.03263507 -0.91337657 0.9760257 -0.06291813
-0.611519 0.14106716 -0.27531898 -0.58396703 0.93535423 0.98546773 -1.4186134 0.2332106
-0.16970761 -0.2341799 -0.4872755 -0.18318078 0.28284514 -0.50635785 -0.31053954 0.5335637
-0.33431438 0.53388613 -0.35935923 -0.9344617 -3.068782 0.68876725 0.026808273 -0.2050291
0.2497326 0.48387918 -0.79423296 -0.056744106 1.6464115 0.8221925 -0.2781421 -1.7599062
-0.577868 0.41436324 0.027549803 -0.9744316 -1.314656 0.33388552 -1.1418815 -0.61664367
0.045379344 0.5224426 2.167221 -0.08970627 0.07670957 0.5834136 -0.17878161 -0.7750211
-0.48329708 0.8753767 -0.3667784 -0.5363923 -0.19390008 0.32988596 -0.46406272 -0.8866312
-0.6325863 -0.33087027 0.03322455 0.300998 -1.1634343 0.330843 0.29027244 -0.1146174
1.442316 0.45119023 0.5687611 0.11623958 -0.6243404 -0.3353683 0.06585099 0.55398685
00000000: 6666 a53e c997 27bf de96 123f 833b da3f
00000010: 262a c2bf ea70 87be 04a1 1b3f 6a03 fb3e
00000020: 7750 22bf 285b 99bf f0eb b7bd b763 3fbe
00000030: 6aec 823f eda6 08bf 952c 013f b05a 4abc
00000040: 9fac 2c3e f5e8 813c ad2f 873c 7bc9 833b
00000050: b0c3 10bf 4c6f e53e c63b 5b3f afb5 1ebf
00000060: 053a ad3e a7d2 3e3e 0ce2 303f 163f 7040
00000070: bd6d 88bf b736 603f e406 71be 1815 9bbf
00000080: 6309 753f 6af1 fcbc a4ed 7abd 1a80 2bbf
00000090: a11c 923e 128d c83f 973c ea3e b07f 9dbf
000000a0: 72e0 b43e f6d2 2e3f 52b7 7ebf ab03 a5be
000000b0: 4f3e 0b3f 64b9 e2be dc6b 96bf 0c12 3fbb
000000c0: 42f4 6a3d ff29 93bf 1c83 13c0 de86 673f
000000d0: 581f 533e 18dd 96bd b9d2 35bc 361d 2cbc
000000e0: 9cae a1bf 6217 563f 38f9 053f 7e74 8bbe
000000f0: 83a2 4b3f 6aa5 13bf 8742 793e 0d35 abbf
00000100: b371 aabf 4050 80be 6549 a2bf 06a3 e5bd
00000110: 3f95 19bf cfc2 9ebf d344 83bf c473 1e3f
00000120: 52d5 cb3f a599 1fbf 2d43 933f 2646 6dbb
00000130: 025d 11c0 ff12 bcbc 97b2 1ebe 24c4 e63e
00000140: 9448 33bf 9add b13d d293 3d3f e263 12c0
00000150: 5506 7b3f fcaf 1bbe eba2 aebf 6ed8 e1be
00000160: f615 803e 9a87 323e 6621 59be 7f28 603e
00000170: b1e6 3940 8321 82bc 28b4 dd3e d41e 443f
00000180: ed66 283f 331b d4be a85a 113f ee25 83bf
00000190: 5613 a83d 79a8 c53d 701b ce3e 3b31 183f
000001a0: 0d01 8a3d 7f90 893c 2340 34bf 3792 c2be
000001b0: 0fff a73d d2e5 0ebe 631d 36be 7028 2d3f
000001c0: 0ef0 5f3f f2a6 183e 979e b23e 6c42 983e
000001d0: 5dcf 1fc0 adcd 1abf ee3c c73e 4046 c03d
000001e0: 8675 3d3e e291 e3be 2b99 a93f efe8 d33f
000001f0: 06ae 76be 13a0 1f3e 2489 0abc 408a c73f
00000200: 34ee 8b3e 2e97 be3e d2e4 943e 9f7d 603f
00000210: f565 8abf 19c9 37bf a4cf babe e11e 4dbe
00000220: c04a 7f3f 8fff 13bf 2203 cd3f 0791 413e
00000230: 0d74 64bf 2bfc f13e e019 95bf 05f7 dd3d
00000240: a5db 92be 5cf1 273e 2783 c5be e37b bc3e
00000250: 069a b83e 6e93 bc3f 70c1 d4bf ac2f dcbf
00000260: 58b9 fabf 6724 f5be 4bb2 e93e 87c8 82bf
00000270: a000 1b3e a74f a1bc d0f4 383f 4b87 3b3f
00000280: dd66 033d be1a e7bf f7f9 0440 3cdd 0140
00000290: 2f50 123f 6edc a4bc 9baf e4be 5f78 ef3e
000002a0: 9a8b c2bf 607d 483e 9a0b c1bf 7834 afbf
000002b0: 5a5c 833e 7fc4 9dbd 66e4 29bf 094f d83e
000002c0: 15df 3b3f 95b8 60bf 7bc5 72bf 9d30 b9bd
000002d0: 5aac 053d 0cd3 69bf d2dc 793f 38db 80bd
000002e0: 828c 1cbf e973 103e 9cf6 8cbe dd7e 15bf
000002f0: 6073 6f3f 9d47 7c3f 2095 b5bf c2ce 6e3e
00000300: d5c7 2dbe dbcc 6fbe 2d7c f9be be93 3bbe
00000310: 14d1 903e aba0 01bf 0aff 9ebe a197 083f
00000320: 412b abbe c3ac 083f effd b7be e238 6fbf
00000330: ed66 44c0 0d53 303f 069d db3c 26f3 51be
00000340: e7b9 7f3e 03bf f73e da52 4bbf 826c 68bd
00000350: 9dbd d23f 357b 523f a468 8ebe 9b44 e1bf
00000360: 28ef 13bf 6b27 d43e 20b0 e13c 5974 79bf
00000370: a646 a8bf 0bf3 aa3e 2c29 92bf 5cdc 1dbf
00000380: b1df 393d ccbe 053f c0b3 0a40 ecb7 b7bd
00000390: e819 9d3d 985a 153f 8712 37be c867 46bf
000003a0: b772 f7be b018 603f 61ca bbbe 0151 09bf
000003b0: be8d 46be d0e6 a83e a199 edbe 43fa 62bf
000003c0: 2df1 21bf d467 a9be 7716 083d 691c 9a3e
000003d0: 6aeb 94bf 4164 a93e 979e 943e 87bc eabd
000003e0: d09d b83f 6802 e73e 549a 113f 040f ee3d
000003f0: c6d4 1fbf 65b5 abbe e2dc 863d 15d2 0d3f

linear1.bias f4 [64]
-0.20405091 0.4798778 0.26092556 0.13893728 -0.37056723 0.034107834 0.015211116 0.5161505
0.011455383 -0.06687263 -0.27456582 0.06928149 0.39709714 0.37287617 0.25417277 -0.0006686032
0.44110912 0.5164321 0.39054966 0.3366328 -0.026058732 -0.013992713 -0.542299 -0.051945515
0.4848577 0.17778245 -0.31022397 0.5935436 0.7719445 0.47648004 0.4625975 0.010945022
0.44743004 0.7839571 -0.40938652 0.021024775 0.22333902 0.36875585 0.24124771 -0.123293385
0.03973864 0.0037993249 -0.4823023 0.25645238 -0.6671541 0.03326242 0.23941581 -0.03393907
0.09386526 -0.30358052 -0.635251 0.7355714 0.0037299285 0.18363987 0.3757977 -0.49770623
0.35064653 0.3823085 0.2874067 0.3507332 -0.35300007 0.4338454 -0.024440568 0.19039826
00000000: b9f2 50be 8bb2 f53e 0998 853e 9345 0e3e
00000010: fdba bdbe a8b4 0b3d 0b38 793c 7022 043f
00000020: 5caf 3b3c 84f4 88bd e493 8cbe 74e3 8d3d
00000030: 5150 cb3e a0e9 be3e ef22 823e 3445 2fba
00000040: 0ed9 e13e e534 043f 20f6 c73e 225b ac3e
00000050: 1f79 d5bc b141 65bc 1bd4 0abf d2c4 54bd
00000060: 453f f83e 9a0c 363e add5 9ebe 79f2 173f
00000070: 289e 453f 31f5 f33e 94d9 ec3e c052 333c
00000080: 8d15 e53e 6ab1 483f 1c9b d1be 263c ac3c
00000090: fcb2 643e 91cd bc3e a409 773e 3e81 fcbd
000000a0: fcc4 223d 18fe 783b 54f0 f6be ba4d 833e
000000b0: 9cca 2abf 2d3e 083d 6b29 753e b203 0bbd
000000c0: 6e3c c03d e86e 9bbe cf9f 22bf 684e 3c3f
000000d0: d171 743b 170c 3c3e 8e68 c03e 5ad3 febe
000000e0: f187 b33e f1bd c33e f926 933e 4d93 b33e
000000f0: 6dbc b4be fc20 de3e 9637 c8bc c3f7 423e

linear2.weight f4 [64, 64]
0.68712896 -0.7103832 -1.0498016 -1.9055527 -0.44025385 0.11961602 -1.2922814 0.38802028
-0.89669865 0.41909406 -0.62120605 -0.51325184 0.38279018 0.08794967 0.025442636 0.9750974
-0.76043844 0.010240791 -0.6811945 -0.3504702 -1.399019 0.9056775 -0.6586927 0.3398213
-0.25701976 0.28417337 -0.11453545 0.4843608 0.19926251 0.39765522 -0.37972116 -0.4502247
0.25722197 -0.49548304 0.10553591 0.122196876 0.61410743 0.24348101 0.6432733 0.18657309
1.3927435 1.2590033 -2.4879289 0.22177905 -0.7258823 0.39946538 -0.009918282 -1.1361324
0.5589731 -0.17411925 0.24513915 0.6650035 1.2778224 -0.2195083 0.5872805 -0.7590274
-0.9775617 0.54786277 -0.30870628 0.4787661 0.9115453 0.27948695 -0.43210092 -0.90550435
0.2324875 0.26862222 0.2137436 -1.8639675 0.19030797 -0.37571108 -2.9809263 0.14201267
0.79007393 0.35644704 0.53899896 0.313487 0.40207043 0.37333146 0.064710595 -0.12544912
-0.0012632783 0.57656837 0.003851368 -0.45051008 -0.94572484 -0.29903087 0.5711082 0.055177655
0.20485984 0.082926564 -0.17537907 0.37119758 0.24563915 -0.0013092277 0.031611715 0.8129688
-0.10619697 0.43565488 -0.28346267 -1.1055025 0.41978833 0.3298575 0.10734582 0.08900209
-1.1430123 -1.0314049 0.8828809 -0.067083076 0.092350386 -0.33136594 0.12634708 0.0759924
-0.36290312 -0.7861679 0.051320083 0.3352501 -0.5686545 0.12214449 0.1750037 0.7043721
0.16500737 0.7236814 -0.046039216 0.17529684 -0.35652506 0.072174355 -0.098183155 0.070674196
1.3728924 -1.7185953 -0.17848246 -1.7204291 -2.883805 -0.5223667 -4.4456306 -0.7979901
1.0869696 0.7655211 2.2283726 -0.82652754 -0.24938169 -0.6604487 0.679394 0.23244321
-0.035059057 -0.3438934 -1.1523651 -1.2340041 2.061036 0.8343167 1.5141034 0.08656902
0.7402544 0.03786588 -1.490167 -0.07103006 -0.6071999 -0.80073535 -0.17006965 1.1340845
-1.0176575 0.6050136 0.3427198 -0.69651765 0.15552542 0.29716817 0.24661852 0.9131359
-0.8483272 0.29522336 0.9831748 -1.2338343 -0.27012256 -0.13905583 -1.1145328 0.58872116
-0.40250668 -0.7153992 0.07983897 0.49858817 0.59774005 0.8518422 0.20227529 1.2672486
-0.5577667 -0.90873474 -1.5555713 0.99894404 2.176555 -0.5528192 -0.49207637 -0.429983
0.017377257 -0.012978557 0.10210694 0.008863677 -0.11909667 -0.12770337 0.053883467 0.021968206
-0.11223662 -0.117548175 -0.021301582 0.06821335 -0.109414 -0.090098 -0.09719192 -0.102506325
-0.03559551 -0.089079894 -0.073015586 -0.05798225 -0.06933382 -0.08165471 0.107832715 0.09490236
-0.09652306 0.037835684 -0.0040234793 0.005206014 -0.07368749 -0.11980606 -0.122466356 0.032874197
-0.11907116 -0.06673585 0.038302403 -0.112531595 -0.108599514 0.07557529 -0.11502483 -0.07077235
-0.029302895 0.023500167 -0.04773826 -0.14106868 0.031817302 -0.06077531 -0.11009142 -0.06589113
0.08666684 0.017763034 -0.1195133 -0.028530195 0.04665343 -0.06400842 0.034023575 -0.069321305
0.051364385 -0.03126742 0.0088059 0.09933202 0.046156306 0.09335857 0.06861029 -0.008757878
00000000: afe7 2f3f acdb 35bf e65f 86bf 27e9 f3bf
00000010: f468 e1be 3ef9 f43d 7a69 a5bf 98aa c63e
00000020: 0b8e 65bf 7f93 d63e 5c07 1fbf 7964 03bf
00000030: 13fd c33e f51e b43d 136d d03c fc9f 793f
00000040: 18ac 42bf fec8 273c c362 2ebf d470 b3be
00000050: 0e13 b3bf 7bda 673f 16a0 28bf 0ffd ad3e
00000060: 1898 83be 2c7f 913e 9091 eabd 24fe f73e
00000070: 790b 4c3e 7799 cb3e d06a c2be da83 e6be
00000080: 99b2 833e f4af fdbe 3623 d83d 5b42 fa3d
00000090: 2536 1d3f 1653 793e 8fad 243f 040d 3f3e
000000a0: 6b45 b23f 0527 a13f 3a3a 1fc0 0c1a 633e
000000b0: 6cd3 39bf ba86 cc3e 4a80 22bc c96c 91bf
000000c0: dc18 0f3f 514c 32be c205 7b3e ab3d 2a3f
000000d0: af8f a33f c9c6 60be 0458 163f 9f4f 42bf
000000e0: 7c41 7abf bc40 0c3f c00e 9ebe d520 f53e
000000f0: 085b 693f ea18 8f3e 553c ddbe 22cf 67bf
00000100: 3411 6e3e da88 893e 9adf 5a3e 7d96 eebf
00000110: 18e0 423e 345d c0be 7fc7 3ec0 c56b 113e
00000120: 4942 4a3f 3a80 b63e d6fb 093f 5e81 a03e
00000130: 2ddc cd3e 4d25 bf3e fd86 843d bc75 00be
00000140: 9694 a5ba fc99 133f 3c67 7c3b 42a9 e6be
00000150: 061b 72bf 931a 99be 2634 123f f701 623d
00000160: c7c6 513e 67d5 a93d 9296 33be 9c0d be3e
00000170: d488 7b3e 649a abba 497b 013d b91e 503f
00000180: cc7d d9bd 280e df3e 0522 91be 1b81 8dbf
00000190: 7fee d63e 15e3 a83e 20d8 db3d ba46 b63d
000001a0: 3a4e 92bf 1305 84bf 7c04 623f da62 89bd
000001b0: 3322 bd3d cca8 a9be 2161 013e e7a1 9b3d
000001c0: 70ce b9be 4d42 49bf 0235 523d e7a5 ab3e
000001d0: 5793 11bf e426 fa3d 2c34 333e bb51 343f
000001e0: b1f7 283e 2f43 393f 9e93 3cbd 0481 333e
000001f0: 748a b6be 26d0 933d 4014 c9bd a2bd 903d
00000200: f0ba af3f eefa dbbf 1bc4 36be 0537 dcbf
00000210: 4390 38c0 d3b9 05bf 9b42 8ec0 1449 4cbf
00000220: d221 8b3f 31f9 433f a89d 0e40 4f97 53bf
00000230: ea5d 7fbe 2a13 29bf c4ec 2d3f 9805 6e3e
00000240: 169a 0fbd cc12 b0be b380 93bf d9f3 9dbf
00000250: 04e8 0340 c795 553f 24ce c13f 194b b13d
00000260: 5081 3d3f 4119 1b3d cbbd bebf 3578 91bd
00000270: 7471 1bbf fefc 4cbf bd26 2ebe ae29 913f
00000280: 9a42 82bf 2ce2 1a3f f878 af3e fb4e 32bf
00000290: 0e42 1f3e 6d26 983e 9189 7c3e 46c3 693f
000002a0: f92b 59bf 8427 973e 58b1 7b3f 48ee 9dbf
000002b0: 814d 8abe a764 0ebe 03a9 8ebf 6eb6 163f
000002c0: 5b15 cebe 6724 37bf 9d82 a33d f346 ff3e
000002d0: 7e05 193f 5512 5a3f 4121 4f3e 3435 a23f
000002e0: ccc9 0ebf d7a2 68bf f61c c7bf ccba 7f3f
000002f0: ad4c 0b40 8f85 0dbf 6ff1 fbbe bb26 dcbe
00000300: c05a 8e3c 03a4 54bc 711d d13d f538 113c
00000310: f4e8 f3bd acc4 02be e9b4 5c3d abf6 b33c
00000320: 50dc e5bd 19bd f0bd a880 aebc 71b3 8b3d
00000330: 7214 e0bd 4d85 b8bd 8f0c c7bd d6ee d1bd
00000340: 99cc 11bd 856f b6bd 3289 95bd cc7e 6dbd
00000350: e4fe 8dbd 963a a7bd 66d7 dc3d 2b5c c23d
00000360: e2ad c5bd 97f9 1a3d 64d7 83bb 3697 aa3b
00000370: 77e9 96bd e15c f5bd a4cf fabd 18a7 063d
00000380: 95db f3bd ceac 88bd fbe2 1c3d f776 e6bd
00000390: 6c69 debd 38c7 9a3d 2392 ebbd 18f1 90bd
000003a0: a00c f0bc 6c83 c03c 3289 43bd 4f74 10be
000003b0: dc52 023d 88ef 78bd 9c77 e1bd eef1 86bd
000003c0: 627e b13d c883 913c 64c3 f4bd 28b8 e9bc
000003d0: ab17 3f3d d916 83bd 4e5c 0b3d 54f8 8dbd
000003e0: 7663 523d 4412 00bd 9f46 103c 966e cb3d
000003f0: 650e 3d3d c732 bf3d 8d83 8c3d 347d 0fbc

linear2.bias f4 [64]
0.19648364 0.4013462 -0.7619767 0.07348835 0.14714299 0.10118215 0.029088793 0.39643934
-0.006538121 0.05860165 0.20996508 0.32462943 -0.060322225 -0.14015952 0.23669732 -0.024710678
0.14074121 -0.6435695 0.19722417 0.18978325 0.26528335 0.10151473 -0.07303365 0.07240085
0.3482279 0.36090675 -0.1224329 0.36020288 -0.1419792 0.013603087 -0.10826809 0.15588258
0.3217382 -0.1971753 0.1302881 -0.13099627 0.08756816 -0.8475742 0.27297392 0.43946114
0.08419046 0.31118956 -0.19921257 0.40408978 0.1931853 0.15822637 -0.07062815 -0.12097648
0.43014088 0.14886537 -0.017718429 -0.34708738 0.25190654 0.4361774 0.14457189 -0.053506285
-0.16814952 0.18106875 -0.27339453 0.28461036 -0.4403018 0.2392955 -0.08745302 -0.17076343
00000000: 0233 493e 407d cd3e e810 43bf 0f81 963d
00000010: a7ac 163e 9638 cf3d 9f4b ee3c 19fa ca3e
00000020: bc3d d6bb 4908 703d 1601 573e d435 a63e
00000030: 7014 77bd fa85 0fbe c860 723e 0c6e cabc
00000040: 771e 103e f9c0 24bf 22f5 493e 8a56 423e
00000050: 38d3 873e f4e6 cf3d ab92 95bd e646 943d
00000060: ed4a b23e c5c8 b83e 1abe fabd 836c b83e
00000070: ff62 11be 7bdf 5e3c a9bb ddbd af9f 1f3e
00000080: dfba a43e 52e8 49be 3e6a 053e e323 06be
00000090: ef56 b33d 9ffa 58bf 3dc3 8b3e 0d01 e13e
000000a0: 0c6c ac3d 3d54 9f3e 61fe 4bbe dbe4 ce3e
000000b0: 5ed2 453e 1806 223e 7ea5 90bd 84c2 f7bd
000000c0: 6d3b dc3e 2a70 183e 3d26 91bc 70b5 b1be
000000d0: e5f9 803e a552 df3e a70a 143e 6829 5bbd
000000e0: 632f 2cbe 166a 393e 5efa 8bbe 73b8 913e
000000f0: 3d6f e1be e109 753e 921a b3bd 9cdc 2ebe

out.weight f4 [4, 64]
1.2328655 -0.81700575 -1.7500262 -0.03325374 1.2447343 -0.967748 -0.6227638 -0.4569208
-0.60181236 1.5777376 -0.8191053 0.31059363 0.06997698 -1.1651644 0.49794117 0.07986371
-1.1757815 -1.7160138 1.2868919 2.490993 -0.28915262 1.4460298 -0.6801077 -0.42760873
-1.1142726 0.72102547 -0.54757357 0.86478704 0.03771974 0.123509765 0.09114328 1.3837634
1.1481763 -1.627917 -1.064068 0.07159932 -0.7128488 -1.5977681 1.0461093 0.78542906
-0.7832527 -0.8390021 -1.147752 0.70342124 1.0339586 0.7621029 0.005878255 -0.00312641
0.7031359 1.1498121 -0.08329868 1.2918315 -1.150994 0.52553076 -0.75805116 0.08430937
-0.9684839 0.7735147 -1.2085 0.91361177 -1.1443733 2.4298604 -0.11374237 0.057024617
1.2415341 -0.8028496 -1.6253245 0.07733474 1.62312 -0.8000728 -0.94646746 -0.272032
-0.8866643 1.578453 -0.67322266 0.37119424 0.070508756 -1.4495279 0.61117256 0.025005372
-1.0926803 -2.0272734 1.3584914 2.425504 -0.47726277 1.6198194 -0.64057845 -0.34758988
-1.1270362 0.7778766 -0.58970135 0.85056996 -0.0058990964 0.06686723 -0.035567686 1.3401344
1.2040509 -1.5942557 -0.7339989 0.042485505 -0.8247824 -1.1226053 0.8870744 0.8754476
-0.78509897 -1.0129639 -1.1630756 0.5396817 0.89888036 0.7029834 0.002531373 -0.05198647
0.68005747 1.1979914 -0.5123859 1.4030044 -1.2124783 0.35992637 -0.68348336 0.02155745
-1.3066882 0.8303261 -1.204645 0.8479206 -1.0880563 2.3147883 -0.047988098 0.051023163
1.2887303 -0.50059295 -1.8960223 -0.11241783 0.6624933 -0.9855388 -0.59949833 -0.5396202
-0.54662806 1.7736399 -1.1417034 0.5373495 -0.08544007 -1.6780577 0.19635123 -0.036053047
-0.8703064 -1.8445011 0.8163246 2.502751 -0.35643598 1.1833253 -0.7813876 0.33819398
-0.9917544 0.84112006 -0.5460632 1.1261086 0.040722996 -0.05064784 0.024625057 1.1391988
1.1261321 -1.5654724 -1.155221 -0.11815216 -0.833239 -0.7092488 0.5472882 0.46355158
-0.48630422 -1.000152 -0.68199646 0.73557115 0.9375861 0.8567222 -0.025555655 2.8021655e-05
0.86009556 1.022315 1.6006976 1.3619204 -1.0342212 0.81051683 -0.47935084 0.06592865
-1.3811578 0.881665 -1.1092725 1.4412048 -1.1182966 2.2654564 0.02340543 0.023839101
1.2280909 -0.807399 -2.647532 -0.02251948 0.9002633 -1.0163082 -0.3732539 -0.5351557
-0.35428378 1.809118 -0.8628602 0.3242855 0.023372667 -0.18497007 0.3367891 0.111501634
-1.085748 -1.6923069 1.2096486 2.5029278 -0.03325971 1.0809376 -0.6515046 -0.8798042
-1.450587 0.89047897 -0.611917 0.6575686 -0.026549876 0.07777064 0.03138861 1.3251585
1.096215 -1.5114356 -1.1453315 -0.109633386 -0.7166917 -2.3464463 0.9991487 0.8162552
-0.7380182 -0.685551 -0.9469693 0.6122283 1.0182588 0.8721257 -0.014939845 0.069436125
0.8958847 1.1865402 0.672511 1.1028924 -1.2251598 0.40779784 -1.1164912 0.03901522
-0.68471324 1.0387049 -1.226419 1.0365611 -0.9773632 2.4129066 -0.06426132 -0.09589307
00000000: 89ce 9d3f 4a27 51bf dc00 e0bf 1335 08bd
00000010: 7453 9f3f 55be 77bf 736d 1fbf 86f1 e9be
00000020: 6010 1abf 4ef3 c93f e3b0 51bf 2106 9f3e
00000030: 1750 8f3d 1b24 95bf 25f2 fe3e 968f a33d
00000040: 0280 96bf 57a6 dbbf e0b8 a43f 6e6c 1f40
00000050: d00b 94be 8117 b93f 8a1b 2ebf 88ef dabe
00000060: 7ca0 8ebf 2095 383f c82d 0cbf af62 5d3f
00000070: 0480 1a3d b0f2 fc3d 54a9 ba3d 291f b13f
00000080: 71f7 923f 965f d0bf 6133 88bf aaa2 923d
00000090: 427d 36bf aa83 ccbf e9e6 853f e111 493f
000000a0: 4083 48bf d7c8 56bf 8ae9 92bf 6a13 343f
000000b0: c158 843f 2d19 433f 609e c03b 75e4 4cbb
000000c0: b700 343f 0b2d 933f 8098 aabd bc5a a53f
000000d0: c553 93bf 2f89 063f a40f 42bf 64aa ac3d
000000e0: 90ee 77bf 0f05 463f 21b0 9abf 76e2 693f
000000f0: d37a 92bf d582 1b40 c2f1 e8bd a592 693d
00000100: 97ea 9e3f 8d87 4dbf a20a d0bf ad61 9e3d
00000110: 65c2 cf3f 92d1 4cbf b14b 72bf c747 8bbe
00000120: 6efc 62bf bf0a ca3f 5258 2cbf 2c0d be3e
00000130: e566 903d 218a b9bf ce75 1c3f 11d8 cc3c
00000140: f3dc 8bbf d9be 01c0 0ce3 ad3f 753b 1b40
00000150: c95b f4be 3e56 cf3f f3fc 23bf 4df7 b1be
00000160: b942 90bf ec22 473f abf6 16bf f4be 593f
00000170: 354d c1bb b0f1 883d 6caf 11bd 8689 ab3f
00000180: 571e 9a3f 9210 ccbf 5ae7 3bbf 4805 2e3d
00000190: f024 53bf 88b1 8fbf 4f17 633f 551d 603f
000001a0: 3ffc 48bf cda8 81bf a9df 94bf 9428 0a3f
000001b0: 061d 663f b8f6 333f 64e5 253b c4ef 54bd
000001c0: 3f18 2e3f c857 993f b92b 03bf a695 b33f
000001d0: 7d32 9bbf 4548 b83e c4f8 2ebf 4099 b03c
000001e0: 8f41 a7bf 4090 543f cf31 9abf 5311 593f
000001f0: 6e45 8bbf 7e25 1440 2b8f 44bd aafd 503d
00000200: 1df5 a43f dc26 00bf dcb0 f2bf 523b e6bd
00000210: 2999 293f 454c 7cbf b978 19bf 8d24 0abf
00000220: d1ef 0bbf a206 e33f 5623 92bf bd8f 093f
00000230: 34fb aebd 98ca d6bf 4c10 493e 5cac 13bd
00000240: 66cc 5ebf 9d18 ecbf a6fa 503f 132d 2040
00000250: c77e b6be 3477 973f 0509 48bf c327 ad3e
00000260: 9ee3 7dbf a553 573f ccca 0bbf 5424 903f
00000270: 28cd 263d 1c74 4fbd 7dba c93c 44d1 913f
00000280: 1925 903f 6661 c8bf 48de 93bf c2f9 f1bd
00000290: 274f 55bf 5491 35bf 141b 0c3f a256 ed3e
000002a0: defc f8be fb04 80bf 5297 2ebf 644e 3c3f
000002b0: a505 703f 2552 5b3f 185a d1bc 0c10 eb37
000002c0: 392f 5c3f 38db 823f a9e3 cc3f 6853 ae3f
000002d0: 5c61 84bf 087e 4f3f 796d f5be 9a05 873d
000002e0: c7c9 b0bf ccb4 613f a4fc 8dbf 6679 b83f
000002f0: 5824 8fbf 3dfd 1040 bfbc bf3c 384a c33c
00000300: 1532 9d3f b3b1 4ebf 2a71 29c0 c67a b8bc
00000310: a877 663f 6316 82bf 231b bfbe f7ff 08bf
00000320: af64 b5be 2e91 e73f 68e4 5cbf c008 a63e
00000330: 0978 bf3c cb68 3dbe 9f6f ac3e f85a e43d
00000340: caf9 8abf 839d d8bf c4d5 9a3f f82f 2040
00000350: 553b 08bd 2a5c 8a3f 01c9 26bf d93a 61bf
00000360: d6ac b9bf 6ef6 633f 98a6 1cbf 6a56 283f
00000370: 207f d9bc 3746 9f3d 5891 003d cb9e a93f
00000380: c650 8c3f b976 c1bf 399a 92bf 7887 e0bd
00000390: 1b79 37bf 2d2c 16c0 36c8 7f3f 1af6 503f
000003a0: c3ee 3cbf 4580 2fbf 946c 72bf feba 1c3f
000003b0: 4e56 823f a143 5f3f 40c6 74bc 8734 8e3d
000003c0: b358 653f 8de0 973f ae29 2c3f 942b 8d3f
000003d0: 09d2 9cbf e1ca d03e 2fe9 8ebf 6cce 1f3d
000003e0: 5e49 2fbf 48f4 843f 4cfb 9cbf 09ae 843f
000003f0: 7a34 7abf 106d 1a40 709b 83bd 9663 c4bd

out.bias f4 [4]
0.42205018 0.39710543 0.107922405 0.2526972
00000000: f616 d83e 6751 cb3e 6c06 dd3d 8761 813e
