solved/DQN.pth (torch, 22367 bytes, 6 tensors)

linear1.weight f4 [64, 8]
00000000: b341 6dbd 1589 d53e 60d6 2ebe a914 443f
00000010: 842c c43e f1f3 af3f 4df0 f5bc 61f1 1fc0
00000020: 14be 303f 915a 17be 3400 22c0 24f6 eb3e
00000030: 7bdf 283f 7515 b93d 29ed d43c 4fa4 343e
00000040: 3aa8 323f cb16 083f 8872 9f3d 1ddf e23d
00000050: 68ae 26be 4707 543e 3257 74bf 58c4 cfbe
00000060: c585 873f 9ad4 06bf 60ad 1dbf 492c 55be
00000070: 4de1 b03e 8964 1b3f 69dd 3c3e 1307 eebe
00000080: e004 b7bb 1232 30bf 05c6 b4be f8be c4bf
00000090: 05d3 1bbf 51f2 a63e 59f8 f43e c1b0 11c0
000000a0: ea72 08bf 0c1f 1a3f bbcb 1fbe 8125 59be
000000b0: ccc0 72bc 288f ffbd 0d4d e1be feef 4ebf
000000c0: 5c88 e2bd 0928 d53e d657 c6be adba af3e
000000d0: bfda 02bf 0908 083f 0aae 82bf 7f52 93be
000000e0: 6a7b 78bf 9a6d 1c3f 5a28 af3e 6b99 803e
000000f0: 8ebd 293e 144b 033f 8225 6dbd 9686 39bf
00000100: b267 18bf ab1c 583e ebbe 94bf 3231 953f
00000110: 55cc d73d 74a2 5cbc 598a 813e 1b5b 8e3c
00000120: 9d1b 153f 3903 2dbe 4b13 3e3e 7e71 ad3f
00000130: 6fab c4be 629d b0bd 6ee4 103f e637 2d3f
00000140: bc31 6ebf 71e9 013f 49b0 193f 8052 09bf
00000150: 9d8f 413f 3b1c 96bd 97a4 36bf b3b3 44bf
00000160: cd99 1bbe cd79 963d cd46 28be 19b1 723e
00000170: fc43 913f 44cb 59bf 15a9 2d3e 8476 913e
00000180: e8ef 7f3d 9610 04bc e83b 3940 f6c3 b6bf
00000190: 70e8 07be 08fb c83e 8ee9 36bd 9f12 683d
000001a0: 0c09 523f 013f 32be 68b1 f3be 641c 97bf
000001b0: ba53 40bf db52 72bd ce5c 41bf 0396 4fbf
000001c0: 84e4 a8be d52a ac3e 1f9a b2bf 93b9 fa3e
000001d0: 9c4c 81be 1e08 4abf f6d2 df3d 4ba4 a93e
000001e0: 378a f6be 6162 99bd 6e87 a6bf bd99 01bf
000001f0: 9ab1 723e df62 4c3e 12b4 e9bc cd0e 583e
00000200: 3c62 17bf b6f5 4f3d e12d 82bf 1bcf 4d3f
00000210: baa7 cb3c 4137 7bbf d44d 223f f914 203e
00000220: 9365 533f 3e8b 1fbe 187c 77be f102 753f
00000230: bc3b f33e 0f50 8b3d 32ee 43bf 3d29 4cbe
00000240: 9f18 87bf 1932 e0be 6f3c 913e f44e aa3f
00000250: 2daf 14bf 2835 df3e 023c cb3e bdf8 5cbe
00000260: 77cd 213d 4983 253d 4605 9abd 322f 8bbf
00000270: 0b65 dabe 5992 b03c 31b0 b1be 8fbd 12bf
00000280: c83b 1abd 5918 a1bd 284a ee3e 1447 2740
00000290: ac91 a13b 39a9 d73b e720 3ebf a003 98be
000002a0: 9d63 4ebd 784c 0c3e 7086 c0bf 802c 2cbf
000002b0: 2d46 bd3e 8684 ed3e d1a4 a6bf 214d aebc
000002c0: 5f1b 053e c4b9 3a3e 67d2 fcbd f445 32be
000002d0: 7ba0 05bd 56dd 383b bd8b fe3b f774 5abf
000002e0: 39d0 1abf c390 12bf 7602 7e3f ceb5 58bf
000002f0: bc3a 423f bdcb dfbe 732b d23e 85e6 f63e
00000300: 4741 65be 4afb 98bd ca3b 57bd 9bf6 dc3d
00000310: 5ba1 2140 c245 0c3e 7df6 bfbf def6 483e
00000320: 4c88 093e 368a fb3e 9925 193d d7b1 3dbe
00000330: d95a a03e ade1 d73e 6377 66bf 19ae 13bf
00000340: ced2 d23e 0025 f23e d60a 83bf f7d2 433e
00000350: 6a03 a13e 5600 56bf baaf cdbd 7ad9 74be
00000360: c71f 97be b25f 89bd d874 3bbe 99ba 2cbf
00000370: 3b55 5b3e 71c0 dcbe e37e 7fbf be15 9ebf
00000380: 41e9 f73d 7331 6d3e 9cb5 373e 3890 68be
00000390: 8f2b e63e a3a3 6d3e b7e2 81bf 7fb2 04bf
000003a0: 192a 2abf db49 303f b94c c0be 48a0 17be
000003b0: 1431 aebe 0a42 973d ce5f 9bbf f205 61bf
000003c0: e912 2fbe 25ae 883e b942 113f 7bd9 0a3f
000003d0: fb59 69bf 22ac cfbf 1d10 0f3e 176e da3e
000003e0: c4e6 79bd 704d 8abc 4159 e8bf d6bb 8fbe
000003f0: e91d ebbc 93dd 7abd bff8 523f 8d66 833f
-0.057923984 0.41706148 -0.17073965 0.76594025 0.38315213 1.374632 -0.03002181 -2.4991076
0.69040036 -0.14780642 -2.5312624 0.46086228 0.65966004 0.09037296 0.025991993 0.17640804
0.69787943 0.5315978 0.07785517 0.11077712 -0.16277468 0.20705901 -0.9544555 -0.40579486
1.0587698 -0.52668154 -0.61592674 -0.20817675 0.3454689 0.6070028 0.18443836 -0.46489772
-0.005585298 -0.688264 -0.35307327 -1.5370779 -0.60868865 0.32606748 0.47845724 -2.2764132
-0.53300345 0.60203624 -0.15605061 -0.21205713 -0.014816474 -0.12478477 -0.44004098 -0.8083495
-0.11061165 0.41632107 -0.38738889 0.3432211 -0.5111503 0.5313726 -1.0209363 -0.28773877
-0.97063315 0.6110474 0.34210473 0.2511705 0.16576216 0.51286435 -0.0578971 -0.72470987
-0.59533226 0.21104686 -1.1620764 1.1655638 0.1053702 -0.013466466 0.25300863 0.017377427
0.5824526 -0.1689576 0.18562047 1.355026 -0.38412043 -0.086237684 0.56598556 0.6766342
-0.9304464 0.5074683 0.60034615 -0.5364151 0.7560976 -0.07329603 -0.71344894 -0.768367
-0.15195389 0.073474504 -0.16433258 0.2370037 1.1348872 -0.85075784 0.16959031 0.28410733
0.06248465 -0.008060595 2.8942814 -1.4278553 -0.13272262 0.39254022 -0.04465633 0.056658383
0.82045054 -0.17406847 -0.47596288 -1.1805539 -0.75127757 -0.05916105 -0.75532234 -0.81088275
-0.32986844 0.33626428 -1.3953284 0.48969707 -0.2525376 -0.78918636 0.109289095 0.33133158
-0.48152325 -0.074894674 -1.301008 -0.5062521 0.23700562 0.19959591 -0.028528247 0.21099396
-0.5913427 0.050771438 -1.0170251 0.8039414 0.024860252 -0.98131186 0.63400006 0.15633
0.82576865 -0.1558046 -0.24168432 0.95707613 0.4750651 0.06802379 -0.7653533 -0.19937606
-1.0554389 -0.4378822 0.2836642 1.3305345 -0.580798 0.43595243 0.3969422 -0.21579261
0.039502587 0.040408406 -0.07520537 -1.0873778 -0.42655215 0.021554159 -0.34704736 -0.57320493
-0.037654668 -0.07865972 0.46540952 2.6137133 0.0049306955 0.006581452 -0.74268955 -0.29690266
-0.050387967 0.13701046 -1.5041027 -0.672554 0.36967602 0.4639017 -1.3019048 -0.021277012
0.12998722 0.18234926 -0.123448186 -0.17409497 -0.03262375 0.0028208098 0.007768123 -0.85334724
-0.6047397 -0.5725214 0.99222505 -0.8465241 0.7587087 -0.43710127 0.41048774 0.48222747
-0.22388183 -0.074698046 -0.052547254 0.10789224 2.5254734 0.13698485 -1.4997097 0.19625422
0.134309 0.49128884 0.03738937 -0.18524872 0.3131931 0.42164364 -0.9002592 -0.57687527
0.41176456 0.47293854 -1.0237682 0.19123445 0.31447917 -0.8359426 -0.10043283 -0.23911086
-0.29516432 -0.067077056 -0.18306291 -0.67472225 0.21419232 -0.4311557 -0.9980299 -1.2350385
0.121050365 0.23163395 0.17940372 -0.22711265 0.44955108 0.23206954 -1.0147313 -0.51834863
-0.66470486 0.68862695 -0.37558535 -0.14807236 -0.3402182 0.07385643 -1.2138612 -0.87899697
-0.17097057 0.26695362 0.56742436 0.542381 -0.91152924 -1.6224406 0.1397099 0.42662117
-0.06101109 -0.016882628 -1.8152238 -0.28072995 -0.028700786 -0.061246466 0.82410806 1.0265671

linear1.bias f4 [64]
00000000: b437 003f 14f3 82be 4ff4 3c3e 1936 a53e
00000010: a65f 32bf 41be 193e d04b dc3e dd8e f83e
00000020: 64cd 163f 5e9b f6be 6a7c dbbc 4548 953e
00000030: 6c72 833e 07dd 063f d1bb 953d 5c80 d13e
00000040: 3583 0ebf a8e8 943e fd9d 143d d37a 9e3e
00000050: ed06 1c3c ea03 003d 73a5 60bd f726 ff3e
00000060: 3e6e 143e 57f2 d23e 898c a93e ea07 b43e
00000070: d998 de3e 7972 d13e 43e5 c83e fcbe 1a3c
00000080: 2d2a c23e bf9c 633e 689b 773d 3439 b7be
00000090: 735c 40be 533d 7dbe 1fd7 243e 694e d53c
000000a0: 90b4 0c3f 2bfc 01bd d73a b73d 4282 c1bc
000000b0: 7fe5 853c ea05 e53d efea 073f b5c5 23bf
000000c0: 7419 f33d 0ab8 f1bd 34f2 e63d 1f8d 053f
000000d0: c542 8bbe 3578 873e 28e7 bf3d 88e6 50bf
000000e0: e77c 3dbd dca8 6f3e 071d 043f dcc7 d03e
000000f0: edb5 d2be cd43 7f3e 2dbe b33e 30e8 b93e
0.50084996 -0.2557608 0.18452571 0.32267836 -0.696772 0.15013982 0.4302659 0.48546496
0.5890715 -0.4816541 -0.026792724 0.291567 0.25673234 0.5268101 0.07311214 0.40918243
-0.55668956 0.29083753 0.036283482 0.30953082 0.009523136 0.031253733 -0.054845285 0.49834415
0.14495179 0.41200516 0.33115032 0.35162288 0.43475989 0.40907648 0.39237413 0.009444948
0.37922803 0.22227763 0.06045094 -0.3578583 -0.18785267 -0.24730425 0.16097687 0.026038365
0.54963017 -0.031734627 0.0894677 -0.023621682 0.016344784 0.11182769 0.53092855 -0.6397355
0.11870089 -0.11802681 0.11276665 0.5216846 -0.2719938 0.26458898 0.093702614 -0.8160176
-0.046261694 0.23404258 0.5160679 0.4077748 -0.41154423 0.24928208 0.3510603 0.36309958

linear2.weight f4 [64, 64]
00000000: 5c5b 84bf e3c6 0a3f f746 ce3d 1d75 4e3f
00000010: 3d9a eebf 9b2a 173e 4b45 6c3d cad6 ca3e
00000020: 654b e9be b92e babf 0c04 023f aa83 7d3d
00000030: 06ae c73e 91e5 ab3d b57e a7be 1048 81be
00000040: a2db 0ebe 35f0 bcbd 07ad f23e 17e8 3cbf
00000050: 2fef 9f3f bb4c dc3e 850c 6d3d ea4d a1bd
00000060: 62f7 803f ca34 933e 2d75 df3d 51d2 ac3e
00000070: c282 953e f61d 9b3e 5f26 3fbf bce4 7e3f
00000080: 3e0b c13e d6cf 473e 70a8 243e e012 8f3f
00000090: 02a6 b3be 9cec d83d 116f e73e 503c d23f
000000a0: 399b 11bf 12bb c5be 495c 203e 13a1 0f3d
000000b0: 748e b13e 732c 8c3e ef77 713e a2e7 40bf
000000c0: 390e 8f3e b6dc b73e e3cb cebe 331b 31bf
000000d0: aadd 943e ae25 4e3e a9e0 233e d40c 31bf
000000e0: 674c 39bf 09f8 c23e bd63 a73e bc3e 0dbd
000000f0: 5d92 973f 7892 313e 4437 ba3d 2d2a 723e
00000100: 5eb8 87be dd10 383f e45a edbc 97e8 683f
00000110: 2e2a 06c0 1b7b 563c a535 493e adec 873e
00000120: 4cb2 04bf 2593 84bf a644 833e 52c6 ff3d
00000130: c7f6 913d 6e18 323c c912 a7be 31fa 32be
00000140: 592f 09bf 1255 8fbd 4fed 2b3f e26e 2dbf
00000150: aa06 c53e 5a19 af3e 0fde 9d3c 4cfb 813e
00000160: 70bf b43f 4e87 383d 4f95 1b3e a78e 743e
00000170: eca4 183e b6a8 f73d 7ad4 ebbd ef38 8a3f
00000180: 1419 b8bd 9878 3a3e 6f61 1f3e 3527 b53f
00000190: c488 89bf 1768 c8bd eb22 303d 7b68 523f
000001a0: 5c3b 34bf c5e6 08bf 2dcd df3d 38fe eebd
000001b0: c41b 21bd e9bc 14bd 3e73 443e adec 3ebf
000001c0: 7c42 ecbb 171a 693e dad5 163c 1871 45bd
000001d0: 7566 e23e 3776 8dbc 941b 763e 56f2 a2be
000001e0: 9ed3 2fbf 509f 3e3e 6acb 0c3e d658 6dbd
000001f0: c175 b73f 5166 a43d 8e34 473e 7fb1 8d3c
00000200: 3dc4 9d3f f655 fbbe dee7 c4be 20cc 37bf
00000210: b8e8 1640 bb6b 27be 8cd9 1bbd d30e 8abe
00000220: e663 653f fa6b 903f 9a42 23bf 018f 323d
00000230: 01bf ca3e 5b36 1e3f 311b 013f 781f 4b3f
00000240: 6dc2 073f e682 a13f a183 8abe a975 c13f
00000250: af29 c4be f6ee 31be 6c4a 5fbe a027 123f
00000260: 28a2 7abf 6c21 28be 2aea 87be a78b 923e
00000270: a210 04bd 8567 d1bd 5ecb e63e 39e6 30bf
00000280: 3c0a 413e 051f d83e ce45 8dbf 224a 99bf
00000290: ef84 983f 56e2 513c b895 c0be d9f9 97bf
000002a0: 3944 803f 08a7 db3e 61f3 2cbf 36b4 133e
000002b0: 5e5c 0cbf 262f a4bd 16a0 d4be 83f9 da3f
000002c0: 1163 26be 0092 5dbf 6f5c 653f 14a7 3f3f
000002d0: d9d7 213f 60f9 babd 6a83 11be 7c65 b33f
000002e0: 8fd5 a73f 5f71 e3be ad70 5ebe c43f 683f
000002f0: 24e0 6fbf ca76 19be 0168 2ebd 30e9 01bf
00000300: 58f8 123f f37a ad3e 5206 dcbc 2c7c 863f
00000310: 04f9 5fbf d148 25bf 6724 3ebf 8336 983d
00000320: 0024 d7bf 7500 e4bf a1ee f03c 80b9 3f3f
00000330: b41b 13be bda2 17c0 0696 2a3d 66c3 e93c
00000340: cfb5 71bf 9371 eabf a243 0cbf 8f3a dbbf
00000350: 3a49 c4bf 1b44 6a3e 37f9 cabd e36d 6f3f
00000360: 85e0 ae3f a038 133e b79c 643f 3ab1 77bf
00000370: 6977 3abe fb9d 2dbf b509 023f 2d14 933e
00000380: a5ab fcbf 37e2 0ebf 4ea5 a93b af0a a63e
00000390: 9cec 93be 5c8f 3fbf 9b9f 523e 2bca 64bf
000003a0: ecae 08c0 9c1d 683e 0050 703f d270 a1bf
000003b0: 8b67 8abd 9f63 5dbf d4e6 0e3f fffa 30bf
000003c0: affd 7fbe 532a de3e 7227 233f 23c8 823e
000003d0: bb17 8e3f 291c e3be 910d 903e e409 a03f
000003e0: 6ee4 a9bf 47b5 0f3f c66d e83e d386 febe
000003f0: 8868 d03f f2df 88bd f84f 853f 47dd 753e
-1.0340381 0.5420973 0.10072129 0.8064745 -1.864082 0.14762346 0.05768327 0.39616996
-0.45565334 -1.4545509 0.50787425 0.061893143 0.38999957 0.08393396 -0.32713857 -0.25250292
-0.13950971 -0.09225503 0.47397634 -0.7379164 1.2494868 0.4302729 0.057873268 -0.07876189
1.0075495 0.28751212 0.109110214 0.3375421 0.29201323 0.30296296 -0.74667925 0.9956777
0.3770389 0.19512877 0.16079879 1.1177635 -0.3508759 0.10592005 0.45201924 1.6424656
-0.56877476 -0.38619286 0.15660204 0.03506572 0.34678996 0.27377662 0.23580907 -0.75353444
0.2794054 0.35910577 -0.40389928 -0.6918213 0.29075366 0.20131561 0.1600367 -0.691602
-0.72382206 0.3807986 0.32693282 -0.034483656 1.1841542 0.1734103 0.09092572 0.23648901
-0.26507849 0.7190073 -0.028974004 0.90979904 -2.0963244 0.013090874 0.1964937 0.26547757
-0.5183456 -1.0357405 0.25638312 0.124889985 0.07127147 0.010870082 -0.3263152 -0.17478253
-0.5358787 -0.06998648 0.6715898 -0.6774732 0.38481647 0.3419903 0.019270925 0.25387037
1.4120922 0.04505091 0.15193675 0.23882543 0.14906663 0.12092726 -0.11515136 1.0798625
-0.08989158 0.18210065 0.15564512 1.415259 -1.0744863 -0.097854786 0.04300205 0.82190675
-0.70403075 -0.53477126 0.10927806 -0.11669582 -0.03933312 -0.03631297 0.19184586 -0.7457989
-0.007210074 0.22763859 0.00920626 -0.048203558 0.44218794 -0.017268283 0.24033958 -0.31825513
-0.6868228 0.1861546 0.13749471 -0.05794605 1.4332811 0.08027328 0.19453642 0.01729655
1.2325512 -0.4908902 -0.3845815 -0.71795845 2.357954 -0.1634969 -0.038049266 -0.26964435
0.8960556 1.1282952 -0.637735 0.04359341 0.3959885 0.6180169 0.50432116 0.7934489
0.53031045 1.2618072 -0.2705355 1.5114032 -0.38313052 -0.17376313 -0.21805733 0.5709171
-0.9790368 -0.16419 -0.2654584 0.2862217 -0.032242425 -0.10224823 0.45077032 -0.6910129
0.1885156 0.42211166 -1.1036928 -1.1975749 1.1915568 0.01281031 -0.37614226 -1.1873122
1.002082 0.42900872 -0.67558867 0.14424214 -0.5482844 -0.08016805 -0.41528386 1.7107395
-0.16248728 -0.86550903 0.8959417 0.74864316 0.6321998 -0.09129596 -0.14210287 1.4015346
1.3112048 -0.44422433 -0.2172267 0.907223 -0.93701386 -0.1498672 -0.042579655 -0.5074644
0.5741019 0.33882865 -0.026858483 1.0506644 -0.8748934 -0.64564234 -0.74274296 0.07432272
-1.6807861 -1.781264 0.029410662 0.74892426 -0.14366037 -2.3693078 0.04164698 0.028535556
-0.9441804 -1.831591 -0.547907 -1.7127246 -1.5334847 0.22877543 -0.09910815 0.9352705
1.3662268 0.1437707 0.8930163 -0.967548 -0.18209614 -0.67819184 0.5079606 0.2872633
-1.9739882 -0.55813926 0.0051771766 0.32430026 -0.28891456 -0.74828124 0.20568697 -0.89370984
-2.1356764 0.22667545 0.9387207 -1.2612555 -0.067580305 -0.86480135 0.55820966 -0.6913299
-0.24999116 0.43391666 0.63732064 0.25543317 1.1100992 -0.44357422 0.2813535 1.2503018
-1.3272836 0.5613598 0.4539625 -0.49712238 1.62819 -0.06683339 1.041503 0.24010192

linear2.bias f4 [64]
00000000: 345e f23e 2f11 4e3e c665 b13e 5dd0 3f3c
00000010: 03bf 9f3e da29 273e 142e 803d da87 ba3e
00000020: 21e8 953e b3dd 2cbe d261 b5bb 0788 a63e
00000030: 8f6a 723f 7afb cb3e 63f2 433e 3698 8a3e
00000040: e187 253e 0851 4a3d 7d51 9b3e ab55 d13e
00000050: bce1 0a3e d77b b63e dab9 f83e 4d28 d73e
00000060: 0d04 e33c d9eb 563e 1fa0 993e 3341 df3e
00000070: 8eeb 1bbe 5fe1 503f 9f68 07bc 8d2e 813e
00000080: 57b1 ce3e 2516 00bd 6c36 7b3e 9b8e 103e
00000090: 6802 2d3e 5d7e 143e 922f 873e a749 813e
000000a0: 7981 b33e 5c0e 3b3f 187a a33e aeb8 bf3e
000000b0: f935 a53e c76f bf3e 8f33 d13d 650d 1dbd
000000c0: 8e54 b33e a552 bd3e bb56 cf3e e29b a53d
000000d0: 84a1 9e3e 9ce5 d43e ff0b aa3e 8f01 aebd
000000e0: 3ffb 5f3e 6408 963e 586f 973e 905e 3e3f
000000f0: 33ed 6a3c 9504 b73e 5d3c e63c 11d8 82bd
0.47337496 0.20123743 0.3464796 0.0117073925 0.31200418 0.16324559 0.06258789 0.36431772
0.29278663 -0.16881447 -0.0055353427 0.32525656 0.94693846 0.398403 0.19135432 0.27069253
0.16165115 0.049393684 0.30335608 0.40885672 0.13562673 0.35641357 0.48579293 0.42022935
0.027711893 0.20988406 0.30004975 0.4360443 -0.15226576 0.8159389 -0.00826469 0.25230828
0.40369675 -0.03127112 0.24532479 0.141169 0.16895449 0.14501329 0.2640348 0.25251505
0.35059717 0.73068786 0.31929088 0.37445587 0.3226774 0.37389967 0.10214912 -0.038342852
0.35025448 0.36977115 0.40495858 0.08086373 0.30982602 0.41581428 0.33212277 -0.08496391
0.21873187 0.29303277 0.29577136 0.7436304 0.014338779 0.35745683 0.028104955 -0.06388868

out.weight f4 [4, 64]
00000000: eeac 763e 6069 843e 1bbd 4abf d353 0140
00000010: 310b dc3e 9dce bc3e f367 d73e f6af 3d3e
00000020: 60a1 cdbe f499 823d 6ef4 8ebf 213f 773e
00000030: b56b d03f a831 b73e 669e 663e 9e59 0f40
00000040: 0a2a 24bf 3777 aa3d 639b da3e 7128 d23e
00000050: 5a4c ce3e acda d13e 43b7 5c3e 8fd7 a53e
00000060: 6226 a03f 4092 b53e 1adc 653e c5bd 703e
00000070: 0480 1a3d 3b52 3a3f b1b4 07bf 8bf0 f73e
00000080: 85e9 8b3e a850 3abf 9498 7cbf 1763 acbe
00000090: 70a5 853e 03dc 9b3e 6d6d a73e 94e7 b53e
000000a0: d260 693e 5fb6 d93f d229 6abf 64da d63e
000000b0: 4226 bb3e 67b2 663e b2bb 23bf aee3 663f
000000c0: 5898 ba3e 0b30 aa3e 02df 6a3e d8ac 8b3e
000000d0: 1907 58bf c1d9 bc3e 93dc 9e3e ab72 593d
000000e0: 5334 70bf 64d1 7d3e 7904 ca3e 837f e43f
000000f0: 0016 533f 5d9b b43e a841 7bbf cc2c 06bf
00000100: 9e7b b83e 1a57 2d3e 0de4 38bf ad90 1040
00000110: a590 c83e 2169 dd3e cc2a 67be 640c 0b3f
00000120: a0e3 8fbe efc4 02bd 13ab 92bf 07d6 b33e
00000130: 1333 db3f 2056 473e c695 e93e 8348 0f40
00000140: 5016 31bf 1b61 693a d3d7 b93e 7608 bb3e
00000150: ce4c 8b3d 15d8 963e 4827 b23e d153 663e
00000160: 63b8 8e3f cced aa3e 7ed6 c83e fe27 a03e
00000170: f0e7 7e3c 8506 0e3f 10cc 09bf 6b06 f83e
00000180: 987a aa3e 747e 29bf f472 b3bf 2e0c 31be
00000190: 2b91 993e 5b90 fd3e 0365 ae3e f3ec f43e
000001a0: a293 a63e 9895 dc3f 5621 6ebf b7ab b43e
000001b0: 72c5 d23e dbab c33e 2c36 1abf aae8 523f
000001c0: d511 a83e 412a 163f fab4 2b3e 54a7 9c3e
000001d0: bd85 6ebf d3b3 843e 796c f23e 4099 b03c
000001e0: 13b4 73bf f0a9 8c3e 3f05 373e 921e d53f
000001f0: 94fc e23e e6b4 913e 84ff 7ebf 2046 e9be
00000200: 2051 e93e 30d7 5d3e daa9 28bf 682d 2740
00000210: 5733 503e ccae 963c 98b2 d93e cee7 653e
00000220: 599d 91be e869 b83c a0c9 81bf 3429 aa3e
00000230: ed26 bc3f 5f7c e93e 5495 343e 0be4 0640
00000240: b05a 2cbf 2b3c 94bd 99ab 293e 4e92 a83e
00000250: 72c5 8e3e f5d9 f03e 0d7d 063f c4e8 133f
00000260: 1abf 8e3f 8c10 aa3e 54e9 a53e f832 b93e
00000270: 7528 133c f0af 903f d00e 51bf 0c22 853e
00000280: 1deb eb3e 59f4 d1be 3a28 b0bf 863b e8bd
00000290: f5db 953e b39d 8c3e 7401 2e3e 19fa 1d3e
000002a0: bf09 af3e 8f9c bd3f 328a 4fbf 60a5 d03e
000002b0: 4579 8e3e 7a43 e63e 159d 3abf e5f7 9bbf
000002c0: 8216 ee3e ba7f d73e 0a44 fb3e cd88 433e
000002d0: 5e3b 6ebf cd01 f63e 0333 653e 9a05 873d
000002e0: 2af2 4abf fa0b c63e 135d b33e 1302 dc3f
000002f0: fdb3 ba3f a150 913e 8f40 64bf a43e 01bf
00000300: 83ed 823e 2764 813e 2f41 91bf d9aa ec3f
00000310: 4d95 883e 7652 9f3e 40a5 4c3f 2a23 803d
00000320: 01ff ddbe d0b9 e33c 3cac 88bf 771b 913e
00000330: 8543 bc3f 75f8 df3e 212d 863e 76e9 0940
00000340: 7694 27bf 2595 bebd 775a b23e 15f5 b73e
00000350: df33 0f3f 1874 9e3d 7d70 413e 6b66 803e
00000360: b1bf b73f 8e90 853e a5af 213e 998e a13e
00000370: 207f d9bc af02 7c3f 41aa c2be a27b ca3e
00000380: bc48 ac3e 2816 3dbf 18be 26bf 0dad 29bf
00000390: 7063 a83e 907c ff3d 8b94 ef3e d1d4 a53e
000003a0: 9f28 8e3e 45f2 da3f 9a83 33bf 304f b93e
000003b0: 0545 a33e 2219 b03e a12f 17bf c2b6 4f3f
000003c0: eae6 c53e c1b7 073b 3302 e33e 1ea0 f23e
000003d0: ff60 65bf 0d3b a13e d688 2a3e 6cce 1f3d
000003e0: 6766 3abf 7f0e 573e 4764 c43e 8df9 e93f
000003f0: eddb 903f c627 e23e badc 80bf dc7c 38bf
0.24089405 0.25861645 -0.791948 2.0207412 0.42977288 0.36876383 0.42071494 0.18524155
-0.40162182 0.063770205 -1.1168344 0.24145176 1.628287 0.35780072 0.22521362 2.2398448
-0.64126647 0.0832352 0.42696676 0.4104648 0.40292627 0.40987146 0.21554284 0.3239102
1.2511714 0.35463142 0.22447243 0.23509891 0.03771974 0.72781724 -0.5301009 0.48425707
0.273266 -0.7277932 -0.98670316 -0.3366935 0.2610278 0.30441293 0.32700673 0.35528243
0.2279084 1.700878 -0.9147006 0.41963494 0.36552626 0.22528993 -0.63958275 0.9019116
0.36444354 0.3323978 0.22936633 0.27280307 -0.8438583 0.36884883 0.3102766 0.05308787
-0.9382984 0.24786907 0.39456537 1.7851413 0.82455444 0.35274783 -0.9814706 -0.52412105
0.36031812 0.16927758 -0.7222298 2.2588303 0.39172855 0.4324427 -0.2257492 0.5431578
-0.28103352 -0.03192609 -1.1458458 0.35124227 1.7124962 0.19466448 0.4562208 2.2388008
-0.6917467 0.00089027145 0.36297473 0.36529893 0.06801759 0.29461733 0.34795594 0.22492911
1.115002 0.3338455 0.39226145 0.31280512 0.015558228 0.554787 -0.53827 0.48442397
0.33296657 -0.6620858 -1.4019456 -0.17289802 0.29993567 0.49524197 0.3406144 0.47837028
0.3253451 1.7233152 -0.93019617 0.35287258 0.41166264 0.38217053 -0.6023891 0.8238627
0.32826105 0.58658224 0.16768256 0.3059641 -0.9317282 0.25918445 0.47348383 0.02155745
-0.95196646 0.27473402 0.17873095 1.6649954 0.44333327 0.28458327 -0.99608636 -0.45561314
0.45569706 0.21664119 -0.6588417 2.6121464 0.20332085 0.018393897 0.4251907 0.22451708
-0.2844036 0.022511438 -1.0139656 0.3323456 1.4699379 0.456027 0.17635089 2.1076686
-0.6732588 -0.07238039 0.16569366 0.32924122 0.27885014 0.47041288 0.5253456 0.5777705
1.115207 0.3321575 0.32404578 0.361717 0.008981814 1.1303692 -0.8166323 0.26002538
0.46077815 -0.41006735 -1.3762276 -0.11339478 0.29269376 0.27464065 0.16992742 0.15427436
0.34187123 1.4813403 -0.81070244 0.4075117 0.27826896 0.44973356 -0.7289594 -1.2185026
0.46501547 0.42089635 0.49075347 0.19095154 -0.9305934 0.4804825 0.2238274 0.06592865
-0.79275763 0.38681012 0.35031947 1.7188133 1.4586178 0.28381827 -0.8916101 -0.50486207
0.25571832 0.25271723 -1.1348017 1.8489639 0.26676407 0.311176 0.7993965 0.06256707
-0.43358615 0.027798563 -1.0677562 0.28341267 1.4708105 0.43744245 0.26206306 2.1548743
-0.6546091 -0.09305791 0.34834644 0.3592917 0.55938524 0.07736987 0.18890567 0.2507814
1.4355375 0.2608685 0.1578966 0.31554106 -0.026549876 0.98441595 -0.38020518 0.3954745
0.33649242 -0.7386193 -0.6513381 -0.6627968 0.32888365 0.1247493 0.46793017 0.3238893
0.27765366 1.7105185 -0.70122683 0.36193228 0.31888595 0.34394175 -0.5905705 0.8113824
0.38652736 0.002070889 0.44337615 0.47387785 -0.8960113 0.31490365 0.16653761 0.03901522
-0.72812504 0.21001624 0.38357756 1.8279282 1.1317116 0.4417097 -1.006736 -0.7206552

out.bias f4 [4]
00000000: c4ea 61bb f854 af3d 997b fd3e 5f84 62bd
-0.0034472207 0.085611284 0.4950836 -0.05530202
