solved/DQN_policy_net_lr0005.pth (torch, 23007 bytes, 6 tensors)

weight f4 [64, 8]
00000000: d5fd a0bf db24 fe3d 4c27 123f 9357 32bf
00000010: e2a1 bdbe 79b5 833f af2a f2bd 6d00 04c0
00000020: 7403 e73e 76f1 11be d220 9abe 37f5 94bf
00000030: 39bf acbf 5d07 1dbf 53e9 27c0 f60d 40bf
00000040: 0795 23bf ed6b 07c0 a159 433f 3442 253f
00000050: 939e b6be 92de 823e 66be 4c3f ecfe ce3e
00000060: b2f2 8d3e cc16 2b3f 7978 a03e d7b2 383f
00000070: ce74 4ebf 15c5 8fbf ce2a bbbf fa26 963f
00000080: 67d0 dcbe 1350 1dbe 8453 26bf 02e3 ab3f
00000090: 5f2f a9bc 4b26 213e 89a2 b7bf 5c6d 733f
000000a0: 21dc e2be 7ee7 18bf 2bb7 fabe 9b65 5abf
000000b0: 8c6e 413f 553c 8b3f f478 dd3e a863 d9bf
000000c0: 6a87 83be 7fb4 bc3e e691 293f 3c35 f8be
000000d0: ba9b 11bf dbd0 5e3e 7ab9 04bf ecfe 7c3e
000000e0: 6672 63be ff66 973d d5e8 81bf c20a 0640
000000f0: 511a b53e 8f04 be3e e9ad 9abf 3b9b 21bf
00000100: 8ac5 803e 0246 333f 44c6 a03e df63 efbe
00000110: b7f5 16be 33d4 893d da31 e5bd 7aae 8cbd
00000120: 13de 943e 5a1f 66bb 6d58 f73e fc34 2f3d
00000130: 4334 b3be 3cd0 333f d173 c4be e543 36bf
00000140: 1ee9 493f 5566 d4bd 073d f33e b619 7dbf
00000150: d113 bb3e 32c0 0ebf 789b 5bbf 7614 f53d
00000160: 4c96 673f fd15 383f b4f0 81bd 30b6 20bf
00000170: 8dda 4a3e d860 c13f 7a70 1bc0 6a66 6fbf
00000180: 5b9a 50be aa6d e63e 1b19 7bbd 0c69 38bd
00000190: a002 373f 3c99 c83e 2b1a 1ac0 e2fe 9e3f
000001a0: 9993 4c3e 7b2c 033f 95c2 18be 702c 05bf
000001b0: 83cb 99be 9bfb f23d c98c 9c3e 19a6 85bd
000001c0: baad 1fbd 77f5 253f 79fa 29be ad5b 50be
000001d0: 1812 4abd 854c 183d 5de6 7b3d afae 7dbe
000001e0: 0366 f4bb 2195 1c3d cdd1 4cbd 0fc8 943d
000001f0: 3801 8140 9277 69be 7c1f 7fbe fa5c ad3e
00000200: 1cb3 33bd 272a 383f 6bea d8be b337 e63e
00000210: 33b4 4fbe c51a 91bc 8109 ff3e 0f89 463f
00000220: 4779 aabe 93a3 e23e 1874 8f3f e903 18bf
00000230: 9ced 7bbf 90b6 bd3e f1dc 0dc0 0f2d efbf
00000240: c659 9cbe 8218 c6bb b550 c5bc dd0c 9cbf
00000250: d768 083e 50df debe d890 8e3d 05ca a4be
00000260: b871 cabe 656e b13e 857e 6ebe 6b72 adbe
00000270: 2f3c 453e 0a33 f33d d115 b3bf 39a2 57be
00000280: 9994 523e 029b 5a3f 79fd 743e c97f d3be
00000290: 9ece 38be 1ff7 d93e bc56 95bf 236c 9bbf
000002a0: 1fa8 12bf a89b 52bf 5a1f 85bf db5e bebf
000002b0: b4fd f13d c4c0 af3e 19ce 27bf a678 76be
000002c0: 5658 a43d 0bbe 173f e010 463e 7048 f9be
000002d0: d03c 653f 4d8c 81be d232 13be b1d6 eabf
000002e0: 8623 71be 7ae8 4f3f 0dbe 9bbe 3334 9a3f
000002f0: d2fa c23e 35b5 823f e3f3 bfbf 5f58 b2be
00000300: 91a7 9a3e 33eb 0d3f 9621 4b3e 14dd 1c3f
00000310: 5e67 25bf 5168 e2bf d94c 0abf 1bb6 143f
00000320: cf8e 413e 10f1 113f c223 93bd 925b 383f
00000330: 100b df3e 5a2f c93f b84e 3fbf 9a89 14c0
00000340: 071b 673f 2ca1 9e3e 672a 1bbf 5456 e9bd
00000350: e703 a53b 8aca 343e 35c1 613e bc37 bd3d
00000360: 1eb8 0dbe e811 8b3d eafd 1a3e 3d9e 7abf
00000370: c96c 30bd aaaf 163f 3d53 1dc0 e48b 2dbd
00000380: 30dc c5bf 8312 143f 48b3 c3bd a92e 9c3e
00000390: 6ee1 22be 452c 39bf a49a 96bf a239 86be
000003a0: cc0c 91be 0ed2 55be 6d41 28bf 9b5b 49bf
000003b0: 83fb 0a3f dc86 ac3d 0e4c 0fbf 41a1 6cbf
000003c0: d422 fdbe bbe4 803e d5c9 953d 407e 92bf
000003d0: 3d41 c0be 4940 36bf 9b13 15bf 3938 793f
000003e0: 4a1c d73c 2d0c 343f c370 393f 4e22 f3bd
000003f0: bf13 46bd 21e6 a33f 4566 eabe e3d5 1cbe
-1.2577463 0.124093734 0.5709121 -0.6966488 -0.3703757 1.0289756 -0.118245475 -2.062526
0.45119822 -0.14252266 -0.30103165 -1.1637334 -1.3495857 -0.6133936 -2.623616 -0.750213
-0.6389927 -2.1159623 0.7630864 0.6455414 -0.35667858 0.25560433 0.79978025 0.40428865
0.27724224 0.6683166 0.31341913 0.7214789 -0.8064698 -1.123202 -1.4622438 1.1730645
-0.43127748 -0.15362577 -0.64971185 1.3428652 -0.020652471 0.15737264 -1.4346477 0.95088744
-0.4430857 -0.5972823 -0.4896787 -0.8531129 0.75559306 1.0877787 0.43256342 -1.6983538
-0.2568925 0.36856458 0.6623825 -0.48478115 -0.56878245 0.2175936 -0.51845515 0.2470662
-0.22211608 0.07392692 -1.014918 2.0944066 0.3537164 0.37112853 -1.2084323 -0.6312749
0.2515071 0.700287 0.31401265 -0.46755883 -0.1474217 0.06729927 -0.11191149 -0.06869216
0.2907568 -0.0035113902 0.4830965 0.04277514 -0.3500081 0.70239615 -0.3836961 -0.7119735
0.78871334 -0.10371081 0.47507498 -0.98867357 0.36538556 -0.55762017 -0.857841 0.11966793
0.9046371 0.7190855 -0.063447386 -0.62777996 0.19809933 1.5107679 -2.42874 -0.93515646
-0.20371382 0.45005542 -0.06130324 -0.045022056 0.7148838 0.3917941 -2.4078472 1.2421534
0.19978179 0.51239747 -0.14917977 -0.5202093 -0.3003808 0.11864396 0.3057616 -0.06525821
-0.038984038 0.64827675 -0.16599454 -0.20347472 -0.04933366 0.03718235 0.06149899 -0.24773668
-0.00745845 0.038228158 -0.05000477 0.07264721 4.031399 -0.22799519 -0.24914354 0.33859998
-0.043871984 0.7193932 -0.42366347 0.4496437 -0.20283584 -0.01771296 0.49811938 0.77552885
-0.33295652 0.44265422 1.1207304 -0.59380966 -0.9840944 0.37053347 -2.2166102 -1.8685626
-0.30537242 -0.006045402 -0.024086336 -1.2191426 0.13321243 -0.4352975 0.069612205 -0.3218538
-0.39539886 0.34654537 -0.23290451 -0.33876356 0.1926124 0.11874969 -1.3991033 -0.21057977
0.20564498 0.85392773 0.23924817 -0.4130843 -0.18047568 0.4257135 -1.1667094 -1.2142376
-0.5728778 -0.8226876 -1.0400193 -1.4872698 0.11815968 0.34326756 -0.65548855 -0.24069461
0.08024661 0.5927436 0.19342375 -0.48688078 0.8954592 -0.25302354 -0.14374855 -1.8346769
-0.23548707 0.81214106 -0.30418435 1.204718 0.38081986 1.021155 -1.4996303 -0.34833047
0.30205968 0.5543701 0.19837031 0.6127484 -0.6461085 -1.7688085 -0.5402351 0.5809037
0.18902133 0.5700846 -0.07184555 0.72014725 0.43563128 1.5717576 -0.7472949 -2.3208985
0.90275615 0.3098234 -0.60611576 -0.11393419 0.0050358656 0.17655388 0.22046359 0.09239146
-0.13839766 0.06790525 0.15135923 -0.978977 -0.043072496 0.5886179 -2.4582055 -0.04236974
-1.5457821 0.57840747 -0.095556796 0.3050435 -0.15906307 -0.72333175 -1.1765943 -0.26215845
-0.28330076 -0.20880911 -0.6572483 -0.78655404 0.54290026 0.0842416 -0.55975425 -0.92433554
-0.49440634 0.25174507 0.07313887 -1.1444778 -0.37549773 -0.7119184 -0.5823304 0.97351414
0.026258606 0.7033108 0.72437686 -0.118717775 -0.048358675 1.2804605 -0.4578115 -0.15315966

bias f4 [64]
00000000: a70c 573f b234 ec3e 466f f7bd 9299 cc3e
00000010: a2da 37bf ea7b 10bf 53f3 3a3f 4fdd 4c3b
00000020: ecb6 073f e2d1 79bd 2c0d 6a3f 040e 1f3e
00000030: e52b 5ebf 4ae7 2a3f 0002 0d3f 5409 9cbc
00000040: 8d5e 543f c74c 103f d7f7 343f a701 b03e
00000050: f027 a63e 90d0 883f 7b54 f83e 5cba 283f
00000060: 1466 c43e 813d f93e 319d d83c 7887 483e
00000070: a9bc cd3e d9ec 2d3f 21dc bdbb 330b 1c3f
00000080: c262 ae3e 5e26 603f f42b 3bbf 16d7 223d
00000090: 1ee7 2d3f 70f4 37bf 2bb2 443e dec7 4bbf
000000a0: d620 2d3f 2f4c 6fbc c0f0 a9bc e95d 403f
000000b0: 6a83 fd3d f4ae 0e3e 6b7e 253f 5919 5f3f
000000c0: bb9e 753f 2d65 1bbe eef8 363f 598c 673f
000000d0: 8505 da3e ab7e 643f 72aa ef3e cfa9 8ebc
000000e0: 0740 2a3f aa44 56bf 5093 db3e a53b 363f
000000f0: 531c 873e 6325 423f 6f03 3c3f 3125 0b3f
0.8400368 0.46133953 -0.120817706 0.39960915 -0.7181798 -0.5643908 0.73027533 0.003125984
0.5301349 -0.060991175 0.9142635 0.1553269 -0.8678573 0.6675917 0.55081177 -0.019047417
0.82956773 0.5636715 0.70690674 0.3437626 0.32452345 1.0688648 0.48501953 0.6590936
0.3835913 0.48679736 0.026442142 0.19582927 0.40183 0.67939526 -0.0057940637 0.6095459
0.3405972 0.87558544 -0.7311394 0.039755903 0.6793078 -0.7185736 0.1920859 -0.7960185
0.6762823 -0.014605566 -0.020744681 0.75143296 0.12378581 0.13933927 0.64646024 0.8714805
0.9594533 -0.15175314 0.71473587 0.9044853 0.42582336 0.8925578 0.46809727 -0.017414955
0.6650395 -0.83698523 0.42885828 0.7118476 0.26388797 0.758383 0.7344274 0.54353625

weight f4 [64, 64]
00000000: 5959 fcbe afc7 943f f32c a23e 7503 bf3f
00000010: dc63 013d a54d 703f 24bd 993c ee77 963f
00000020: 6801 0c3e 4158 a63e 902c b73e 4444 34be
00000030: ecf8 733f c84e cdbd f3d1 293d 518e 423f
00000040: 3ba1 f63e 5e0b e4be cc7f 54bd d43b 3d3f
00000050: 953d ba3e 336a 403d c7ba e53d 7de8 143f
00000060: 582b df3f 21b2 b93e a12a 6e3f f07c 043d
00000070: e70a 523e f686 fdbe cb84 1d3f 31d1 c3be
00000080: 54a3 6dbf 953b 233f b436 f73e b07b ce3e
00000090: 5482 11be 0079 b33d 3130 ebbd 3e56 5a3f
000000a0: 1939 823e 2f18 833d 2bbc 4ebf 8651 5f3e
000000b0: 4c36 9bbf f148 ac3e c30e 553e e62d 4f3e
000000c0: 313c b53e 2bbc 453f 9cb4 b53f cea0 b13e
000000d0: f62c 78be 6e06 ea3e 3724 0fbf d4e1 293f
000000e0: c3f4 063f 459e babf 91f2 b43e 4d99 503e
000000f0: 822f 50be c841 05bf 459d b8bd 2856 1b3e
00000100: 60b1 e33c d204 f5be 86e9 8ac0 e204 213f
00000110: 0aa3 28bf 8a0d a43f 6711 80bd 4705 17bf
00000120: e5be d23d 05ba c2be 1572 a33f 5a85 f33d
00000130: 3c1e 1fbe a578 7f3d 9469 463d 8521 06c0
00000140: f729 58be 0fb6 48be 0b10 9b3f 3577 2c3f
00000150: 64d3 86bb 8b89 c2be 1b48 223e 948e a13e
00000160: 6b8f b43d 7b34 6f3e 8df3 ae3d 60cb 83be
00000170: bb73 e7bd fca4 633f e0e7 51bf 5016 353d
00000180: 868a 46be 6221 e5bd 8b56 413f 2e38 1d3f
00000190: 1b13 d83e 2d2f fabe 4147 d13e e26a 7b3f
000001a0: ac54 7a3f 7941 923f 6011 ecbf ae37 dfbc
000001b0: 1a19 e1bd cedf 8abf 55f9 a1be aba6 963e
000001c0: 84b5 90be 23bf 24bf 1e92 513d 14b3 bf3d
000001d0: bfe7 3e3e 1744 f33d 479e bebe 9535 85bf
000001e0: 7aa7 19bd 19f1 c9be 6da2 bd3e 7260 ed3d
000001f0: 8720 7abc 29d9 953e 446c 52be efb6 5bbe
00000200: fa45 ed3e 8acd 613f 7988 6e3e 3e72 d9be
00000210: b0a5 18be d3f5 83bf 8727 c03e 72f7 3c3e
00000220: 5826 0d3e f6a2 783f 61b0 85bf 5972 963e
00000230: 9f0b 87be 6615 e03e 7ae1 8a3e c660 393f
00000240: 0b0b 733e 2c65 0e3f ecb3 70bf a2c1 49bf
00000250: 132d 5f3e 6980 163f f396 a33e 4698 17bf
00000260: 52db a3bd 844b 0cbf 61b0 5b3f b6d0 5bbe
00000270: f2a2 e93e a858 d6be 8110 883f acab 6e3e
00000280: a0be 223f 2ee0 403f 8d41 acbe 61f4 cabe
00000290: 2b57 39bf a6c3 73be 5c5d 6f3d ff3f 7abf
000002a0: 079c 56bf e0c7 87bf 8654 ff3e addc 743e
000002b0: f840 1f3f cbb0 8c3e 0889 0f3f 40c8 d43e
000002c0: d557 c43e 7397 31bf 219a 953e 39ff ef3e
000002d0: 44e2 8f3e 12fa d13e 767d 91be 554c ae3f
000002e0: 2edf 5d3f ff36 093f d21a 43be 502c cf3e
000002f0: 74b4 8a3e 9c54 fb3e 80bb a73e 4544 903e
00000300: e759 043f 43a5 b23e 06c6 3a3c f635 5ebf
00000310: 2ebb 13bf d6ad 03bf 191d f43e d571 c63d
00000320: 7c23 a23e a25b 9f3f ee89 8abf 9b73 1b3f
00000330: 1475 74bf 7680 8f3e d6e8 fb3e ed8a 1f3f
00000340: 99b5 a53e 6d8d 0a3f 9cc3 83bf 20c0 32bf
00000350: 3a62 c23e 2b7f 1e3f 7ff2 b43e 3cf0 1fbf
00000360: ce1d 0ebf e0a6 21bf fa72 2c3f ad0e 21bf
00000370: 7001 ed3e 21e0 27bf 8742 623f 4e89 d53e
00000380: 6876 483f 8fe8 2b3f 19a4 17bf 3d75 1bbf
00000390: 44b3 4abf 3a73 e5be 2a6b e5be 79cc 82bf
000003a0: bc25 35bf 5e6b 83bf eb77 253f f8ef 8e3e
000003b0: 9902 693f ac5b 993d 8bca 2d3f 33de 1b3f
000003c0: 9234 1b3f 633f 36bf a250 febd e015 1f3f
000003d0: 7a21 db3e 0115 f03e dd5d dbbe d9f3 823f
000003e0: df52 3f3f 6267 4f3f 28ea 03bf 4e8f 193f
000003f0: 0a16 713e ddd5 223f bdc9 273e 9bd2 f83e
-0.49286917 1.1623439 0.3167492 1.492293 0.031589374 0.93868476 0.018766947 1.175535
0.13672411 0.32489207 0.35776186 -0.17604166 0.953017 -0.10024792 0.04145999 0.7599841
0.48169884 -0.44539922 -0.05187969 0.73919415 0.36375108 0.04697628 0.112172656 0.5816725
1.7435102 0.36268714 0.93033797 0.032345712 0.20511971 -0.4951703 0.6153075 -0.38245538
-0.92827344 0.6376279 0.48283923 0.4032874 -0.14209872 0.08763313 -0.11483801 0.85287845
0.25434187 0.06401097 -0.8075587 0.21808442 -1.2125945 0.336494 0.20806412 0.20232353
0.35397485 0.77240247 1.4195743 0.34692997 -0.24235901 0.4570803 -0.55914634 0.6636021
0.52717227 -1.457955 0.35341313 0.2037098 -0.20330623 -0.520535 -0.09014372 0.15169585
0.02779454 -0.4785524 -4.3410063 0.62898076 -0.6587378 1.2816632 -0.06253319 -0.5899243
0.102903165 -0.38032547 1.276919 0.11890669 -0.15538877 0.062370915 0.04844053 -2.0957959
-0.21109758 -0.196007 1.2114271 0.67369395 -0.004114555 -0.37995562 0.15847819 0.3155409
0.08816417 0.23359863 0.085425474 -0.257411 -0.11301371 0.8892362 -0.8199444 0.044210732
-0.1938878 -0.11188008 0.7552268 0.6141385 0.42202076 -0.48864117 0.40874675 0.98209965
0.9778545 1.1426231 -1.8442802 -0.02724823 -0.10991116 -1.084955 -0.31635538 0.29424033
-0.28263485 -0.6435415 0.05116474 0.09360328 0.18643092 0.118782215 -0.3723013 -1.0406977
-0.037513234 -0.39441755 0.37037984 0.11590661 -0.015266544 0.29267243 -0.20549113 -0.21456502
0.4634245 0.8820425 0.23294248 -0.42469972 -0.14906955 -1.0309395 0.37530157 0.18453768
0.13784158 0.9712366 -1.0444452 0.29384115 -0.26376054 0.43766326 0.2712515 0.7241329
0.23734681 0.55623126 -0.9402454 -0.78811085 0.21794538 0.5878969 0.31951103 -0.59216726
-0.080008164 -0.5480273 0.8581601 -0.21466336 0.4563213 -0.41864514 1.0630037 0.23307675
0.6357212 0.7534207 -0.3364376 -0.3963957 -0.7239863 -0.23805103 0.058438644 -0.977539
-0.8383183 -1.0607872 0.49869174 0.23912306 0.6220851 0.27478632 0.5606847 0.4155903
0.3834826 -0.6937172 0.29219154 0.46874407 0.28102314 0.410111 -0.28416032 1.3617045
0.8666867 0.5359954 -0.190532 0.40463495 0.270908 0.4908799 0.3276024 0.28177086
0.5169968 0.3489171 0.0113997515 -0.8680109 -0.5770749 -0.5143713 0.4767845 0.096896805
0.31667697 1.2449839 -1.0823343 0.60723275 -0.9549115 0.28027695 0.49201077 0.6232136
0.3236511 0.5412205 -1.029407 -0.6982441 0.37965566 0.6191279 0.3534126 -0.62475944
-0.5551423 -0.63145256 0.6736294 -0.6291302 0.4629016 -0.6557637 0.8838276 0.41706318
0.78305674 0.6715173 -0.5923477 -0.60725766 -0.7917979 -0.44814473 -0.44808322 -1.021865
-0.70760703 -1.0267141 0.64636105 0.27917457 0.9101959 0.07488188 0.6788718 0.60885924
0.6062709 -0.7119047 -0.12417723 0.62142754 0.42798978 0.46891025 -0.4284505 1.0230666
0.74735826 0.81017125 -0.5152917 0.5998429 0.23543563 0.6360758 0.16385551 0.4859818

bias f4 [64]
00000000: 12bb ef3e e7e5 49be accb 1f3f 23f4 f63e
00000010: fc87 863e fecb f03c 75d8 13bf 09b3 cdbd
00000020: feda 8e3e 4df7 e5bd 2829 de3e 187e 42bd
00000030: bc93 34bb e01a 90be 4868 bdbd de9d ec3e
00000040: 9b1a 863d 01c1 03bd 94ca c93e 6b63 b93e
00000050: 10fd 243e 187c b33c c7d6 cf3e 0812 ba3e
00000060: bdc1 923e fa7e ab3e 33a7 c23e 090f f53c
00000070: 8d90 113f 6c04 33bc f483 c53e 0e74 14bf
00000080: 714c bfbe 3c0a f13e 9f00 b3bd 1eee ec3e
00000090: 4b39 373e 7c52 093f db43 7fbe 47c6 dbbe
000000a0: da91 2c3d fe51 673d f420 23be 9579 a7bd
000000b0: f004 b33e 1222 fd3e 45aa e1bd 0f31 3a3f
000000c0: bb22 053f 32cc c73e 2152 0e3f 6ac4 ddbd
000000d0: c122 01bf 9ae4 17bd f399 fdbe 2b65 33be
000000e0: 9af6 063e 5ad7 af3e 85e0 c33e 5b4c 9e3e
000000f0: c4be cd3e e0a8 02bd 7ae3 393c 424d a2be
0.4682241 -0.19716607 0.62420154 0.48233137 0.26275623 0.029394146 -0.5775216 -0.10043914
0.27901453 -0.112288095 0.43390775 -0.047483534 -0.0027553877 -0.28145504 -0.09248406 0.46214193
0.06548043 -0.032166485 0.39412367 0.36208662 0.1611216 0.021909758 0.4059355 0.36341882
0.28663436 0.33495313 0.38018188 0.029914396 0.5686119 -0.010926347 0.38577235 -0.57989585
-0.37363008 0.4707812 -0.08740353 0.4627542 0.1789295 0.53641486 -0.24928229 -0.4292471
0.042131282 0.05647468 -0.1593054 -0.08177487 0.34964705 0.49440056 -0.110188045 0.7273111
0.5200612 0.39022976 0.5559407 -0.10828479 -0.50443655 -0.037083246 -0.49531516 -0.17519061
0.13180009 0.34343988 0.38257232 0.3091763 0.40184605 -0.031899333 0.011345739 -0.31699568

weight f4 [4, 64]
00000000: 2545 ef3f 5099 64bf f0da 383f 78f9 293f
00000010: a38c 133f 3c35 1540 3868 14c0 9149 36bf
00000020: febe 0540 e6d9 fbbe 4a8d 493f a07a 68bd
00000030: abb3 55bf ad46 6bbf a95a d0be 1a14 fc3e
00000040: 4632 993f 22dd 19bf cde6 cb3f 614c 343f
00000050: e018 00bf 8807 4ebf 4017 3c3f a160 203f
00000060: bba3 f93e ef46 143f 1ab8 c83e 7e4a 32bd
00000070: 3d9e 073f 2f55 74bf c483 143f 5060 393e
00000080: f3cf 9cbf 5bbe 403f 82ac 87bf 881e 1c3f
00000090: 14e9 1740 464b f33e 3ebd 87bf d82e 76bf
000000a0: 837d 81bd 9c48 30bf 8939 40bf 1fa9 ffbe
000000b0: 66ea e53e 9317 103f 56d3 2cbd 305f 7640
000000c0: 898e 833f 5e62 043f a2e8 2c3f ef81 27bf
000000d0: f0d8 83bf 6e63 e23c f82c 34c0 ea71 edbf
000000e0: b172 50bf f1a9 fc3e a8cc 393f f4a7 193f
000000f0: bf24 4abf 720a 0ebf d40c 96bf 90cf 89bf
00000100: 653a 933f ef53 34bf cfb7 443f dcbc de3e
00000110: 5ece 133f 3981 0540 969f dbbf e5e7 39bf
00000120: 8a06 4a40 3d67 33be 93f3 0f3f 0886 b93c
00000130: 0653 75bf 7c44 89bf 1f5d 98bd beac 2c3f
00000140: f9bc bc3f 3d7d 27bf 7d6b ae3f e894 453f
00000150: c446 a5bf 384e 92bf 8775 223f 6741 2d3f
00000160: b2db 233f 6887 403f 8041 563f 280a 0fb8
00000170: 5022 54be 4f69 0fc0 c17f 213f 9a5b a93e
00000180: 0892 8abf 1944 153f 5967 8abf 06a1 2f3f
00000190: 99c7 2440 3269 313f 28fa 6abf 61b2 45bf
000001a0: 9574 863c 5053 1bbf d4cb 5abf a98e a6be
000001b0: 5c2d 643f 6cb5 4e3f 332f 933d 1f58 7440
000001c0: 457d 823f ef65 393f a806 ab3e aee0 7abf
000001d0: 1a0c 50bf 76c5 823d c2a5 13c0 f6b1 f0bf
000001e0: ded2 91bf 419e 043f 44bc 0c3f 7a11 113f
000001f0: e71f 0b3e a499 6ebf 4373 81bf a9d9 66bf
00000200: cd14 2140 6fb6 57bf 88ae bc3e dfa4 1c3f
00000210: c271 3a3f ab5c ec3f d08b 01c0 cf2c 43bf
00000220: 630a 7540 d9f4 29bf 2b39 3d3f c019 423c
00000230: 4018 8abf 9b11 60bf 60b6 54bf 2feb 1c3f
00000240: 6cd4 443f 4301 bcbe 370e f83f 2d96 123f
00000250: b1f6 87bf af77 61bf 3e47 353f ef87 a43e
00000260: 4ea7 2a3f dcea 1e3f a182 223f 6318 443c
00000270: 7b09 2a3f 35b3 06be 32a1 243f 75af 62bf
00000280: a417 c3bf 4482 4b3f 54a7 8bbf 579d 2e3f
00000290: 71b7 0840 ed17 0a3f d785 18bf af0d 80bf
000002a0: af0c 08bd 6b94 d0be a9ed 13be 5320 8ebf
000002b0: 88dd 443f 4bc3 0b3f 9939 363d 9e8f 8240
000002c0: 6d41 963f f07b 043f 3fb2 bb3e 5fce 12bf
000002d0: e292 83bf e43e 92bd 95af 27c0 2f85 c2bf
000002e0: 6d7e 92bf d949 543f de84 113f b431 213f
000002f0: 3872 bdbf 3185 3ebf b748 57bf cd9f 6bbf
00000300: 423c 1240 e923 85bf 5d1f 633f 95b7 573f
00000310: f5f8 073f af1e 2140 0652 20c0 6f1b 0abf
00000320: 82a2 ec3f 742b 2fbf 8685 113f 4aaa cf3c
00000330: 5a18 30bf 7ea7 24bf 4a15 3dbf 8ec6 9c3e
00000340: bcb9 773f d4c6 56bf 2c13 e03f ac69 1a3f
00000350: 66e0 b83e dd4a 6fbf e151 ea3e 37af 333f
00000360: 5679 073f dc27 183f 3a2d e43e 4967 ba3d
00000370: 6ae8 613f 958a e13e 3134 913e 2ab4 c4be
00000380: 3847 c2bf 38c6 633f 3de3 a5bf 393e 403f
00000390: 3e46 fb3f 548d 233f 447d 90bf ab3a 7cbf
000003a0: a404 7d3d e89e 3fbf cb69 3dbf f553 63bf
000003b0: f40c 403e 9732 2e3f 5900 ba3d c039 8240
000003c0: cb1d 983f 51e6 9a3e a3e2 553f d9f6 bbbe
000003d0: a897 8cbf ad3f e4bc e1d7 4ec0 7425 eabf
000003e0: 6d85 13bf 5ebd d53e 2a91 203f 5e38 ec3e
000003f0: 82a7 d4bf 384d 92be f76c 93bf d78c 91bf
1.8692976 -0.89296436 0.7220907 0.66396284 0.5763647 2.3313742 -2.318861 -0.71206003
2.0897822 -0.4918968 0.78731215 -0.05675757 -0.83477277 -0.9190472 -0.40694168 0.49234086
1.1968467 -0.60103047 1.592981 0.70429045 -0.50037956 -0.8048024 0.73472977 0.62647444
0.4875773 0.57920736 0.39202958 -0.043528073 0.5297583 -0.9544248 0.5801356 0.18103147
-1.2250961 0.7529046 -1.059952 0.60984087 2.373601 0.47518367 -1.0604627 -0.9616523
-0.063227676 -0.68860793 -0.7508779 -0.49933717 0.44905394 0.5628597 -0.042193733 3.8495598
1.0277873 0.51712596 0.6754247 -0.6543264 -1.0300579 0.027635302 -2.8152447 -1.8550389
-0.81425005 0.49348405 0.72577906 0.600219 -0.7896232 -0.5548469 -1.1722665 -1.0766468
1.1502196 -0.7044057 0.7684297 0.43503463 0.57736766 2.0860121 -1.7158077 -0.7261947
3.156649 -0.17519851 0.5623104 0.022646919 -0.9582981 -1.0724025 -0.074396364 0.67451084
1.474517 -0.65425473 1.3626553 0.7718034 -1.2912221 -1.143012 0.6346058 0.6767792
0.64007103 0.75206614 0.83693695 -3.4103316e-05 -0.20716214 -2.2408025 0.6308556 0.330777
-1.0825815 0.58307034 -1.0812789 0.6860508 2.5746825 0.6930114 -0.9178796 -0.7722531
0.016413013 -0.60674 -0.8546727 -0.32530716 0.8913171 0.8074558 0.07186737 3.8178785
1.0194479 0.72421163 0.33403516 -0.97999084 -0.81268466 0.06385319 -2.306992 -1.8804309
-1.1392477 0.51803976 0.5497477 0.5666729 0.13586389 -0.93203187 -1.01133 -0.90175873
2.5168946 -0.84262747 0.36851907 0.61189073 0.7282983 1.846578 -2.0241585 -0.7624025
3.828759 -0.6638923 0.73915356 0.01184696 -1.078865 -0.87526864 -0.8309078 0.6129636
0.7688663 -0.36719713 1.9379338 0.572604 -1.0622159 -0.8807325 0.7081183 0.3213496
0.66661537 0.62077117 0.63480574 0.011968705 0.66420716 -0.131543 0.64308465 -0.88548976
-1.524159 0.79495645 -1.091044 0.6820883 2.1361964 0.5394276 -0.59579223 -1.0004176
-0.03321522 -0.40738234 -0.14446129 -1.1103615 0.7690053 0.5459487 0.044488523 4.0800314
1.1738716 0.51751614 0.36659428 -0.5734615 -1.02792 -0.07140902 -2.6200917 -1.5196894
-1.1444832 0.8292518 0.56843364 0.62966466 -1.4800482 -0.74421984 -0.8409533 -0.9204071
2.2849278 -1.0401584 0.8871973 0.842645 0.53114253 2.5174978 -2.5050063 -0.5394811
1.8487093 -0.6842568 0.56844366 0.025349755 -0.6878716 -0.6431807 -0.7386061 0.30620235
0.96767783 -0.8389714 1.7505851 0.6031749 0.36108702 -0.9347361 0.45765594 0.7018923
0.5291952 0.5943582 0.44565755 0.09101731 0.8824526 0.44051042 0.2836013 -0.38418704
-1.5177984 0.8897433 -1.2959973 0.75094944 1.9630811 0.63887525 -1.1288228 -0.9852702
0.061772004 -0.74851847 -0.7398955 -0.88799983 0.18754941 0.68045944 0.090820976 4.0695496
1.1884092 0.30253842 0.83548945 -0.36711767 -1.0983782 -0.027862394 -3.2319262 -1.829268
-0.57625467 0.41746038 0.627215 0.46136755 -1.6613619 -0.28574538 -1.1517628 -1.1371106

bias f4 [4]
00000000: 2bd2 3e3e aa58 363d d49a 9f3e c838 d63e
0.1863486 0.04451815 0.31172812 0.41840196
