solved/DQN_policy_net_every4.pth (torch, 23007 bytes, 6 tensors)

weight f4 [64, 8]
00000000: 01ca 44be 45a5 a83e a3b5 073f bfd8 63bf
00000010: 83e8 123f e2bb 923f b28b 75bf fe07 84bf
00000020: 5fba 373e c540 953d 09b1 c0be a36a c6bd
00000030: efed 8f3b a02f 51bd a0d6 7a3e a665 1a3f
00000040: c7b0 be3c 77a0 87bd 6910 493f 8e09 fb3f
00000050: 1be4 f0bd a9ef 363d 6df1 603f 5b2e 3c3f
00000060: 1233 0e3f 6c5a 9c3e fd57 833f b8a0 4cbf
00000070: 602d b3bf a573 81be 2e24 5cbf 820d 613e
00000080: fb94 e8be 7bba 97bc ebb6 c7be 1919 773f
00000090: 7b01 b13e b619 263f dd29 34bf 42da 28bf
000000a0: 128d cebe 8959 f1bd 70d8 60be 19e8 083f
000000b0: 892d 27bf 5599 83bf 1a77 1fbe c6bb 76bf
000000c0: c1e5 cebd 3a64 ba3e 46ed 293f a44a 45bf
000000d0: 4a07 cbbc 6e3d d93e 78cf 06bf ab09 c33e
000000e0: 0cf8 b0bd 720f 5f3e 7451 dc3d 3288 88bd
000000f0: ce40 e4be 7baa b3bf 35ee cabf ea93 bcbe
00000100: b57e 033e db02 1c3f f86a 693c ca4f 13bf
00000110: b62b b73c b95e 703d 5ebb bfbe c75a 0c3d
00000120: 65e9 8e3e 9472 2dbe 22ee acbe ebae 0ebf
00000130: fa54 13bf 387e 0ebf 80e0 a63d ac1b 6e3e
00000140: b221 4b3f 5a60 d7bf 1f16 a4bd b947 223d
00000150: c67c c73e b4fd a93c d024 873f 78a2 783f
00000160: 4d04 083e d1a9 2b3f 9e73 9d3e f53b 4ebf
00000170: b415 083f 85ad dc3f c980 83be d2e9 b5be
00000180: 7bff 853d ecec b93e f515 923e 7994 9c3e
00000190: d5f9 4cbf e116 26bf a92d c7bf 3c93 af3e
000001a0: a76d 8b3e 4a2e e43e 64c7 ebbe c35b 08bf
000001b0: 76d6 57bd e6f8 26bd 1818 223e 86f5 843d
000001c0: 934f 2d3d a7a9 0a3f b7eb 4dbe 4107 60be
000001d0: 393f 853e 053c 773c 4b97 3abf 5479 73bf
000001e0: 7f7a 7cbf c674 0d3d fb07 33bf 478b 3a3e
000001f0: c928 48be a392 4dbf c788 b7bf ba48 603f
00000200: fc51 bf3e b6d6 d13e b0f4 f1be 0a5b 2b3f
00000210: 6eb5 903f 9592 823f daa3 9f3d fc05 9f3f
00000220: ae72 04bf 228b 053f 5b0c 693f 8e56 4abf
00000230: ad6a 033f df16 523f 1ae4 86bf 4ed3 403f
00000240: 9cb0 1ebe 61e2 17be 461d 283d 3bfc a3bf
00000250: 258f 8fbe eec0 b6be 32ca 02bf b037 24bf
00000260: 2085 3f3d 2147 41be 14d4 d73e 6f13 adbe
00000270: ef47 12be 3763 b2be 1c0e cabe 7b5a 753f
00000280: 65a6 34bf 0df6 333f f7fc 283f 68ac e8be
00000290: 170f 8bbd 0e6e 7b3f 3a92 55be a7bd a43e
000002a0: 3ccf 0abf 0ab4 043e d839 c73e 9f6b c9be
000002b0: e0b4 53bf a580 013f 990e e4bd d415 86bf
000002c0: c682 14bd c3d3 cf3e 8705 133e 9185 bbbe
000002d0: 2b3b 4c3f 7f7c e8be 0ff0 acbe f08e 89bf
000002e0: c9ab 98be 1664 acbe bdc2 a1bb 2978 5e3f
000002f0: 12f4 813e c5ce 6e3f 168b 80bf 3f46 5dbf
00000300: 1145 7b3e 7833 bb3e a30e b33e cb64 bc3e
00000310: de93 6fbf b308 c7be 3a41 37bf f3f9 853f
00000320: 3361 c6bc c60e 7bbe f0c4 e73e c131 943e
00000330: 649c 3c3f 6ce7 a83f f366 abbf b049 55bf
00000340: 2ecf 3f3f 9ea8 a6bd d8f7 0a3f 68b5 0ebf
00000350: 7889 83bc ed6d 06be f9a3 bfbf d163 4abd
00000360: fe36 d13d 6ed1 84be 4cb1 193f 491c e5be
00000370: 109f d73d 25f9 c33e 3391 a9be fc92 b13e
00000380: 862f 41bf d8b4 153f d92a 193e 53e4 223d
00000390: d58e c23e a042 d3bd 2868 80bf 2424 45bf
000003a0: c720 0dbf 92a9 34be 91f4 51bf 0e9e 27bf
000003b0: 4673 b33e f2fe 823e 2a1d 12be 6702 86bf
000003c0: ab0a e4bd 6f7f 8fbe d42c d6bd ee24 57bf
000003d0: ef06 fcbe 019b ca3d 32ef 8c3e 9da7 df3d
000003e0: 2aac 743d c717 c33e afcc 05be ad5f b53e
000003f0: 8a62 523f ce97 ab3f 8a8b 4dbe 9b14 b8bf
-0.19217683 0.3293859 0.5301153 -0.89002603 0.57386035 1.1463587 -0.95916283 -1.0314939
0.17942189 0.072877444 -0.37635067 -0.09688308 0.0043923776 -0.05107081 0.24495935 0.60311353
0.023277653 -0.06622403 0.78540665 1.9612291 -0.11762258 0.04466215 0.87868387 0.7350823
0.5554668 0.30537736 1.0261227 -0.7993274 -1.3998222 -0.25283542 -0.85992706 0.21977809
-0.45426163 -0.018521538 -0.39006743 0.9652267 0.34571442 0.6488298 -0.7037638 -0.65958035
-0.40342003 -0.117846556 -0.21957564 0.5347915 -0.65303856 -1.0281168 -0.15572777 -0.9638027
-0.10102416 0.36404592 0.66377676 -0.7706702 -0.02478375 0.4242968 -0.5266032 0.38093314
-0.08641061 0.21783236 0.107577235 -0.06666602 -0.44580692 -1.4036402 -1.5853945 -0.368316
0.12841304 0.6094186 0.014246695 -0.57543623 0.02235971 0.058684085 -0.37447637 0.03426626
0.2791244 -0.1693824 -0.3377543 -0.55735654 -0.5755154 -0.55661345 0.08148289 0.23252743
0.7934829 -1.6826279 -0.08012032 0.03961918 0.38962382 0.020750858 1.0558109 0.9712291
0.1328289 0.67055994 0.3075227 -0.8056024 0.53158116 1.7240454 -0.25684193 -0.35529953
0.0654287 0.3631357 0.28532377 0.30582026 -0.80068713 -0.6487866 -1.5560809 0.34292018
0.27232096 0.44566566 -0.4605056 -0.5326502 -0.05269476 -0.04076471 0.15829504 0.064921424
0.042312216 0.5416512 -0.2010945 -0.21877767 0.26024798 0.015089993 -0.72887105 -0.9510701
-0.98624414 0.034535192 -0.6993405 0.18217193 -0.19546808 -0.80301875 -1.4338616 0.8761097
0.37367237 0.40984124 -0.47256994 0.6693579 1.1305368 1.0200983 0.07794924 1.2423701
-0.5173749 0.52165425 0.9103448 -0.7903832 0.5133465 0.8206615 -1.0538361 0.75322425
-0.15497059 -0.1483245 0.041043542 -1.281135 -0.28038898 -0.3569407 -0.51089776 -0.6414747
0.046757817 -0.1887479 0.4215399 -0.3380389 -0.14285253 -0.3484132 -0.3946389 0.9584119
-0.705664 0.7029732 0.66010994 -0.45444036 -0.067899875 0.98214805 -0.20856562 0.32175943
-0.54222465 0.12959304 0.3891132 -0.3933992 -0.8269787 0.5058692 -0.11135597 -1.0475411
-0.036257528 0.4059125 0.14357577 -0.3662534 0.79777783 -0.45407483 -0.337769 -1.0746746
-0.29818562 -0.3367011 -0.0049365447 0.869021 0.25381523 0.93284255 -1.0042446 -0.8643531
0.24538065 0.36562705 0.34972104 0.3679565 -0.93585 -0.38873824 -0.715839 1.0466903
-0.02421627 -0.24517354 0.4526744 0.2894421 0.73676133 1.3195624 -1.3390793 -0.83315563
0.74925506 -0.0813763 0.5428443 -0.55745554 -0.016056761 -0.13127871 -1.4971915 -0.0494116
0.10215567 -0.25941032 0.6003616 -0.44748142 0.10528386 0.3827602 -0.3311859 0.34682453
-0.7546314 0.5847907 0.14957751 0.03976853 0.37999597 -0.10315442 -1.0031786 -0.7700827
-0.5512814 -0.17642811 -0.82013804 -0.6547555 0.35048884 0.25585133 -0.14268938 -1.0469483
-0.11134847 -0.28026912 -0.10457769 -0.84040725 -0.4922404 0.09892846 0.27526242 0.109206416
0.0597345 0.38104078 -0.13066362 0.35424557 0.8218161 1.3405702 -0.20072761 -1.4381288

bias f4 [64]
00000000: 12b4 723f 4ec4 1f3f 7d72 183c 6568 083f
00000010: afd4 4abf 51f7 a53e 219b 093f ca38 55bc
00000020: 74d5 d53e 4973 f33e 2bd2 273e baa9 9f3e
00000030: f3d3 833e 562e 0e3f e826 e43e a5fe 283e
00000040: 0867 8e3e e940 063f d828 c33e d1da 523e
00000050: 9289 623e a861 ea3e 3bc2 a93e 42ee 57bf
00000060: 5634 7b3e 401d 36bf 58a4 efbd 801f 923e
00000070: cf6b b23e 1409 033f 1f77 0d3e 6464 063e
00000080: 4363 59be 5b81 d43e 40e0 9d3e 7a2d 52be
00000090: 2db3 d03e cd74 3c3e b460 02bf 8278 b83e
000000a0: 7b98 90be f757 1ebf 5600 b43e 6037 223f
000000b0: 9c2c 163f 5ae6 4ebe 7003 97be 9dc0 c43e
000000c0: 36fb 5c3f 4183 963e 5427 913d 6b81 013f
000000d0: d946 dc3e a735 193f 17b2 a13e bea2 113d
000000e0: fee8 be3e d3c9 ee3a 433d f3be 969d 0c3f
000000f0: b769 ffbe c301 033f 1114 193f 3f70 023f
0.94806015 0.6240891 0.00930464 0.53284293 -0.7923078 0.3241525 0.5375233 -0.013014028
0.41764414 0.47548893 0.16388766 0.3118418 0.25747642 0.55539453 0.44560933 0.16503389
0.27812982 0.52442795 0.381171 0.20591284 0.22122791 0.4577763 0.33156 -0.8434793
0.24531683 -0.7113838 -0.11701268 0.28539658 0.34847876 0.5118573 0.13814972 0.13124233
-0.21229272 0.4150494 0.30835152 -0.2052516 0.407617 0.18403931 -0.5092881 0.3602944
-0.28241333 -0.61852974 0.35156506 0.63365746 0.5866182 -0.2020506 -0.2949481 0.38428202
0.8632082 0.29397014 0.07087579 0.505881 0.43022802 0.5984749 0.31581184 0.035555594
0.37287134 0.0018218107 -0.47507676 0.5492796 -0.49885342 0.51174563 0.59796244 0.50952524

weight f4 [64, 64]
00000000: 59dc 073c 0e48 a4bd 0618 25be fc56 243e
00000010: ebb7 173f d70a 103f 37e6 0ebe 6217 a63e
00000020: fe85 4dbd 1a38 ab3e 5250 d5be 60a7 01be
00000030: cccb b83e a52e 49be 2918 9bbd 1dcc 163c
00000040: d698 9f3e 0053 4cbe 66fd 1e3f e318 343e
00000050: c0cc 733b d752 423e 5e16 75bd 96db 173f
00000060: dcc7 1e3f a94a ba3f 0bae 2b3f 663d 7c3e
00000070: 7a57 90be 8a13 583f f52c 323e 6ab5 213e
00000080: f95b 533f 1b53 323f da1a 8f3e 1f7a 36bf
00000090: 5545 8b3e a494 8b3e 3ae3 ab3f 2234 a43e
000000a0: 29cf 453f 67ee a73e a049 b6bc c7d8 9bbd
000000b0: d894 a43e 1ff2 3e3f f7ca 083f 1413 44be
000000c0: 1ed6 a33c 6ff3 2c3f 2136 9dbf 35b1 b8bb
000000d0: f882 b23c 89de f6bd 070b d63e 47f6 01bf
000000e0: 9973 d53e ec19 09bf 907b 1c3f c661 7ebc
000000f0: 064a 423f d814 90be dd99 32be 1c91 69bc
00000100: 9179 ce3e 901a 7ebe 6608 2ac0 37c2 a83e
00000110: ebaa 243f 5c7c e2bc c08d 263e c788 db3e
00000120: 7d6f 0a3e b7e3 523f 604f b6bf ad41 643e
00000130: 52fd 903e 73a2 cabd 8410 2fbe 55d2 f33e
00000140: cfbd afbe 1384 483e 6c70 a13f ce3b 603e
00000150: a26a 0a3e 0c9a f83e 925c 5bbe 6122 1c3f
00000160: a8ea 8e3e 3f1f ac3f 9d8d 6a3f 2d0a 263f
00000170: f15c edbd 4b6a 8b3f 6592 1d3f 5a8a 203f
00000180: 29bd a43f 24fe 9f3e a31e e53e a03a 6cbf
00000190: cad6 ee3e 9c7d ae3e f248 d23f c905 3ebe
000001a0: 6e91 4a3f 4fbf ac3f cde3 e4be acdd 38bd
000001b0: 0663 b93e 9418 093f 14fc 963f 562c 06bf
000001c0: 008b 14be 9a05 823e 6f30 b4bf 83f5 953d
000001d0: 03a9 e23e 1dbc 5fbe 1f0d 303f 7661 62bf
000001e0: 8250 b03d 5fe0 07be f34c 463f 921b 7a3d
000001f0: 738f 0a3f 106c 9cbd 80d6 2cbe cb4c 95bd
00000200: e767 793e 7dfd 2a3e 4588 583e 71bd ba3e
00000210: 3b52 11bf 35a6 a73e ac1e 653e b3d3 6a3e
00000220: 7540 183d 6e7a 1abf d274 bb3e 5e74 503e
00000230: 17b0 fd3e 1c5e 303e fb00 113d 7d15 0f3f
00000240: 0f39 3abf 2ef9 043f b046 39bf afff 51bf
00000250: feb5 4b3e 1ec9 313e b7b3 ba3e 7d95 e3bd
00000260: 8953 053f dd4c 51bc 4033 56bf 4a01 63be
00000270: fdfd 943e 9384 e43d ac55 9c3d 0337 84be
00000280: 5662 61bf d231 25bf f97c a53e 60dc 733f
00000290: 5921 1ebe 2307 993e d438 34bf 058a 01bf
000002a0: 5a33 c93c ee9a b5bf c545 233f 8c42 193e
000002b0: c62a af3e d56d 193d 5cac c83d b207 893e
000002c0: 6bf4 f23d a83d fabd 2824 ee3f 5bd5 443e
000002d0: 3150 3b3e 037b 9f3d 9c08 123e b9cf 833f
000002e0: 3135 50be 51ff 103f 0327 9e3e eca5 673e
000002f0: c68d 71be b062 f93e e37e 7f3e 3be3 753e
00000300: 7b4c 9d3e 0ab8 7d3d 1e9f 363f 7e57 083e
00000310: 93be 443d 54ff 6cbe def0 bf3e 95e2 ddbe
00000320: c9c3 a63e 6efc 8abf 7d6b 1dbe 16ae 013f
00000330: 8524 24be 8cbb 473e 3a19 0c3f c263 17be
00000340: ba43 d8be 1e7b f03e 9594 63bf 884b aabf
00000350: 0ae9 dd3e deb0 573e b06a d53e 034a 593e
00000360: 28cf a2be a154 9abe e75b 72bf 7e21 27bf
00000370: 82b5 d43e 7e7c dabe f75e 91be 31d0 efbd
00000380: 6fa6 70bf 8d5b 1dbe c32f 11be 22d5 903f
00000390: f827 6dbf ed36 8a3d 2e41 aabf 9ad5 e7be
000003a0: 9379 13bf c196 06c0 f949 443f a6fb 813e
000003b0: 153e 763e 6336 24bf 50fe 973e 8a1c 0c3f
000003c0: 1047 bb3e c1ae 5ebe ecc0 d83f c816 f23e
000003d0: d1cc d53e 7fe3 893e a442 2dbe 5957 903f
000003e0: 4050 643d 131c 563f 93a2 d4be 0a8a ea3e
000003f0: fe60 91bf dbd5 2f3f 5145 393e ae7b 043f
0.008292281 -0.08021556 -0.16122445 0.16048807 0.5926501 0.5626654 -0.13955007 0.32439715
-0.050176613 0.3344124 -0.41662842 -0.12661505 0.36092985 -0.196467 -0.075729676 0.009203938
0.31171292 -0.19953537 0.62105405 0.17587619 0.0037200898 0.18976913 -0.059835784 0.59319437
0.6202371 1.4554034 0.67062443 0.24632797 -0.2819174 0.84404814 0.17399962 0.1579186
0.82562214 0.6965806 0.27950174 -0.7128009 0.27201334 0.2726184 1.3428719 0.32071024
0.77269226 0.32799074 -0.022251904 -0.07609706 0.3214481 0.745882 0.534347 -0.19147903
0.01999956 0.6755895 -1.2282144 -0.005636359 0.021790966 -0.12054164 0.41805288 -0.50766414
0.41689757 -0.5355518 0.6112604 -0.015526241 0.758942 -0.28140903 -0.17441507 -0.014255788
0.40327123 -0.2481482 -2.6567626 0.32960674 0.643233 -0.02764719 0.16265011 0.4287779
0.13519092 0.82378715 -1.4242973 0.22290678 0.28318268 -0.09894266 -0.17096144 0.47621408
-0.343245 0.19581632 1.2612433 0.21897814 0.1351724 0.48555028 -0.21422032 0.6098996
0.27913404 1.3447036 0.91622335 0.64859277 -0.11589993 1.0891813 0.61551505 0.6271111
1.2870227 0.3124858 0.44749936 -0.92276955 0.46648246 0.34080207 1.6428511 -0.18556894
0.7912816 1.3495883 -0.44705048 -0.045133278 0.3620836 0.5355313 1.1795678 -0.524114
-0.1450615 0.253949 -1.4077281 0.07322218 0.4426957 -0.21849103 0.6877002 -0.88429964
0.08609106 -0.13269185 0.77461165 0.06106145 0.54125136 -0.07637799 -0.168787 -0.07290038
0.24356042 0.1669826 0.21145733 0.36472657 -0.567661 0.32743993 0.22374982 0.2293232
0.037170846 -0.6034306 0.36612564 0.2035689 0.49548408 0.172234 0.035401326 0.55892164
-0.72743315 0.5194272 -0.72373486 -0.8203077 0.19893643 0.17361876 0.36465237 -0.11112497
0.5208059 -0.012774673 -0.8367195 -0.2216846 0.29100028 0.11158099 0.07633528 -0.2582322
-0.88040674 -0.64529145 0.3232191 0.9525814 -0.15442409 0.29888257 -0.7039921 -0.50601226
0.02456062 -1.4187906 0.63778335 0.14966792 0.3421232 0.03745826 0.097985 0.26763684
0.11863025 -0.12218791 1.8604784 0.19222014 0.1829231 0.077871345 0.14261097 1.0297767
-0.20332791 0.5663958 0.3088914 0.22621888 -0.23589239 0.48708105 0.24950747 0.24012463
0.30722412 0.06194309 0.71336544 0.13314626 0.04803331 -0.23144275 0.37488455 -0.4333693
0.32571247 -1.0858285 -0.15373035 0.5065626 -0.16029556 0.19505137 0.5472599 -0.14784148
-0.4223917 0.4696893 -0.88898593 -1.33043 0.43341857 0.21063563 0.4168296 0.2121964
-0.31798673 -0.30142692 -0.9467148 -0.6528548 0.4154473 -0.42673105 -0.28392765 -0.11709631
-0.9400396 -0.15366955 -0.14178376 1.1315043 -0.9263911 0.067487575 -1.3301141 -0.45280153
-0.5760738 -2.1029513 0.76675373 0.25387305 0.2404712 -0.6414549 0.29686213 0.5473105
0.36577654 -0.21746351 1.6933875 0.47283006 0.41757825 0.26931378 -0.16919953 1.1276656
0.055740595 0.8363659 -0.41530284 0.4580844 -1.1357725 0.6868569 0.18092848 0.5175122

bias f4 [64]
00000000: b837 623c 23ea 1abe 0769 873e e01c 8a3e
00000010: 9a9e 0c3e 0d3b 52bc e3b2 0ebf a94c 8ebe
00000020: af48 753e 5b2a aabe 5a12 c8bd 2dfe 293e
00000030: e3b0 02be dd34 783d a13f 36bf b4d1 fe3e
00000040: 61f5 ac3e 23e7 f6bc d213 003e fdd5 cf3e
00000050: 0975 623e 79eb 8a3b f92e c33e 236f 57be
00000060: 881c 873e 604f 27be 5586 863e 064f 23be
00000070: 18f6 923e d2c2 333e 32f6 be3e 163a 473e
00000080: 6da1 be3d e696 05be 8644 93bd 7fa4 033f
00000090: 4bd1 2b3e 0b2e 063f 5a9e a0bd 5369 33be
000000a0: 2133 273d 1871 20bd 10a6 80be 3de6 2dbe
000000b0: 16e4 7e3e fa97 093f 34c5 703e ff74 b2bd
000000c0: 17f9 953d 1d29 bd3e f8da fcbc c52e eb3b
000000d0: 0e67 79be 8ab4 d03e 2161 e6bd 4855 0abe
000000e0: d6d6 af3d 94f3 8f3e 97eb 43be 9362 313e
000000f0: bb3f 11be c15d 00be 62e6 633d 11cd 9bbd
0.01380723 -0.15128379 0.26447317 0.26975155 0.13732377 -0.012831462 -0.5574171 -0.27792862
0.23953508 -0.3323544 -0.09769125 0.16600867 -0.1276279 0.06059729 -0.7119084 0.49769366
0.3378096 -0.030139511 0.12507561 0.40592948 0.22114958 0.0042394963 0.38121775 -0.21038489
0.26388955 -0.16338873 0.26274362 -0.15948114 0.2870338 0.17554787 0.37297207 0.19455752
0.09308133 -0.13045844 -0.07190804 0.51422876 0.16779058 0.52414006 -0.07842703 -0.17520647
0.040820245 -0.039170355 -0.25126696 -0.1698236 0.24891695 0.5374752 0.23512727 -0.087137215
0.07322901 0.3694543 -0.030866131 0.007177206 -0.24355718 0.4076274 -0.112489946 -0.13509095
0.085858986 0.28115523 -0.19132839 0.1732276 -0.14184467 -0.12535764 0.055639632 -0.07607473

weight f4 [4, 64]
00000000: ec9d b7be 2296 2cbf 0bf5 583f 8442 223f
00000010: 9e6f c83e aedd 943f a428 3fbf e97e 62bf
00000020: 6396 ae3f d7ec 6abf 5010 2ebf f9d1 de3f
00000030: 2a7d 0cbf ef5c 1abf 6fd6 80bf 2f40 203f
00000040: 1ca8 463f 40ea 4dbf 334b d83e c78d 3e3f
00000050: 39a3 d13f cca4 12bf 645d 253f d4b0 0cbf
00000060: 9599 f33e 4696 d8bc acc1 ba3f 952d 7ebe
00000070: 5cd4 ba3f 96c1 b7be e14a 1a3f 45f5 343f
00000080: 5631 2dbf d4f6 12bf 2686 2bbf 9a85 283f
00000090: b5a8 813f a6b4 123f f51e 8bbf 5c35 38bf
000000a0: 0d1f 8e3d b4d9 4dbf f11a 36bf 94e4 1cbf
000000b0: 4471 263f eeff 213f 4894 393f b4d8 4bbd
000000c0: a0f4 f73c 6bdc 0e3f e258 1abf b802 28bf
000000d0: aa19 1bbf 7692 be3f e66b 33bf b90a 86bf
000000e0: 91ec e5be 1179 dc3e 7b9a debe eadd 1a3f
000000f0: e8ca 28bf a46c 0cbf 28db 57bf e1bb 36bf
00000100: e8ff 24bf 60de 1fbf d1bb f43e 177c e13e
00000110: 5281 eb3e 885a 9a3f d3bd 66bf 6541 64bf
00000120: 8174 993f ddcc 5dbf f521 2bbf 5dce df3f
00000130: 9833 21bf fe4f 13bf cbf8 1bbf 1edc 2c3f
00000140: ccaf 303f f079 48bf 34c3 ba3e b079 453f
00000150: f1e0 d23f e5bd 3abf e241 3c3f 066b 30bf
00000160: 3fc3 103f bb44 833d 4e11 bc3f 1dba 34bf
00000170: e05e a63f ea14 f73e 3d05 073f 0372 a83f
00000180: ab14 47bf eba1 3dbf c36d 0ebf 1da4 153f
00000190: 1038 8d3f 3377 2d3f e457 78bf d4c3 33bf
000001a0: a27e 82bf 0915 1abf 9c7a 18bf ca5e f2be
000001b0: f0ca 103f ad85 4c3f 7d40 543f 7c22 9b3d
000001c0: 423d d23b 5e27 293f b7c5 42bf b517 2abf
000001d0: 29bc 13bf 3b2d b13f 70d9 2bbf ab62 91bf
000001e0: fa8b 65bf d89c d83e d87c 29bf c8c2 0f3f
000001f0: 5636 d4be b134 54bf 4718 10bf 7536 46bf
00000200: a11b 61bf f52c 2cbf 99b9 c13e eccf 0c3f
00000210: b39c 083f 1a7e 7b3f c243 64bf b9a6 8ebf
00000220: 7b85 b23f 4ddc 72bf fd58 09bf 487c da3f
00000230: 9cd3 42bf 3f14 cbbe 5288 71bf cb2d 223f
00000240: eeb4 383f 2c86 a6be 2c7a 443f cd12 1f3f
00000250: ffd8 cb3f a500 31bf 6ae0 1a3f 5315 52bf
00000260: 897f 0b3f c3ef fc3c a0c6 9f3f 295f 76bf
00000270: e78e af3f 8ae4 2fbf 7635 263f 2c8b 0f40
00000280: e5b9 b4be 2d0b 68bf 6c96 48bf 6431 1a3f
00000290: 634f ac3f 6898 fd3e 22cd 31bf bd1f 05bf
000002a0: ee21 853f 8775 1fbf 40d5 fcbe 22d5 56bf
000002b0: f948 503f 968d 183f 797a 343f a0fd 463a
000002c0: 6bba b8bd 4776 1a3f 047d 3abf b3a7 08bf
000002d0: 07be 0dbf 3b95 c13f 8976 63bf 23c7 f0be
000002e0: 6fd0 2dbf 4f4c 2f3f de9a 4bbf ceb5 273f
000002f0: 260c 5abf bfb9 52bf f692 1cbf d712 c9be
00000300: 1baa e6be 00b6 35bf 6d09 a53f 3acf 583f
00000310: 2013 c83e 567e 993f 325a c4bf 2fed 44bf
00000320: ad63 ad3f 898c 85bf 4941 3bbf d377 e53f
00000330: 55dc 0bbf 610b 1bbf a773 b5bf ab24 dc3e
00000340: 18ae 353f 7213 77bf d5f2 b93e 7c79 393f
00000350: 3ef3 d03f 72d8 1ebf 7849 f33e d947 efbe
00000360: 990a 013f a57d f83c af59 b73f af53 843c
00000370: 5514 d83f e00a 93bf e6eb bd3e bb76 a0be
00000380: 7138 19bf d2d5 b9be 92b0 64bf c3f9 4a3f
00000390: 6e42 563f 3451 403f 1cb4 7cbf 53d6 28bf
000003a0: 2d26 773f 8ce3 7abf d60e 61bf d12e 30bf
000003b0: 267c 073f d8a1 4b3f 781c 503f a45d 9e3d
000003c0: 21de 423d 5917 c33e d77b 92be f3da 17bf
000003d0: fae0 69bf f186 b23f 45de ebbe e4a2 78bf
000003e0: 8b74 84be 7f1d ad3e f7ab d3be 28cd fb3e
000003f0: 7858 2bbf fc0c 15be bfe2 5abf c195 3dbf
-0.35862672 -0.67416584 0.84748906 0.63382745 0.39147657 1.1630151 -0.7467139 -0.884749
1.3639644 -0.9176764 -0.6799364 1.7407829 -0.54878485 -0.60298055 -1.006544 0.62597936
0.77600265 -0.8043556 0.42244872 0.74435085 1.6377937 -0.5728271 0.6459563 -0.5495732
0.4757811 -0.026438843 1.4590354 -0.24822076 1.4596057 -0.35889882 0.60270506 0.7068675
-0.67653406 -0.5740788 -0.6700157 0.6582886 1.012961 0.573069 -1.0868822 -0.7195642
0.06939516 -0.80410314 -0.7113486 -0.6128628 0.6501658 0.6328114 0.72491884 -0.04976721
0.030268013 0.5580508 -0.60291874 -0.6562915 -0.60586035 1.4888446 -0.70086515 -1.0472022
-0.44907048 0.43061116 -0.43477234 0.60494864 -0.6593461 -0.5485327 -0.8431878 -0.7138043
-0.6445298 -0.6244869 0.47799543 0.44039986 0.459971 1.2058878 -0.901334 -0.89162284
1.1988679 -0.8664072 -0.6684869 1.7484852 -0.6296935 -0.57543933 -0.609265 0.6752337
0.69018245 -0.7831106 0.36477053 0.77138805 1.6474897 -0.72946006 0.7353803 -0.68913305
0.5654792 0.06409594 1.4692781 -0.70596486 1.2997704 0.48258144 0.5274237 1.3159794
-0.7776591 -0.7407519 -0.55636233 0.5845354 1.1032734 0.6776001 -0.9700911 -0.70220685
-1.0194895 -0.6018835 -0.5956209 -0.47337943 0.5655966 0.79891473 0.829109 0.07574937
0.006415994 0.66075695 -0.7608294 -0.66442424 -0.57708985 1.3841928 -0.6712866 -1.1358236
-0.8966671 0.42307162 -0.6620612 0.5615659 -0.41447705 -0.828929 -0.56287044 -0.77426845
-0.87932783 -0.672561 0.37836912 0.55004764 0.53364104 0.9823929 -0.8916589 -1.114463
1.3946985 -0.948674 -0.5365141 1.7069178 -0.7610414 -0.39663884 -0.94348633 0.63351125
0.72151077 -0.3252424 0.7674892 0.6213806 1.5925597 -0.6914161 0.6049868 -0.8206379
0.5449148 0.030876046 1.248249 -0.9623895 1.3715485 -0.687081 0.64925325 2.2428694
-0.35298076 -0.9064205 -0.78354526 0.60231614 1.3461727 0.4953034 -0.6945363 -0.52001554
1.040098 -0.6228871 -0.49381447 -0.83918965 0.8136135 0.59591043 0.7049938 0.00075908937
-0.090199314 0.60336727 -0.7284701 -0.5338089 -0.55368084 1.5123667 -0.88852745 -0.4702693
-0.6789617 0.6847581 -0.79533184 0.65511787 -0.8517479 -0.82314676 -0.61161745 -0.39272186
-0.45051655 -0.70980835 1.2893502 0.846912 0.3907709 1.199168 -1.5340025 -0.76924413
1.3546044 -1.0433513 -0.7314649 1.7927192 -0.54633075 -0.6056424 -1.4175919 0.42996725
0.7096877 -0.96514046 0.3631808 0.72450995 1.6324232 -0.6204902 0.4751699 -0.46734503
0.50406796 0.03033335 1.4324244 0.016153185 1.6881205 -1.1487694 0.3709404 -0.31340584
-0.5985175 -0.36295944 -0.89331925 0.79287356 0.83695114 0.75123906 -0.98712325 -0.6595203
0.96542627 -0.9800346 -0.8791326 -0.68821436 0.5292381 0.7954383 0.8129344 0.07732704
0.04757512 0.3810375 -0.28610107 -0.59318465 -0.9135891 1.3947431 -0.46068016 -0.9712355
-0.25870165 0.33811566 -0.41342136 0.4917996 -0.6693187 -0.14555734 -0.8550224 -0.7405663

bias f4 [4]
00000000: c0a9 583e af3f f63d 4742 933e 80a0 ef3e
0.21158504 0.120238654 0.28761503 0.4680214
