solved/DQN_policy_net_ok_700ep.pth (torch, 23007 bytes, 6 tensors)

weight f4 [64, 8]
0.563893 -3.000454 0.4897386 1.0554792 -1.0259663 0.34591022 1.3876703 1.0796764
-1.0589123 -0.44719797 1.1701123 -1.1677159 -0.92306453 -0.025580939 0.57142913 -0.38382354
3.2184505 0.42718586 1.2612262 0.9977443 -0.91504854 -0.05617385 0.5502358 -0.535227
0.46178892 -1.0411426 -0.947974 0.31433606 0.28806418 -1.013414 -1.5540961 0.26325765
0.2641978 -0.09871934 0.62290186 -0.92524517 -0.61994356 -0.054688487 0.5138028 -0.87381303
0.03556491 0.8246312 -0.079175845 -0.48750377 -0.13905615 1.4621136 -1.4441028 -1.1527299
1.9289615 0.24040529 0.12872523 0.3901178 -0.029170537 -0.6022842 0.3446566 1.0755045
0.3147999 -0.072696716 0.098977774 0.07134224 -3.724121 -0.18138678 -0.24965945 -0.92335534
-1.712336 -0.8307501 0.28949323 1.6452044 0.32101598 0.219967 -0.1449846 -0.14340551
1.781413 0.41996756 1.53875 -0.15697439 -2.4238591 -0.7680801 -2.1446493 0.24280247
0.44397593 0.26147485 -0.044989966 -1.2934995 0.1566122 -0.29094294 -0.5516681 0.925707
-1.3736829 -0.031331122 0.60034335 -0.9905524 -2.4834256 -0.24321939 -1.8947965 -1.1775024
0.76259965 -0.30420774 0.27171546 -2.3320856 -0.1346703 -0.20107865 -3.5075557 0.5743331
0.102567784 0.062465608 -0.11624292 -0.6817522 -0.06444498 -0.33628812 -3.5896606 -0.09131785
0.0027750928 1.0450709 0.367386 -0.37752017 0.25236937 -1.0385388 -1.5692711 0.6943663
-0.6039093 -0.19758643 1.3222384 -1.7650919 0.5972768 -0.11726904 -0.8326721 0.8750149
0.36718336 -1.1194869 -0.66503537 2.8583033 -0.088611126 -0.027023366 -2.06274 -1.095636
1.6594217 -0.44487143 1.112585 -0.2120885 -1.7227495 -0.7382327 -1.1755048 0.6569726
-0.013889068 0.8303252 -0.2347001 1.1599121 -0.34645307 2.7058294 -0.32415736 -2.0687616
0.5208564 0.36227491 -0.25078413 0.11518266 0.23018171 -0.4760051 -2.9717638 1.5273045
-0.4935605 -0.90197474 0.14599428 0.76374966 -1.6446881 -1.3385956 -2.7253892 0.6238659
0.82290214 0.67113537 -1.4981543 0.41659003 -1.8895406 -2.024054 0.49782857 1.6724762
0.046677843 -0.068812095 -0.7406866 -2.0389555 -0.19417016 -0.17067228 2.0548558 -0.72359884
-0.76345205 0.4817225 0.4921523 -0.12749143 -0.65610486 0.044177454 0.014204131 0.27938607
0.95456433 -0.44912025 -0.9371145 -0.9380731 0.14125024 0.35791317 -0.16777909 -0.43879706
-0.0073958463 -0.28591645 0.7294497 -1.2229449 -0.5359775 -0.099083714 2.0558648 -2.066381
1.3238801 -2.1025617 0.08154975 -0.441004 -1.5776938 -2.1768708 0.6432733 -0.74486274
0.7006764 0.5720314 -2.2308705 -0.9201147 0.8554016 -0.8013315 -4.542362 -1.6649542
-0.29941484 0.38700283 0.79564756 -0.5049551 0.58046335 0.23991844 1.1016774 -1.4464823
-1.211919 0.9025774 0.1292253 -0.58062804 -1.4066743 0.478919 -0.76398665 0.0030424066
-0.916084 0.503816 1.426291 -0.51476574 -3.328216 -2.2582552 -2.5337489 0.5516515
1.3414311 -0.1545231 -0.46632016 -1.0666833 -0.6043661 -0.74537045 0.79181814 0.42873183
00000000: 4b5b 103f 7007 40c0 05bf fa3e f119 873f
00000010: dd52 83bf 251b b13e 2e9f b13f d632 8a3f
00000020: 708a 87bf 22f7 e4be 3dc6 953f b777 95bf
00000030: f54d 6cbf 1e8f d1bc 2e49 123f 8584 c4be
00000040: 18fb 4d40 1bb8 da3e dc6f a13f 2c6c 7f3f
00000050: 9f40 6abf 8d16 66bd 41dc 0c3f a304 09bf
00000060: 996f ec3e 2944 85bf 6dae 72bf a8f0 a03e
00000070: 267d 933e 8db7 81bf 9fec c6bf b5c9 863e
00000080: ef44 873e 5e2d cabd 7f76 1f3f dedc 6cbf
00000090: 9fb4 1ebf 0901 60bd 9588 033f 36b2 5fbf
000000a0: 83ac 113d 081b 533f f226 a2bd 189a f9be
000000b0: bc64 0ebe 8a26 bb3f 5cd8 b8bf a78c 93bf
000000c0: 36e8 f63f ce2c 763e 8cd0 033e 85bd c73e
000000d0: 0df7 eebc 4c2f 1abf d476 b03e 22aa 893f
000000e0: 742d a13e 04e2 94bd dcb4 ca3d e11b 923d
000000f0: 0058 6ec0 75bd 39be baa6 7fbe 0461 6cbf
00000100: d32d dbbf 0aac 54bf 7538 943e 0f96 d23f
00000110: 355c a43e 073f 613e d876 14be e5d8 12be
00000120: 5705 e43f fd05 d73e c3f5 c43f e5bd 20be
00000130: 8220 1bc0 e6a0 44bf ef41 09c0 36a1 783e
00000140: d050 e33e 08e0 853e 6647 38bd 6491 a5bf
00000150: f35e 203e 79f6 94be 1f3a 0dbf 22fb 6c3f
00000160: d7d4 afbf 1055 00bd 1ab0 193f d894 7dbf
00000170: 72f0 1ec0 810e 79be b188 f2bf 66b8 96bf
00000180: bb39 433f 1ec1 9bbe 4a1e 8b3e e440 15c0
00000190: 03e7 09be 90e7 4dbe cb7b 60c0 7e07 133f
000001a0: 0f0f d23d f0db 7f3d c510 eebd 5087 2ebf
000001b0: bbfb 83bd f52d acbe 00bd 65c0 da04 bbbd
000001c0: 55de 353b e2c4 853f 051a bc3e 534a c1be
000001d0: 8f36 813e d7ee 84bf e0dd c8bf fdc1 313f
000001e0: cd99 1abf 1954 4abe 1c3f a93f 88ee e1bf
000001f0: 22e7 183f c02a f0bd 002a 55bf fa00 603f
00000200: 75ff bb3e 594b 8fbf c23f 2abf 71ee 3640
00000210: c079 b5bd 1b60 ddbc ef03 04c0 cd3d 8cbf
00000220: ee67 d43f 30c6 e3be 2f69 8e3f ba2d 59be
00000230: 0e83 dcbf d1fc 3cbf f176 96bf 5b2f 283f
00000240: f98e 63bc 3190 543f 3955 70be 0078 943f
00000250: 4c62 b1be 4f2c 2d40 f4f7 a5be 9766 04c0
00000260: d856 053f 197c b93e c766 80be e3e4 eb3d
00000270: c1b4 6b3e f1b6 f3be 6131 3ec0 b77e c33f
00000280: f6b3 fcbe d1e7 66bf 867f 153e 1985 433f
00000290: 2485 d2bf 1a57 abbf c76c 2ec0 adb5 1f3f
000002a0: b7a9 523f 87cf 2b3f 85c3 bfbf 4a4b d53e
000002b0: 77dc f1bf 1a8a 01c0 63e3 fe3e b313 d63f
000002c0: 4431 3f3d 5bed 8cbd a39d 3dbf 3f7e 02c0
000002d0: 8bd4 46be b7c4 2ebe c282 0340 c63d 39bf
000002e0: 9871 43bf 55a4 f63e 63fb fb3e 1d8d 02be
000002f0: 7df6 27bf 6bf3 343d 72b8 683c b10b 8f3e
00000300: 545e 743f 17f3 e5be bce6 6fbf 8f25 70bf
00000310: e7a3 103e 6540 b73e 48ce 2bbe 02aa e0be
00000320: db58 f2bb a463 92be 37bd 3a3f 7589 9cbf
00000330: d235 09bf 67ec cabd 4a93 0340 963f 04c0
00000340: e774 a93f 5f90 06c0 8e03 a73d 47cb e1be
00000350: dff1 c9bf da51 0bc0 8fad 243f 53af 3ebf
00000360: 875f 333f a670 123f 95c6 0ec0 a38c 6bbf
00000370: 99fb 5a3f 1024 4dbf 085b 91c0 381d d5bf
00000380: e74c 99be 3c25 c63e 8faf 4b3f bd44 01bf
00000390: 3f99 143f 2ead 753e c403 8d3f 5526 b9bf
000003a0: 2920 9bbf 500f 673f a353 043e 0aa4 14bf
000003b0: e70d b4bf df34 f53e a194 43bf 1d63 473b
000003c0: 7b84 6abf 16fa 003f b490 b63f b0c7 03bf
000003d0: 7e01 55c0 4187 10c0 f128 22c0 0839 0d3f
000003e0: 04b4 ab3f 4e3b 1ebe 84c1 eebe 1489 88bf
000003f0: bdb7 1abf 99d0 3ebf 98b4 4a3f bd82 db3e

bias f4 [64]
-0.4029632 0.9655949 0.00561917 1.7519704 0.5139982 0.32829127 -0.29203254 0.08946762
1.9388875 0.58073974 0.24026337 -0.44474164 0.32037854 0.68906844 0.8756017 0.14276332
0.14495611 0.4526077 0.35938194 -0.6548353 -0.5972386 -0.5771832 -0.010390751 0.77819216
1.3279325 0.35588542 -0.66735 0.34923643 0.42088845 0.8664295 -0.1747284 0.8248135
0.60602444 -1.1855508 -0.016020125 -0.18368511 0.805863 0.9361079 0.14885256 0.43824378
0.99712855 0.42282295 0.1838032 0.33158174 0.8955664 -0.35868058 0.69869965 0.5094981
0.9494961 0.58382463 0.86356205 0.972373 -0.95392483 0.60907495 -1.5284363 1.0237288
0.021632804 -1.0437664 0.8203247 0.23444958 -0.09702158 0.5253608 0.4583679 0.08459783
00000000: 3151 cebe 3a31 773f 0421 b83b 9140 e03f
00000010: 6395 033f cb15 a83e 4a85 95be cd3a b73d
00000020: 772d f83f 5cab 143f 9a07 763e 2db5 e3be
00000030: a808 a43e ca66 303f 6f27 603f 8c30 123e
00000040: 606f 143e 32bc e73e e900 b83e 49a3 27bf
00000050: a1e4 18bf 47c2 13bf f83d 2abc 9a37 473f
00000060: b1f9 a93f 9d36 b63e 73d7 2abf 1ecf b23e
00000070: b17e d73e 53ce 5d3f 00ec 32be fa26 533f
00000080: 6b24 1b3f 21c0 97bf a33c 83bc f317 3cbe
00000090: 0a4d 4e3f c4a4 6f3f ce6c 183e 7d61 e03e
000000a0: d143 7f3f 407c d83e e836 3c3e 15c5 a93e
000000b0: d743 653f fba4 b7be fbdd 323f 786e 023f
000000c0: 2d12 733f 8875 153f 6712 5d3f 70ed 783f
000000d0: 6b34 74bf 56ec 1b3f cda3 c3bf 8c09 833f
000000e0: 4737 b13c 239a 85bf cd00 523f 8d13 703e
000000f0: 40b3 c6bd 0c7e 063f 33af ea3e a141 ad3d

weight f4 [64, 64]
1.1207991 0.69570786 -0.528341 -0.56674993 -0.01621177 0.20165575 0.44814554 0.47721702
0.18301888 -0.25187972 -0.7826524 0.8080938 0.5597749 0.22407301 0.38456753 0.79050684
0.9234732 0.20359616 -0.44319788 -0.82343453 0.5780243 0.4596377 -0.039720815 0.33512035
-0.54343754 0.091788664 -1.1802799 0.36296383 -0.015889619 0.5293177 -0.16966222 0.0164695
0.4873707 0.5751245 1.1439686 -0.006296133 0.61981004 0.73072517 0.1919114 0.7590135
0.3960535 0.037486933 0.9839551 -0.062175643 -0.7106265 0.43888718 -1.1428481 -1.2635113
0.32694432 -1.1651021 0.4812349 0.49292213 0.73327243 0.35231933 0.09347782 0.2926249
0.14941885 -0.36776426 -0.238051 -0.55929893 0.26457214 -0.06974152 -0.24014902 -0.44798127
2.071186 0.018872846 -0.5143866 -2.2114668 1.5245138 -2.3905492 -2.616797 -1.0755974
-2.3452516 1.2155321 2.209531 -0.73541707 0.96814305 0.53322923 -0.048647545 1.2393078
-0.22381268 1.4998866 -2.3808248 -0.020784896 -2.0947127 -0.11842601 -1.770186 -0.8094527
1.2496767 -1.3360833 2.5097876 2.178964 -1.2779077 -1.36035 0.7544838 -1.2405888
0.50651777 2.0186245 1.7552844 0.59326 -0.1828645 0.047031485 -2.2026937 -2.8173132
-0.97883123 -4.4622617 0.7255028 -0.6868047 -0.33022833 -0.59842825 -1.0039932 0.9918155
-0.25145376 -0.4315886 0.13407281 0.7085148 0.53552467 -0.74282724 2.060255 -0.45561147
0.43631223 -5.5384083 -0.033184238 1.4555222 3.1679575 -1.6306857 -1.685465 0.0018642653
-2.9804044 -0.8949676 -0.6206364 -5.8559017e-05 -0.5372444 0.4342236 0.71638244 -0.59152186
-0.48572716 -0.4446211 0.55332077 0.8310923 -1.0818334 -0.6739018 -0.7693988 -1.0754242
0.5447928 0.5424485 2.008361 1.5085515 -2.6637259 0.5006778 -3.4879708 -0.69227564
0.7155297 -1.82914 0.5945501 -1.2177671 -0.81445575 -0.38785693 -1.2735425 -0.70218676
0.25922456 1.4064108 0.67815626 -1.2399344 -0.15978399 -0.96403736 0.014423909 -0.5130145
-1.611329 0.7574552 -0.27195668 -0.07759025 0.8804012 -0.10605784 -1.8545697 -0.6258036
-0.23072577 -0.67422944 -1.0443819 -0.67100847 0.025926566 -0.39744356 0.90108424 -1.4812913
0.022153927 -2.3917685 -0.92436826 -0.58483934 0.5125707 -0.2680538 1.378613 -0.44918674
0.016976584 -0.042435214 0.019793103 -0.020260826 -0.11909667 -0.13718414 0.02428041 0.023293396
-0.11092678 -0.11734476 -0.036822036 0.038037814 -0.12952013 -0.13514845 -0.097412795 -0.09365377
-0.033617083 -0.08915178 -0.07277881 -0.05798225 -0.06933382 -0.12892814 0.070548 0.043169633
-0.13273926 -0.008036021 -0.030404782 -0.027495647 -0.1274694 -0.12392867 -0.15364411 -0.029477252
-0.10393102 -0.0971796 0.011923245 -0.11363095 -0.16880462 0.07683928 -0.15145366 -0.10253322
-0.09232955 -0.010454996 -0.0868951 -0.18116671 -0.009298699 -0.07478687 -0.1446672 -0.109353654
0.07476326 -0.0236804 -0.14164384 -0.08037891 0.04345185 -0.064445086 -0.01043792 -0.15201364
0.052179396 -0.07993868 0.010243445 0.10494855 0.05183935 0.0511706 0.030262852 -0.05005761
00000000: 5876 8f3f e919 323f 5b41 07bf 8616 11bf
00000010: 8cce 84bc d87e 4e3e 5573 e53e ca55 f43e
00000020: 4d69 3b3e 61f6 80be e85b 48bf 3cdf 4e3f
00000030: 684d 0f3f 6573 653e 09e6 c43e a85e 4a3f
00000040: bd68 6c3f 837b 503e d5ea e2be 9bcc 52bf
00000050: 67f9 133f a255 eb3e 4bb2 22bd e594 ab3e
00000060: b91e 0bbf b2fb bb3d 6913 97bf 65d6 b93e
00000070: f22a 82bc 5d81 073f efbb 2dbe 0beb 863c
00000080: a788 f93e 5c3b 133f 906d 923f cb4f cebb
00000090: dfab 1e3f ce10 3b3f 6c84 443e b54e 423f
000000a0: 86c7 ca3e e68b 193d 7be4 7b3f e3ab 7ebd
000000b0: 9eeb 35bf d2b5 e03e d948 92bf bdba a1bf
000000c0: 3f65 a73e 1122 95bf 6c64 f63e 4a60 fc3e
000000d0: beb7 3b3f 3363 b43e 4d71 bf3d eed2 953e
000000e0: 4101 193e 994b bcbe a4c3 73be 372e 0fbf
000000f0: 0076 873e a4d4 8ebd a0e9 75be cd5d e5be
00000100: 508e 0440 3a9b 9a3c d7ae 03bf ac88 0dc0
00000110: 4523 c33f c2fe 18c0 9a79 27c0 2dad 89bf
00000120: 9a18 16c0 8e96 9b3f f568 0d40 4b44 3cbf
00000130: 39d8 773f b681 083f a642 47bd a3a1 9e3f
00000140: 272f 65be 49fc bf3f 6f5f 18c0 1645 aabc
00000150: c60f 06c0 5689 f2bd 7495 e2bf 4b38 4fbf
00000160: 68f5 9f3f c704 abbf 5ca0 2040 2574 0b40
00000170: 7b92 a3bf f31f aebf da25 413f 9dcb 9ebf
00000180: 26ab 013f 2531 0140 29ad e03f e3df 173f
00000190: d540 3bbe 16a4 403d eff8 0cc0 dc4e 34c0
000001a0: af94 7abf d9ca 8ec0 8dba 393f 6fd2 2fbf
000001b0: b013 a9be 9832 19bf d982 80bf 9fe7 7d3f
000001c0: 8cbe 80be 2ef9 dcbe 624a 093e 3a61 353f
000001d0: 2518 093f ed29 3ebf 38db 0340 e845 e9be
000001e0: 5164 df3e a43a b1c0 32ec 07bd 8d4e ba3f
000001f0: d1bf 4a40 4fba d0bf 51bd d7bf 5d5a f43a
00000200: f2be 3ec0 991c 65bf 07e2 1ebf 449d 75b8
00000210: d988 09bf 8e52 de3e d764 373f fa6d 17bf
00000220: 3bb1 f8be 60a5 e3be 6ea6 0d3f 77c2 543f
00000230: 8479 8abf d484 2cbf 52f7 44bf 80a7 89bf
00000240: 8a77 0b3f e8dd 0a3f fd88 0040 3718 c13f
00000250: 7c7a 2ac0 6c2c 003f ea3a 5fc0 fa38 31bf
00000260: f42c 373f 4221 eabf 6f34 183f cbdf 9bbf
00000270: 2c80 50bf 2f95 c6be 7103 a3bf 83c2 33bf
00000280: 15b9 843e 4505 b43f a69b 2d3f 2cb6 9ebf
00000290: 6a9e 23be 27cb 76bf 4252 6c3c eb54 03bf
000002a0: 0740 cebf 96e8 413f e83d 8bbe a3e7 9ebd
000002b0: f961 613f da34 d9bd 8a62 edbf aa34 20bf
000002c0: 6043 6cbe 4d9a 2cbf 4eae 85bf 36c7 2bbf
000002d0: f363 d43c b97d cbbe 75ad 663f f49a bdbf
000002e0: 277c b53c bc12 19c0 66a3 6cbf 08b8 15bf
000002f0: d537 033f 593e 89be 6476 b03f cefb e5be
00000300: 7a12 8b3c 8cd0 2dbd 2525 a23c 08fa a5bc
00000310: f4e8 f3bd 007a 0cbe b6e7 c63c cbd1 be3c
00000320: 942d e3bd 7352 f0bd b4d2 16bd 8acd 1b3d
00000330: eda0 04be 5b64 0abe 5c80 c7bd 8ccd bfbd
00000340: 11b2 09bd 3595 b6bd 0f0d 95bd cc7e 6dbd
00000350: e4fe 8dbd bd05 04be 787b 903d a4d2 303d
00000360: cdec 07be 84a9 03bc 7313 f9bc 8d3e e1bc
00000370: 5787 02be 51ce fdbd e254 1dbe 477a f1bc
00000380: c9d9 d4bd 1906 c7bd b759 433c 58b7 e8bd
00000390: 1edb 2cbe ea5d 9d3d ab16 1bbe f0fc d1bd
000003a0: 4617 bdbd 6e4b 2bbc 0ff6 b1bd c483 39be
000003b0: 9259 18bc dc29 99bd a323 14be cff4 dfbd
000003c0: 7b1d 993d 66fd c1bc 150b 11be b39d a4bd
000003d0: 91fa 313d c9fb 83bd cf03 2bbc 77a9 1bbe
000003e0: 10ba 553d e4b6 a3bd 1fd4 273c 44ef d63d
000003f0: 8055 543d 4398 513d cde9 f73c 3509 4dbd

bias f4 [64]
0.37502915 -0.59836435 -0.20218976 0.033444203 0.3095416 0.09074242 -0.06363916 0.09246339
-0.021795182 0.35437706 -0.056383256 0.3381935 -0.675834 -0.033940397 0.2173088 0.7758664
-0.18499798 0.013307086 0.47051984 0.67613375 0.0480209 -0.053300545 -0.4953664 0.3496993
-0.73884994 0.33573267 -0.01577408 0.3744872 -0.23619157 -0.02006088 -0.088222295 0.68187314
0.28315035 -1.207481 -0.056894086 0.27256915 -0.13962755 -1.4220866 0.18273687 0.78729355
0.24424845 0.20381683 -0.92197335 0.5449212 -0.06960899 0.31259137 -0.26513365 -0.09993592
0.38360327 0.5049374 0.39465562 -1.2459933 0.23121418 0.39491835 0.42818967 -0.053506285
-1.1391163 0.29915595 0.076395005 0.36506817 -0.18047448 -0.30803025 -0.516583 -0.18778065
00000000: d203 c03e 682e 19bf d50a 4fbe cafc 083d
00000010: 3d7c 9e3e 29d7 b93d 3f55 82bd 725d bd3d
00000020: cf8b b2bc e970 b53e 21f2 66bd b327 ad3e
00000030: 7503 2dbf 1605 0bbd 3386 5e3e 2e9f 463f
00000040: 1c70 3dbe f705 5a3c fae7 f03e 1a17 2d3f
00000050: 90b1 443d ac51 5abd aaa0 fdbe c90b b33e
00000060: 4525 3dbf 27e5 ab3e a538 81bc c9bc bf3e
00000070: 34dc 71be b756 a4bc e4ad b4bd 3d8f 2e3f
00000080: 15f9 903e bd8e 9abf c609 69bd 2f8e 8b3e
00000090: 86fa 0ebe ef06 b6bf 601f 3b3e 128c 493f
000000a0: 441c 7a3e 5cb5 503e 7206 6cbf f57f 0b3f
000000b0: 288f 8ebd fa0b a03e 99bf 87be 34ab ccbd
000000c0: a667 c43e 9443 013f 4d10 ca3e b57c 9fbf
000000d0: 69c3 6c3e bd32 ca3e ad3b db3e 6829 5bbd
000000e0: 90ce 91bf f82a 993e fc74 9c3d 37ea ba3e
000000f0: 4dce 38be 24b6 9dbe c93e 04bf 9249 40be

weight f4 [4, 64]
0.4666621 -3.292798 -2.5644279 -0.0069349245 1.2318089 0.63322294 -0.5166514 -1.6349791
-0.05268511 0.8232105 -0.08231696 1.4015229 -1.5227758 -0.8591695 1.3326697 -0.5555698
-0.62688464 0.03379352 0.8250004 1.5038551 -0.40171266 0.03244513 -1.9363977 0.31567195
-2.1541467 1.2119874 -1.4889491 0.8069493 0.0066859885 0.09086161 0.11217958 2.3346984
1.2165046 -2.0983162 -0.041365787 -0.23139066 -2.2718928 -3.4227333 3.0290852 -1.1107587
1.3153607 -0.7323086 -1.5015765 0.7329888 1.2750432 1.0976015 -0.46188062 0.01145336
1.0751221 0.9284422 0.33177093 -1.8886628 -1.2317454 0.6431118 0.6744271 0.08430937
-3.7998152 0.6202414 -1.0503567 2.460731 -0.13560762 2.5348094 -1.6768494 0.040679116
0.56709623 -2.8934383 -1.7341787 0.058576886 1.107029 1.4150386 -0.24117666 -1.2882193
-0.035180036 0.6638971 0.08737844 1.3916936 -1.1550527 -1.1078545 1.438044 -0.4956451
-0.32415712 -0.032917067 0.59181523 1.4745456 -0.97212255 -0.11398821 -1.973137 0.10544892
-1.9479418 1.3502467 -1.5891999 0.80500984 -0.1860878 0.05971203 -0.010477567 2.2762363
1.2674395 -2.17312 -0.055946704 0.1522608 -2.3738098 -3.5576897 3.0257552 -1.0135989
1.0528326 -0.97745866 -1.5212797 0.77184 1.0531517 1.069141 -0.60303754 -0.035648752
1.1887689 1.0503427 0.15096931 -1.8452997 -1.1891749 0.4362026 0.6887849 0.02155745
-3.35846 0.6547022 -1.0037073 2.3451283 -0.06980133 2.7044635 -1.775134 0.064067304
0.632113 -2.6794024 -2.6531253 -0.081225775 1.0443478 1.1681877 -0.75406086 -2.1729145
-0.027594537 0.21072534 -0.11984609 1.3307053 -1.506356 -0.41758075 1.5415827 -0.94638455
-0.9254651 -0.050242078 0.01064393 1.6381044 -0.9583339 0.0962148 -2.116526 0.7288168
-1.9454727 1.1775832 -1.4482855 1.1556665 -0.39926338 -0.08079974 -0.020933293 2.355572
1.0999786 -2.3918033 0.013323373 -0.39580178 -2.1212125 -3.2038114 2.8682475 -1.118639
1.5675308 -0.6611016 -2.304501 0.5899814 1.3082573 1.1355511 -0.95147556 0.06353603
1.0833006 0.6676644 0.4754886 -1.902184 -0.7550842 0.84991413 0.57794803 0.06592865
-3.3435574 0.63609207 -0.9988869 2.7390375 -0.1171687 3.0012023 -1.6122843 0.039578136
0.47426277 -3.3704982 -1.8277518 0.0033453365 1.3344597 -0.25689635 -0.7512167 -1.4546471
-0.016800046 0.9345294 0.016997129 1.4329191 -1.8530973 -0.63657415 1.2554237 -0.70583194
-1.064114 -0.07545372 0.95314217 1.591402 0.13104808 -0.13454695 -1.9539369 0.5718244
-1.872691 1.0556686 -1.5419333 0.7947126 -1.0143996 0.06959395 0.020878902 2.3098958
1.2000074 -1.9088516 0.0038983435 -0.7908611 -2.034447 -3.5956836 2.9616613 -1.1946366
1.3856516 -0.41305414 -1.8295133 0.82644564 1.4319004 1.1688831 -0.33489522 -0.025492536
0.8607117 0.7758766 0.7708226 -1.9055068 -1.2526766 0.614731 0.5447948 0.03901522
-3.1072674 0.6011949 -1.0546598 2.5589106 0.040130217 2.0956738 -1.5364847 -0.07130982
00000000: 56ee ee3e 34bd 52c0 961f 24c0 5d3e e3bb
00000010: eaab 9d3f e61a 223f 4443 04bf ff46 d1bf
00000020: 58cc 57bd ecbd 523f cb95 a8bd 1a65 b33f
00000030: 51ea c2bf 88f2 5bbf ec94 aa3f d339 0ebf
00000040: 837b 20bf 136b 0a3d 3a33 533f 537e c03f
00000050: 48ad cdbe 2fe5 043d e1db f7bf c19f a13e
00000060: 8add 09c0 6722 9b3f e295 bebf 3b94 4e3f
00000070: 2316 db3b a715 ba3d 68be e53d b36b 1540
00000080: 6cb6 9b3f d04a 06c0 2c6f 29bd acf1 6cbe
00000090: b166 11c0 100e 5bc0 88dc 4140 572d 8ebf
000000a0: bd5d a83f 9478 3bbf a933 c0bf 27a5 3b3f
000000b0: 9e34 a33f 357e 8c3f 9e7b ecbe e0a6 3b3c
000000c0: 9a9d 893f 63ae 6d3f e1dd a93e b4bf f1bf
000000d0: d5a9 9dbf faa2 243f 41a7 2c3f 64aa ac3d
000000e0: 2c30 73c0 24c8 1e3f 1772 86bf 9e7c 1d40
000000f0: b9dc 0abe 513a 2240 00a3 d6bf 259f 263d
00000100: 382d 113f 182e 39c0 91f9 ddbf 51ee 6f3d
00000110: 20b3 8d3f fc1f b53f 04f7 76be 5fe4 a4bf
00000120: f118 10bd 29f5 293f 78f3 b23d 0423 b23f
00000130: c4d8 93bf 2dce 8dbf d311 b83f 32c5 fdbe
00000140: ecf7 a5be 0cd4 06bd 3481 173f e9bd bc3f
00000150: 06dd 78bf a772 e9bd c18f fcbf 9af5 d73d
00000160: 2856 f9bf e2d4 ac3f e76a cbbf 2015 4e3f
00000170: cd8d 3ebe 9a94 743d 1aaa 2bbc dbad 1140
00000180: 753b a23f 6614 0bc0 5f28 65bd 41ea 1b3e
00000190: 80ec 17c0 30b1 63c0 f9a5 4140 9cbd 81bf
000001a0: 38c3 863f bb3a 7abf 4bb9 c2bf 4e97 453f
000001b0: adcd 863f 9dd9 883f ab60 1abf 6d04 12bd
000001c0: 9429 983f a171 863f b397 1a3e c832 ecbf
000001d0: e236 98bf f255 df3e 3554 303f 4099 b03c
000001e0: 02f1 56c0 909a 273f 7b79 80bf 9516 1640
000001f0: 00f4 8ebd ee15 2d40 9737 e3bf b835 833d
00000200: 28d2 213f 547b 2bc0 cecc 29c0 b359 a6bd
00000210: 30ad 853f 2d87 953f 220a 41bf 0811 0bc0
00000220: f00d e2bc 62c8 573e de71 f5bd 8d54 aa3f
00000230: 46d0 c0bf 25cd d5be 9552 c53f 4246 72bf
00000240: 48eb 6cbf a3ca 4dbd e163 2e3c 68ad d13f
00000250: 5f55 75bf 440c c53d 2975 07c0 bd93 3a3f
00000260: 4005 f9bf 0cbb 963f 6b61 b9bf e1ec 933f
00000270: 406c ccbe 567a a5bd 4c7c abbc b1c1 1640
00000280: 19cc 8c3f 4e13 19c0 474a 5a3c 88a6 cabe
00000290: f2c1 07c0 3f0b 4dc0 5e91 3740 902f 8fbf
000002a0: d9a4 c83f f43d 29bf f27c 13c0 0509 173f
000002b0: fa74 a73f bd59 913f e793 73bf 2e1f 823d
000002c0: 98a9 8a3f 0eec 2a3f 3e73 f33e c47a f3bf
000002d0: 334d 41bf f993 593f 67f4 133f 9a05 873d
000002e0: d8fc 55c0 eed6 223f 0db7 7fbf 644c 2f40
000002f0: 25f6 efbd b313 4040 555f cebf af1c 223d
00000300: 92d2 f23e 3eb6 57c0 c5f3 e9bf 6f3d 5b3b
00000310: 93cf aa3f eb87 83be bd4f 40bf e031 babf
00000320: 40a0 89bc 523d 6f3f 903d 8b3c e569 b73f
00000330: 4b32 edbf 86f6 22bf b9b1 a03f 67b1 34bf
00000340: e334 88bf 7b87 9abd 2001 743f 10b3 cb3f
00000350: 7831 063e adc6 09be 9b1a fabf 1563 123f
00000360: 57b4 efbf 2620 873f 125e c5bf 4972 4b3f
00000370: d9d7 81bf 4687 8e3d 3b0a ab3c 55d5 1340
00000380: d899 993f 4055 f4bf 5a7b 7f3b e075 4abf
00000390: 6134 02c0 ae1f 66c0 dc8b 3d40 dae9 98bf
000003a0: 085d b13f d57b d3be 7e2d eabf f191 533f
000003b0: 8348 b73f f69d 953f 6377 abbe b9d5 d0bc
000003c0: 9a57 5c3f d99f 463f a154 453f a6e7 f3bf
000003d0: b557 a0bf 035f 1d3f ac77 0b3f 6cce 1f3d
000003e0: 78dd 46c0 e9e7 193f 18ff 86bf 31c5 2340
000003f0: 955f 243d 851f 0640 88ab c4bf e20a 92bd

bias f4 [4]
0.09007884 0.6429378 0.7196476 0.13231803
00000000: 417b b83d 9297 243f d33a 383f 617e 073e
