solved/DQN_policy_net_dec99_318ep.pth (torch, 23007 bytes, 6 tensors)

weight f4 [64, 8]
00000000: ded0 5ebd da71 603e 3df0 06bf 875f 95bf
00000010: db7f b13f 853a 853f b27b 12bf 9d09 a1be
00000020: 1e2f b43e a5bb 55be 91cc d93d 103d bcbe
00000030: 66c5 813f 01ce 303f 8262 aa3f 4cbb d63e
00000040: c852 253f 6c4c 2bbe fb1f a03e ef34 ebbe
00000050: 231f fdbf a6e4 74bf 7f2c 913f 3548 50bf
00000060: 62c3 4d3f c05a 69bf cd2a acbf af23 4dbe
00000070: 6410 c83e a10b 833b aebf 1c3f f69c 8dbf
00000080: 40cc 343f 324f d43e 7820 9c3f 1654 4b3d
00000090: 2d3d 97bf d45d e1be a09c b4be d2aa 83be
000000a0: e2a3 60bd 9bb0 813e f05e 723d 68d8 febe
000000b0: a59f 9abf 10a5 b53f 461f c8bf ef7c d8be
000000c0: a0a2 613c b33b c3bf f2db 0bbf 529b 823f
000000d0: 0c08 22bf 4d3c eebe 427f 833f 1af9 ae3f
000000e0: ec42 b3bd de67 483e f04a f53e 6751 01be
000000f0: a034 d13f 47aa 0140 d7c4 7dbf 3b02 a3bf
00000100: 2dd2 e43b 7dd4 27bf 60f1 2f40 4a55 a93f
00000110: 44a5 cbbd 6fde 583f 76db 893e b6dd aabf
00000120: 1301 0e40 1c70 b1be dc1e 0e40 8052 5c3e
00000130: 2070 b7bf e8e1 e13e cd75 0c3e 2266 3fbe
00000140: 2649 42be 763b 9b3e 2d5d 113f aaba 8ebf
00000150: ff1e 723e 2f9a 29bd 0d75 d8bf d52c 7c3f
00000160: 187c bd3e d2d8 663f 09aa b8bf 2eb6 7e3f
00000170: 5d98 6c3e e670 dbbf 8f9a 67bf 1205 7abf
00000180: d25c 2e3f cfad 9dbe 5ff1 7a3e a044 b0bf
00000190: 0cda f9be dbbe 8dbe 6343 123f ea87 bbbe
000001a0: 8b95 993e c90f d0bd 25b6 04be c200 15bf
000001b0: 6970 7fbf a69d 913e 7401 8dbe b966 87be
000001c0: 624c 073f 1614 9abf 197f 2a3e 86c7 0ac0
000001d0: c4d6 9fbf 6f53 38c0 bd72 90c0 c486 b93f
000001e0: 4d93 3abf 7fa9 0f3e 9801 1abd 5d31 bebf
000001f0: e15f 55bf d7b0 cbbf 7dbd b4bc a82c 49be
00000200: 2b87 103f 80f3 2e3f 1b81 b3be 7a27 513f
00000210: d620 eabe 7335 fdbf 3d3e edbe bd99 acbf
00000220: 56ad 4f3f 79b0 2dbf 30da c83f 15a7 b7bd
00000230: a8c2 00c0 d062 8bbf 6bc9 cfbf 9a48 dd3e
00000240: 952e e9be 147a fe3e 2415 12be 7408 3f3f
00000250: fa51 c83f 46b1 1240 7088 9e3f 7a0d b0bf
00000260: 4f37 21bd 89f0 1fbc 24fb 46bd 6f7b dc3c
00000270: 5b85 5240 8039 5fbe db35 b3ba 27ad 93bb
00000280: 53ea e83c 3b77 e2bf db3c 853f 0cca 5d3f
00000290: 0aa1 b2bf a987 7ebe b03f 7abe c413 bcbe
000002a0: 782a 6e3f 07b7 ea3d 26ed d03d dc0d a0bf
000002b0: a599 a2bf a3f2 f2be 2067 7c3e 2e1f 7c3f
000002c0: 2b40 c7bc 5aee f23d fc88 62c0 66dc 83bf
000002d0: 5dd9 543c 2123 893e d6bc 3f3e 14a0 1fbe
000002e0: bc1d f7bd 95a7 d33e fcd4 593e 4367 bbbe
000002f0: e989 efbe d402 b73c 5e8d 81be 0d8d 8d3e
00000300: f9c2 5fbf 3c2c a4bd 868d 6c3e e2b9 82bf
00000310: f54f 9c3f 08d7 4d3e b46c 223f 1f24 5b3e
00000320: 786e 05bd 6a90 d13e cd39 163f cf75 17bf
00000330: 2d33 1dbc c9a5 a23f 8c15 2d3f 1d02 9dbf
00000340: 0a39 463f 505d 7f3e 9c84 35bf 66d7 aa3f
00000350: 314e e1bc ccb5 643f d060 633f ce8f 3ac0
00000360: 9aba b5ba cf47 613e faa2 863f 29d7 66bf
00000370: f979 6cbd c61b 97be 7e2a 15bf a7e7 86be
00000380: ed66 c93d 4e2f c6bd 7a3c d13f 64cb eabe
00000390: 5f7d 163e 518c 5fbc a65f a73f edef 1fc0
000003a0: 83a9 013e a1b2 143f b113 323c 1f65 01bf
000003b0: 1757 c3be e55d e63f eb99 a7be 2fd1 26bf
000003c0: 6269 0b3f 78cd cb3e 94db 013f 29de 1a3f
000003d0: e7f7 14c0 5143 aebf 52f8 ca3e 542b 23c0
000003e0: 1b41 5fbc c539 76bf 8d54 8bbf 21ab 8d3e
000003f0: ccb5 703f 9b1f 0fbf ef1b 80bf 9256 20be
-0.05439841 0.21918431 -0.52710325 -1.1669778 1.3867143 1.0408484 -0.57219994 -0.31452647
0.35192198 -0.20872362 0.10634721 -0.36765337 1.0138366 0.69064337 1.3311312 0.4193977
0.6457944 -0.16728371 0.312744 -0.45938823 -1.9775127 -0.9566139 1.1341704 -0.8136018
0.80376256 -0.911541 -1.3450562 -0.20033143 0.39075005 0.003999189 0.6122998 -1.1063526
0.7062416 0.4146667 1.2197409 0.049640737 -1.1815544 -0.44016898 -0.35275745 -0.25716263
-0.05484379 0.25330052 0.05917257 -0.4977448 -1.207997 1.4190998 -1.5634544 -0.42282817
0.013771683 -1.5252594 -0.54632485 1.020365 -0.6329353 -0.4653038 1.0273211 1.366977
-0.08752999 0.19570872 0.47908735 -0.12628709 1.6344185 2.026018 -0.9912848 -1.2735056
0.0069830627 -0.65558606 2.7491074 1.3229153 -0.09943631 0.84714407 0.26925248 -1.3348911
2.2188156 -0.34655845 2.2206335 0.21515846 -1.4331093 0.44117665 0.13716812 -0.18691304
-0.18973216 0.30318803 0.567828 -1.1150715 0.23644637 -0.041406807 -1.6910721 0.9850591
0.3700874 0.9017459 -1.4426891 0.99496734 0.23104997 -1.7143829 -0.9047021 -0.97663987
0.6811038 -0.30796668 0.24506138 -1.3770943 -0.4879917 -0.27684674 0.57134074 -0.36627132
0.29996905 -0.10159261 -0.12960108 -0.5820428 -0.997809 0.2844059 -0.2754017 -0.2644556
0.52850926 -1.203738 0.16650046 -2.168428 -1.2487416 -2.8800924 -4.514006 1.4494252
-0.72881013 0.14029501 -0.037599176 -1.4858814 -0.83349425 -1.5913342 -0.022063011 -0.19645941
0.5645625 0.683403 -0.35059437 0.8170086 -0.45728177 -1.9781936 -0.46336547 -1.3484417
0.81123865 -0.678474 1.5691586 -0.08967415 -2.0118809 -1.088953 -1.6233343 0.43219453
-0.45543352 0.49702513 -0.14265877 0.74622273 1.5650017 2.29207 1.2385387 -1.3754113
-0.039359387 -0.009761938 -0.04857935 0.026914326 3.2893894 -0.21799278 -0.0013672666 -0.0045067254
0.028432047 -1.7692636 1.0409197 0.86636424 -1.3955395 -0.24856438 -0.24438357 -0.3673383
0.9303355 0.11460691 0.102014825 -1.250423 -1.2703139 -0.47450742 0.24648714 0.98485076
-0.02432259 0.11861868 -3.5396109 -1.0301635 0.012991277 0.26784614 0.18724379 -0.15588409
-0.12066218 0.41338792 0.21272653 -0.3660222 -0.46784905 0.022340216 -0.25303167 0.27646676
-0.8740688 -0.080162495 0.23100862 -1.0212977 1.2211901 0.20101559 0.6344712 0.21400498
-0.032576054 0.40930492 0.58681947 -0.59164137 -0.009594721 1.2706844 0.67611 -1.226627
0.77430785 0.2493794 -0.7090547 1.3346984 -0.027503105 0.893399 0.888196 -2.9150271
-0.0013864816 0.22000049 1.0518486 -0.9017206 -0.05773351 -0.29513377 -0.5826796 -0.26348612
0.09834085 -0.096769914 1.6346581 -0.458583 0.14696263 -0.013644294 1.3076065 -2.499019
0.1266232 0.58085066 0.010868953 -0.50544924 -0.38152382 1.7997404 -0.32734618 -0.6516294
0.54457676 0.39805198 0.50725675 0.6049524 -2.3276308 -1.3614293 0.39642578 -2.5495195
-0.013626362 -0.961819 -1.0885178 0.27669623 0.940274 -0.559076 -1.0008525 -0.15658024

bias f4 [64]
00000000: cad2 cf3e dd25 283e c951 d1be 70dc c03e
00000010: d04d 773d 1a64 443f 0976 afbe e1d1 343f
00000020: 2f26 883f d320 a23c a493 313e ad19 643f
00000030: 18bc ae3e 3587 3f3f bd37 8dbf 62c3 703e
00000040: 6063 633f 9660 a8be 4f26 1a3f 2bc5 48ba
00000050: 2bf7 a63e c21b 0e3e efca f4bc ff9d 473f
00000060: a3cd 0c3e 026f 0c3f 2e13 d13e 47d4 573f
00000070: c82c 7e3d 02ce 823f a84f cf3e 2638 c03e
00000080: bef5 ce3e 0033 503f 3fce 67bf e458 87bf
00000090: d534 ca3b e6e9 743f a4a7 d93e 334a 953e
000000a0: 373a 68bf a95f 9a3f 0963 723f d508 283f
000000b0: 04ed 233f 65b2 6abe 9474 2a3f cd7a 98bd
000000c0: 6fe4 213f b035 513f f1a0 1dbf dfb6 703f
000000d0: 4d18 d93d f7c0 983f 8163 243f c16a 353e
000000e0: 443d e83d 3a5b 1c3f ac95 3a3f 7cc1 463f
000000f0: 7c6e 6f3e d9c2 323f 226e b53e f323 f7be
0.40590507 0.16420694 -0.4088271 0.3766818 0.060376942 0.7671524 -0.3426974 0.7063275
1.0636653 0.019791042 0.17341477 0.8910168 0.3412788 0.74815685 -1.1032635 0.23512033
0.8882351 -0.3288619 0.60214704 -0.0007658775 0.3261045 0.13877776 -0.029881923 0.7797546
0.13750319 0.54856884 0.40834945 0.84308285 0.062054425 1.0219119 0.4049046 0.37542838
0.4042186 0.8132782 -0.9054908 -1.0574002 0.006170849 0.956694 0.42510712 0.29158172
-0.9071383 1.2060443 0.94682366 0.65638477 0.6403353 -0.22919615 0.66584134 -0.074452974
0.63239187 0.81722546 -0.615737 0.9402904 0.10600338 1.1933888 0.6421433 0.17716505
0.113398105 0.610767 0.7288463 0.77638984 0.2338199 0.69828564 0.35435587 -0.48269615

weight f4 [64, 64]
00000000: 8c56 a8bf cc59 c53e f799 50bf 5c8d 323f
00000010: 2595 61bf 747d 383e a0a6 bebe 1092 943e
00000020: f350 923e 98a3 0bbf 2ea4 bbbf 2c22 ce3e
00000030: ef10 cf3e 47a9 903e ff17 b63f a0f8 f73e
00000040: 13a0 0ebd 402a b43e 43cc 19bf 4e35 1740
00000050: b070 833f e62a eb3e 3076 073f c79b a43e
00000060: 05de a63f 3a4a a53e 0134 a7be 0b25 073f
00000070: 90a2 643f 467a c53e 0339 273e aca6 783f
00000080: e195 8b3e 62a2 4cbd 60b0 2c3f 1fc0 4bbf
00000090: 1d5b 673f 9a3f 2a3f 1765 da3e 0cd0 1e3e
000000a0: bc36 1bbf 9e59 493e 9cdb b93c 1ee3 643e
000000b0: 53d8 2fbf c9ad 0d3f ea22 28bf 5d5f 88bf
000000c0: eb8a 3a3e 628b 99bf 6315 e73e 414a c13e
000000d0: bdba 873e 6e74 953e c2ca 323e 5372 573f
000000e0: b7be 0dbe 986b 57bf c492 d7be 4298 02bf
000000f0: 5555 89be e047 543e 05eb 443a f98b d0bf
00000100: 3a11 03bd 404c f53b d512 aebd d063 ac3c
00000110: 70ad fcbd 7b53 e4bd 96f9 f73d a39e 073c
00000120: b02e 06bd 22d0 cabd 5d69 aabd bd29 f4bc
00000130: ca73 0b3c eab0 433d 51c1 20be e1dd 433c
00000140: e2d3 1cbe 70c6 0c3d 182c c9bd 1604 aebd
00000150: 6288 92bd f8de 3ebd c1ff 803c 4cca c0bd
00000160: f08b 94bc 15ae b9bd 5c47 53bd 9ec5 653d
00000170: 8c32 083d 680c c8bd 4dee e4bd 29f6 bd3d
00000180: 2e5e eabd 6f00 1f3d 2cf7 02be 0026 b3b9
00000190: 0695 95bd 6ac1 66bd 131b fdbd f8ef 913c
000001a0: a1cd 0abb 4e63 d73d 32e6 99bd de45 cfbd
000001b0: 1c12 7dbd 94b9 e7bd ce21 fc3c 1bac 713d
000001c0: f74d 1dbe fd31 4fbd 9e59 0bbe fc94 863d
000001d0: b5f3 11bd 0e8e 30be 3c47 29bc fd62 06be
000001e0: 4db7 833d c971 d63c 9424 a3bd 10d2 363d
000001f0: 1864 98bd 4d94 d8bd fd4d d3bd 7bf2 c0bd
00000200: b85e a33f 5aff 23c0 5788 b3bf 7a1c f4be
00000210: 4c86 2b3f 66d9 5cbe 1e5b 34be aab4 01bf
00000220: 8cc1 9abe 0106 16bf cf8b c13f 35c8 babe
00000230: 379d 4cbf 3457 0bbe 5c08 233f 6c1f 013f
00000240: 0e2d 973f 1f70 ecbd 45b6 b33f 24df f8bf
00000250: 9d9c 05c0 2569 1bbf 8f4c 053f 8ccd 4ebe
00000260: 4f58 a6bf 6a83 1abf 5d78 263e 9bd8 d7be
00000270: 5aa8 d1bf 6467 aebe a100 21be 92b7 8b3f
00000280: 21c2 90bf 66eb 643e 919f ca3e 95ff 973f
00000290: 1b11 47bf 5763 56bf 5103 e9be 4208 b3bf
000002a0: 93e1 6bbd 0a48 3cbe 4a1d d7be 7022 36bf
000002b0: c6b5 8f3f ccd7 8bbf eb65 373f 6a49 203e
000002c0: 5462 c7bd 45f7 093f 322b 88be ff48 acbe
000002d0: 58ac a33e bb68 5dbe 39c5 c63c aa36 78bf
000002e0: 8862 9c3f 6669 2b3f 4de1 463f e201 873f
000002f0: 809c 7abf 51fd 84be 622e 1b3e 0f4a e83f
00000300: c05a 8e3c b5b5 95bd c571 cf3d e797 53bd
00000310: f4e8 f3bd 06bc 19be 889f d0bb 4dfd 2e3c
00000320: 4c2c e5bd cb34 f2bd a880 aebc 0958 d73b
00000330: 8db1 13be 09d7 15be ce4a ffbd 758d 29be
00000340: 7201 86bd 40c1 f6bd edc6 0bbe 6d65 b7bd
00000350: e4fe 8dbd 6646 e8bd da63 5b3d 596a 093d
00000360: 9b5c 03be 1a93 8d3c 8f29 03bd 81b7 cabc
00000370: 485e 99bd 758c 11be a4cf fabd 7743 fabc
00000380: 7f21 2fbe bca8 c9bd ec8b 9fbc 8134 16be
00000390: 6c69 debd 73b3 493d 3117 ecbd 21f9 d1bd
000003a0: 45a4 79bd 94e6 cdbb bf41 a3bd 126a 4ebe
000003b0: dc52 023d 0fcf efbd 66b9 dfbd eef1 86bd
000003c0: 3f60 583d 4464 65bc 5426 ebbd 03f8 bbbd
000003d0: 033e bc3c 3079 c0bd 1347 f33b aafc cebd
000003e0: 8d3f a33c e815 81bd 9e97 43bd 9761 8a3d
000003f0: 2eb8 4f3d c7af 2a3d a363 e93b 7d6a 0bbc
-1.3151412 0.38545072 -0.8148493 0.6974695 -0.881182 0.18016607 -0.372365 0.29017687
0.28577384 -0.545465 -1.4659479 0.40260446 0.40442607 0.28254148 1.4226073 0.48431873
-0.034820627 0.35188484 -0.60077304 2.3626285 1.0268764 0.45931166 0.52914715 0.321501
1.3036505 0.32283193 -0.32656863 0.527909 0.8931055 0.3856985 0.16330342 0.9712932
0.27262786 -0.049959548 0.67456627 -0.7959003 0.903734 0.665033 0.4265525 0.15509051
-0.60630393 0.19663092 0.022687726 0.22352263 -0.6868946 0.553433 -0.65678275 -1.0654103
0.18217055 -1.1995661 0.45133504 0.37751964 0.26509658 0.2919039 0.17460158 0.8415882
-0.13842283 -0.8414855 -0.4210416 -0.51013577 -0.26822916 0.20730543 0.0007511827 -1.6292716
-0.03199885 0.0074858963 -0.08499686 0.021043688 -0.12337768 -0.11148735 0.121081516 0.008277568
-0.03275937 -0.099029794 -0.08320878 -0.029805059 0.008511493 0.04777614 -0.15698744 0.0119547555
-0.15315202 0.034368932 -0.09822863 -0.08496873 -0.07154919 -0.04659936 0.015746953 -0.09413585
-0.018133134 -0.09066407 -0.051581725 0.056096666 0.03325133 -0.09767991 -0.11178265 0.09275467
-0.114437446 0.038818773 -0.12789601 -0.00034169853 -0.073038146 -0.056336798 -0.123586796 0.017814621
-0.0021179693 0.10516988 -0.075146094 -0.10120748 -0.06178485 -0.11314693 0.030777838 0.059002023
-0.15361772 -0.050584782 -0.13608405 0.06571385 -0.035632808 -0.1724169 -0.010331925 -0.13123699
0.06431446 0.026177304 -0.07965961 0.044633925 -0.07440966 -0.10575161 -0.103176095 -0.094212495
1.2763281 -2.5624604 -1.4025983 -0.47677976 0.67001796 -0.21567306 -0.17612883 -0.50666296
-0.3022579 -0.5860291 1.5120791 -0.3648087 -0.7992739 -0.13607484 0.6368463 0.5043857
1.1810625 -0.11544823 1.4039999 -1.9443097 -2.087684 -0.6070731 0.52069944 -0.20195597
-1.29957 -0.6035677 0.16256852 -0.42157444 -1.6379502 -0.34063256 -0.15722896 1.0915396
-1.1309243 0.22355422 0.39574865 1.1874872 -0.77760476 -0.8374533 -0.45510343 -1.3986895
-0.05758817 -0.18386856 -0.42014533 -0.711463 1.1227348 -1.0925231 0.7163989 0.15653005
-0.097355515 0.5389293 -0.26595455 -0.33649442 0.31967425 -0.21621983 0.024263965 -0.9695841
1.2217569 0.669577 0.7768753 1.054745 -0.9789505 -0.25974515 0.15154412 1.8147601
0.017377257 -0.073100485 0.10129122 -0.051658537 -0.11909667 -0.15013131 -0.006366674 0.010680509
-0.111900896 -0.11826476 -0.021301582 0.006571774 -0.14423199 -0.1463281 -0.1246544 -0.16557868
-0.065432444 -0.12048578 -0.13650103 -0.08954892 -0.06933382 -0.113415524 0.053562023 0.033548687
-0.12828295 0.017282058 -0.032022055 -0.024745705 -0.07488686 -0.14213736 -0.122466356 -0.030549748
-0.17102621 -0.09846637 -0.0194759 -0.14668466 -0.108599514 0.0492434 -0.11527861 -0.10252596
-0.060947675 -0.0062835906 -0.079715244 -0.2015765 0.031817302 -0.11709415 -0.10924034 -0.06589113
0.052826162 -0.014000956 -0.1148192 -0.09178164 0.022978788 -0.09398115 0.007424244 -0.101067856
0.019927764 -0.063030064 -0.047752015 0.06756895 0.050712757 0.04167154 0.0071224733 -0.0085092755

bias f4 [64]
00000000: 145d 023f 07a4 90bc 47bb 76be 82cf 933c
00000010: abb8 103f 433f f03e 6c6b 80be e855 373f
00000020: e92f f8bc 7f4d f03e 9fca e6bd b9ba 9c3c
00000030: 26cb 6ebf f51e 073e e2bc 8e3c e6e8 95be
00000040: 5e19 0ebf 57de 333f a575 153f 3de4 f63e
00000050: e752 11be 2708 ae3d 9db7 64bf 6648 b73e
00000060: 075d 283d f3a7 8f3e 9f25 85bf 68ae 283f
00000070: 7a18 2dbe 8dcc eb3e 1d42 9e3d 02e1 b0be
00000080: e6bf e23e a92f 74bf acb2 e3bc 1ddb 12be
00000090: f8f9 52be 5e9b 22be 463a a53e f739 13bf
000000a0: 9fb1 b03e 03c5 e1bd 76d7 953d a573 023f
000000b0: 5973 c73e 37dc bf3e 5e02 b2bd f758 3bbc
000000c0: d1c0 8e3e b7a9 adbd 75e7 003f adb4 bdbd
000000d0: 9ad7 d13e 8508 ff3e 95b2 a2bd bdcc c9bd
000000e0: cf52 abbf 214b ce3e ef31 413d 7401 063f
000000f0: 9776 3abe dcec 8fbf 19c0 1cbf 3837 36be
0.50923276 -0.01765634 -0.24094878 0.018043283 0.5653178 0.46923265 -0.25081956 0.7161546
-0.030296283 0.46934125 -0.11269116 0.019132005 -0.9327873 0.13195403 0.01742405 -0.2927925
-0.5550746 0.7026114 0.58382636 0.48221007 -0.14191781 0.08497649 -0.8934267 0.35797423
0.041104343 0.28057823 -1.0402106 0.6589112 -0.16903868 0.46054497 0.07727454 -0.34546667
0.44287032 -0.95385224 -0.027795158 -0.14341398 -0.20603168 -0.1587958 0.32271022 -0.5751032
0.34510514 -0.11023905 0.073164865 0.5095771 0.3895519 0.37472698 -0.08691858 -0.011434785
0.27881482 -0.08479636 0.50353175 -0.09262977 0.40984803 0.49811187 -0.07944218 -0.09853504
-1.3384646 0.40291694 0.04716676 0.5234597 -0.18209301 -1.1244159 -0.6123062 -0.17794502

weight f4 [4, 64]
00000000: 2f00 043f ea6c 943d 733a d2bf 618e 09bd
00000010: abdc 163f 0add 183f 1214 48bf 5afd 82bf
00000020: 58cc 57bd c52e 213f 6f8b b83f bbc5 c33f
00000030: dbd1 dfbf e951 a3bf 5d41 653f e53a c9bf
00000040: b683 cabf 2c89 babe 111f 383f d91d bd3f
00000050: 457e 2ebf 7e69 1f40 1773 f9bf f2ea ec3e
00000060: f117 4fbf 70fa b43f f6e0 10c0 b171 323f
00000070: 1687 c33b 4ab4 833f 824f 8c3f 7a51 7c3f
00000080: 1374 163f 5cc8 f6bf 05f9 a8bd 1591 4c3d
00000090: 63a6 1bbf 5ca4 8d3c e5fc b43f 07f9 d23f
000000a0: 788e b63e 92d0 74bf a2e2 d7bf 611b 653f
000000b0: 4ca8 343f 4dd1 253f 0ae9 d3bc e4a6 133e
000000c0: ee2c aa3f 8c21 863f 0e65 b13e 7182 153f
000000d0: d8d3 a9bf 8881 e93e a004 a13f 0c3a 573d
000000e0: bcc4 4ec0 eaf5 df3e cbb4 4ebf 2feb 983f
000000f0: cb1d 1abe ef2b 18c0 dbc0 1fc0 1527 383d
00000100: b3d6 573f 4446 33bd 1b91 c4bf 220c 9d3d
00000110: 9d26 0b3f 6b08 233f 397c 36bf 60bd e9be
00000120: 68ed e03c 8a6e 1b3f 7c68 c73f 56f4 ab3f
00000130: 1b44 e3bf dcbd 97bf abe2 573f 5ecd efbf
00000140: 4742 d5bf db94 8d3d 3b24 113f 996a a83f
00000150: 2ca5 6dbf 10ac 1c40 33aa f5bf cb49 343e
00000160: 7e76 4fbf 884e 973f 0358 fcbf 06a2 b23e
00000170: 4425 ebba c6fc 6d3f 32e2 783f 705d c03f
00000180: dbb3 623f c653 20c0 86e0 9fbd 2adb 553d
00000190: 7ddd 1fbf 5538 ae3d ae3a ba3f 5ae0 be3f
000001a0: 86e0 d53e d9a0 90bf c2bd c7bf 5a07 683f
000001b0: eb7b 1f3f cc6d 5c3f c027 53bc 1d34 62be
000001c0: 817f aa3f a613 903f 5c5a 883d e9b4 c23e
000001d0: 1cb5 dbbf a22c 043f 5823 aa3f d3d5 b23c
000001e0: 1123 3cc0 15b0 123f 801a 60bf 6e59 b83f
000001f0: 19b6 b5bd 03f4 14c0 80e6 10c0 b835 833d
00000200: 48c6 4e3f b05e 613c 80ab c1bf d6b0 b0bd
00000210: 422b b83e 0f10 2b3e 37cc 3fbf fd68 b6bf
00000220: f00d e2bc 500a f23e acd4 af3f 5d99 063f
00000230: f3e4 d1bf 6f78 a1bf d3e2 913f 7139 b5bf
00000240: 46b1 d2bf f987 03bf ddd5 d13e 38e2 ad3f
00000250: 4107 16bf 3916 4640 9233 f0bf 043c 533f
00000260: 79a3 78bf 005d 963f ea7b fabf ed3d 3c3f
00000270: 8367 133c 5579 b03e 8f58 a23f 26b9 cd3f
00000280: 938c 313f aa2a 01c0 eeb8 90bd 833f d1bd
00000290: 13b1 07bf 16ac 1a3c 1275 ab3f 7c55 bd3f
000002a0: 6304 413f 6fda 65bf c291 f1bf 0360 6f3f
000002b0: 478a 8e3f 2526 5c3f c0e5 c73b ddb2 4e3f
000002c0: 39ab ba3f efe1 8a3f eb71 bc3e 8a45 0a3f
000002d0: ee06 8bbf a344 433f b1b4 883f bc3c 8c3c
000002e0: 7ac8 4cc0 3cd9 4d3f 2e3c f8be d3eb 783f
000002f0: 1ee0 05be eaa5 14c0 19b5 13c0 f01a 923d
00000300: 2b9a 883e 5cbf 30bd 9764 e4bf 8fd2 b4bc
00000310: bc04 383f 33cc 113f e940 50bf 6b89 b1bf
00000320: 2043 45bd bf0d 423f 539e 9c3f 1266 0040
00000330: c5f6 d3bf 157c 95bf 6aa6 863f 7b95 a0bf
00000340: e9ae cabf c36f 66bf 5e44 4d3f bef5 bd3f
00000350: cff9 e0be 6997 f13f f831 cabf e1bc 383f
00000360: db33 6abf d4f6 b83f 52da 19c0 9ed5 503f
00000370: 8f10 4fbd 68a3 953f c34e b43f cb38 a73f
00000380: 5942 b83e 6065 c1bf 7206 f03b 85ea b2bd
00000390: b13a 06bf 34df 89bd f548 9f3f 5278 d33f
000003a0: 7631 5b3e e8b6 87bf 72cb d9bf 93ab 213f
000003b0: 1a59 583f 6418 163f c5eb 883c 9c75 293f
000003c0: 4e5f b83f 955e 833f e638 523f 67a7 603f
000003d0: 3b86 92bf 0e9c d43e a46f 8e3f 9c82 ee3b
000003e0: 94f8 f9bf b5aa 803e 11f8 3cbf 6056 8b3f
000003f0: 9cee 143d ac52 11c0 4bd8 39c0 ccd9 b3bd
0.5156278 0.07247336 -1.6424087 -0.03358305 0.5893046 0.5971228 -0.78155625 -1.0233567
-0.05268511 0.6296199 1.4417552 1.5294718 -1.7485918 -1.2759372 0.8955286 -1.5721098
-1.5821445 -0.3643278 0.71922404 1.4774734 -0.6816142 2.4908137 -1.9488248 0.46273
-0.80895907 1.4138927 -2.2637305 0.6970473 0.0059670312 1.0289395 1.0961764 0.98561823
0.58770865 -1.9279895 -0.08250622 0.04994305 -0.6080076 0.017290287 1.4139677 1.6482247
0.3565557 -0.95630753 -1.6866038 0.894949 0.705693 0.6477249 -0.025867958 0.14419132
1.3294961 1.0478988 0.3464741 0.5840216 -1.3267775 0.45606637 1.2579536 0.052545592
-3.2307577 0.43742305 -0.8074462 1.1946772 -0.15050428 -2.3776815 -2.496146 0.044959147
0.8431198 -0.043768182 -1.5356783 0.0766833 0.54355794 0.6368472 -0.712833 -0.45652294
0.027456954 0.60715544 1.5578761 1.343394 -1.7755159 -1.1854815 0.8433024 -1.8734548
-1.6660851 0.069131576 0.5669591 1.3157531 -0.9283016 2.4480019 -1.9192566 0.17606275
-0.8104018 1.1820841 -1.9714359 0.3488924 -0.0017940183 0.92963827 0.97220147 1.5028515
0.8855569 -2.5051131 -0.07806496 0.052210964 -0.6244734 0.08506838 1.4549158 1.4912217
0.4177286 -1.1299087 -1.5604784 0.9063622 0.6229846 0.86105037 -0.012887895 -0.22090192
1.3320161 1.1255996 0.0665786 0.38028648 -1.7164645 0.51630604 1.3292036 0.021830475
-2.9396403 0.5729993 -0.87540436 1.4402292 -0.08872623 -2.3273933 -2.2640686 0.064067304
0.80771303 0.013755485 -1.5130463 -0.08627479 0.35970503 0.16705345 -0.7492098 -1.425079
-0.027594537 0.47273493 1.3736777 0.52577764 -1.6397995 -1.2614878 1.1397346 -1.4158155
-1.646035 -0.5137935 0.40983477 1.3584661 -0.5860482 3.0951064 -1.8765738 0.8251345
-0.9712444 1.1747131 -1.9569066 0.7353199 0.008996847 0.3446757 1.2683276 1.6072128
0.69355124 -2.018229 -0.070665225 -0.10217192 -0.5300457 0.009440443 1.3395102 1.4791713
0.7539732 -0.8978643 -1.8872607 0.9350588 1.1135949 0.85995704 0.0061003864 0.80741674
1.4583503 1.08502 0.36805663 0.5401236 -1.086149 0.76276606 1.0680143 0.017118804
-3.199736 0.804096 -0.48483413 0.9723484 -0.13073775 -2.3226266 -2.3079283 0.07134044
0.2668012 -0.043151245 -1.7843198 -0.022073058 0.71882224 0.5695221 -0.81349045 -1.3870062
-0.04815972 0.75802225 1.2235817 2.0062299 -1.6559683 -1.1678492 1.0519536 -1.2545618
-1.5834628 -0.90014285 0.80182445 1.484062 -0.4394059 1.8874332 -1.5796499 0.72163206
-0.91485375 1.4450326 -2.4039502 0.81575954 -0.0505529 1.1690493 1.4086536 1.3064207
0.3598812 -1.5109062 0.007324987 -0.08736137 -0.52433306 -0.06732026 1.244414 1.6521094
0.21405587 -1.0602694 -1.7015212 0.63152426 0.8451096 0.5863097 0.016713986 0.6619508
1.4404085 1.0263239 0.8211807 0.87755436 -1.1447214 0.4152531 1.112782 0.0072787534
-1.9528985 0.2513024 -0.7381602 1.0885735 0.036360368 -2.270671 -2.9038265 -0.08781776

bias f4 [4]
00000000: 3432 da3e e834 893e 5cf2 c73e 3ad4 fa3d
0.42616427 0.26798177 0.39052093 0.1224751
