solved/DQN_weights.pth (torch, 22367 bytes, 6 tensors)

linear1.weight f4 [64, 8]
000000 83 8e 5e bf 97 47 78 bf 2d e9 b1 bf 95 f6 70 be
       -0.86936206 -0.9698424 -1.3899285 -0.23531564
000010 ec 93 e1 3e ce 4d 28 3f 9d ef 0d 3f b5 2c 58 bf
       0.44058168 0.6574372 0.55443746 -0.8444322
000020 10 11 a9 be bd 05 82 be 06 73 c0 bf 10 1a 10 3f
       -0.3302083 -0.25395003 -1.5035102 0.5628977
000030 94 c8 25 3f 07 35 0d bf e9 76 02 3f 4b be 5f 3d
       0.6475918 -0.5515904 0.5096269 0.054624837
000040 9f 76 12 3f db e6 3a 3e fa 15 05 bf 0a f7 14 bf
       0.5721225 0.18252127 -0.5198666 -0.5818945
000050 8b f8 79 bf 7e 65 70 3f 5c 4e 2f be d3 02 90 be
       -0.9764487 0.93904865 -0.17119735 -0.28127155
000060 91 c5 aa 3d fe 59 d1 be 89 c1 9b bf 6f 2d 0a 40
       0.08338464 -0.4088897 -1.2168437 2.159023
000070 47 ad 80 be 7f 19 46 bf a9 bc d3 3e 94 21 4d bf
       -0.251322 -0.77382654 0.41354874 -0.8012936
000080 0f 9c 99 be cd 69 80 be 4c 3f e0 be ae f3 01 bf
       -0.30001876 -0.2508072 -0.43798292 -0.5076245
000090 8e e2 e3 3e 71 b5 6c 3f 49 14 5a 3f 0d 3d d4 bf
       0.44508785 0.9246436 0.851872 -1.6581131
0000a0 fb 48 07 bf 3e 86 e9 3e 59 db 5c bf 6a 52 1b bc
       -0.52845734 0.4561023 -0.862722 -0.009480098
0000b0 bb ee 69 bf f3 ef a4 be b2 ca 75 be 18 c6 26 3f
       -0.913799 -0.32214317 -0.24003103 0.6514602
0000c0 fe a2 8e bf 8b b0 d1 bc 0d 71 84 bf 8e 75 63 3f
       -1.1143491 -0.025596878 -1.0347 0.8885125
0000d0 9c 8f 4c bf 6b b9 0d bf ff 12 81 3c e6 c8 bd 3e
       -0.7990663 -0.5536105 0.015756128 0.37067336
0000e0 4e 3f e1 be 48 da 10 3f 98 a8 bf 3b ff ce 7a be
       -0.4399361 0.5658307 0.0058489554 -0.24493025
0000f0 ce bc d8 3f 00 e0 da 3c 0e 5e c6 be 34 76 85 be
       1.6932619 0.02671814 -0.38743633 -0.26066744
000100 88 f6 12 bf f1 46 93 3d 19 02 9f be 2a 5e 9b 3f
       -0.57407427 0.071912654 -0.31056288 1.2138112
000110 38 fc 90 3c 0d cb f6 bc b2 8f 96 be 9e 35 7b 3e
       0.017698392 -0.030126119 -0.29406506 0.24532172
000120 50 3c 5b 3f 09 37 4d 3e 3e c6 af 3f b8 6a 75 3f
       0.85638905 0.20040525 1.3732374 0.95865965
000130 ab 47 8c bc 5a 7a 1d 3f 71 68 39 3e 29 4b b1 3e
       -0.017124018 0.6151482 0.18106247 0.34627655
000140 f3 10 f8 3b f2 95 c2 3b 10 26 fa 3f a3 98 8e be
       0.00757038 0.005938285 1.9542866 -0.27850828
000150 d5 be 31 bb 09 01 87 bd 05 b7 7d be f2 3d 80 3e
       -0.0027121801 -0.06591994 -0.24776848 0.2504726
000160 9c 81 b9 bd 63 1b 07 3f 41 60 f3 be f3 66 96 bd
       -0.09057924 0.52776164 -0.47534373 -0.07343855
000170 6a 7f 0d 3f 79 db 35 be 2a 17 d8 3e 8b 63 02 3e
       0.55272543 -0.17759503 0.42205173 0.12733285
000180 a7 b8 f3 3e 64 c4 5f be 56 a9 cc 3c f6 05 75 bf
       0.47601816 -0.21852261 0.02498309 -0.9571222
000190 ae f1 da be 9e 62 cc be f0 5a 72 3e 47 07 40 bd
       -0.42762512 -0.3991899 0.23667502 -0.04688194
0001a0 b6 29 ec 3d 6c e5 91 be 70 8b ab bf 3a bd 77 bf
       0.11531393 -0.28495347 -1.3401928 -0.9677311
0001b0 e6 21 c2 be 5f 8d 19 bd ac c9 73 be 1a b6 15 bf
       -0.37916487 -0.037488338 -0.238074 -0.5848099
0001c0 2d 4e 7d 3f 1e ce 3c 3e 38 ac 13 3d fd a8 0f bf
       0.9894741 0.18438002 0.036052912 -0.5611723
0001d0 97 eb 31 bf cb c3 89 bf 85 98 96 3d 13 58 16 3d
       -0.69500107 -1.0762876 0.073533095 0.036705088
0001e0 a1 3e 43 bc de b1 a3 3c 2a 61 1d 40 6b 83 22 3e
       -0.011916787 0.019982275 2.4590554 0.15870444
0001f0 8f 9e 16 3d 64 2d 8e 3d 8b a9 a0 3e 7f d3 7a bc
       0.036772307 0.06942251 0.3137935 -0.015309214
000200 34 17 61 bf f3 e4 8d 3d 77 f0 87 be 2e 13 2f 3f
       -0.8792603 0.06928434 -0.26550648 0.6838864
000210 b2 c5 43 bf e8 19 82 bf 05 f6 dc 3b ac 15 ba be
       -0.76473534 -1.0164156 0.006743195 -0.3634466
000220 fb aa b5 3e 71 d3 b1 3c d4 28 b9 3f 32 42 70 3f
       0.3548201 0.021707268 1.4465585 0.93851006
000230 9e c7 3f 3e 19 10 be be 02 53 a4 bf 1e 24 83 bf
       0.18728492 -0.37121657 -1.2837832 -1.0245397
000240 84 de 95 3e 49 ad 2a 3d e2 c3 a0 bf c6 10 7c 3f
       0.29271328 0.041669164 -1.2559779 0.98463094
000250 4e 07 0a 3f 08 75 97 be a8 0b 25 3e 14 6d 2e 3e
       0.53917396 -0.29581475 0.16117728 0.17033798
000260 83 d8 13 bd 2c 41 04 3d 2e 0a 78 bd 68 39 d2 bb
       -0.036095154 0.032288715 -0.060556583 -0.0064155348
000270 7c 53 38 40 77 6b 2b be 07 e6 73 3d 67 b1 8a bd
       2.8800955 -0.16740213 0.059545543 -0.06772118
000280 3f cb 5d 3f c2 71 cd 3d 01 86 09 bf 61 13 c7 3f
       0.86638254 0.10031463 -0.537201 1.5552789
000290 73 18 91 bf 5d 58 49 3f c6 ba b4 be 61 da d1 bb
       -1.1335586 0.78650457 -0.35298747 -0.0064042066
0002a0 c5 79 3c bf 1f 16 10 3f 9d 79 85 3e e1 30 e6 be
       -0.73623306 0.56283754 0.26069346 -0.44959167
0002b0 24 97 c7 bf 05 c1 40 3e 86 fa c6 bf 25 a5 5a be
       -1.5593 0.18823631 -1.5545204 -0.2135206
0002c0 15 fc d8 bf bb f1 1c bf a9 30 96 bf 9e 4e 26 bf
       -1.6951929 -0.6130635 -1.17336 -0.6496371
0002d0 70 e4 93 3e e9 80 b5 be 07 f5 84 bc 49 6c 8b be
       0.2888522 -0.35449913 -0.01623012 -0.27231053
0002e0 bb 5e 52 bf 12 a6 4c bd 4b 2d 9d 3e 4c b2 32 3e
       -0.821758 -0.049963064 0.30698618 0.17450827
0002f0 15 1c d2 bf d7 89 4e 3f d8 7f cf 3e ce d0 03 3f
       -1.641482 0.80679077 0.40527225 0.51490486
000300 34 f0 34 bf 12 d1 bb bf 13 70 bc 3f d4 71 78 bd
       -0.7067902 -1.4673178 1.4721702 -0.06065543
000310 9f 2d f3 3e 9b b2 dd 3e 9b 01 30 3d f0 97 c8 be
       0.47495744 0.43300328 0.04297028 -0.3917842
000320 60 6c 7e be c8 92 4e be da a2 1c bf db 82 03 bf
       -0.2484603 -0.2017318 -0.6118599 -0.51371545
000330 69 ee 5f 3f e9 4d 69 3f 41 1f 9a 3d 6f 9a 2b 3e
       0.8747316 0.91134506 0.075254925 0.1675813
000340 72 87 15 be fe 12 c1 3e 85 a9 eb be 9a 42 27 3e
       -0.1460245 0.37709802 -0.4602777 0.16334
000350 9f ea 0a 3f 18 a3 a1 3f 03 e1 b1 bd d0 69 e3 bf
       0.54264253 1.2627897 -0.08685496 -1.7766666
000360 fc 6e cc bd 14 98 b1 be b4 27 0a 3f ef 5f cb bf
       -0.09982106 -0.3468634 0.5396683 -1.5888652
000370 c2 04 8b be dd 1a 8c 3e db c8 67 3d 93 92 2c bf
       -0.27152067 0.27364245 0.056588035 -0.67411155
000380 cc 67 a4 be 6c 79 03 bf 85 0e 0e 3c c2 f6 14 bf
       -0.3211044 -0.5135715 0.008670454 -0.5818902
000390 f5 26 2d bc 87 80 d3 3f 91 96 bc 3e 34 45 be be
       -0.01056837 1.6523598 0.36833623 -0.37162173
0003a0 11 9a 85 bf e5 4a 08 3f f7 d3 07 bf 88 3c c8 be
       -1.0437642 0.5323928 -0.5305781 -0.39108682
0003b0 d8 05 ed 3c 7c 80 ee 3d cd 60 29 3d 38 6e e6 3e
       0.02893345 0.116456 0.041352082 0.45005965
0003c0 64 8c ab be 2a 63 75 be 8e c4 79 3e 5e 01 0f 3f
       -0.33505547 -0.2396361 0.24391386 0.5586146
0003d0 bb df 0c c0 ce aa ed bc 34 23 b0 be fe 73 97 be
       -2.2011554 -0.02901211 -0.34401858 -0.29580683
0003e0 90 89 00 3f 03 45 7f bf ea 26 31 3f be 3f 56 40
       0.50209904 -0.9971468 0.69200003 3.3476405
0003f0 e6 75 33 bf e7 46 30 be e2 6e fa 3e c6 5c 0c 3e
       -0.70101774 -0.17214547 0.48912722 0.13707265

linear1.bias f4 [64]
000000 bc 73 40 bf e9 7c bb 3e 82 78 95 3e 5b cc a7 3e
       -0.75176597 0.36618736 0.29193503 0.32773098
000010 08 98 dd be 98 10 91 3d ab b2 8b 3d 9c 22 00 3f
       -0.43280053 0.07083243 0.068211876 0.5005281
000020 3b 2b cf 3e 42 56 ca 3d ec 4f 31 bb 14 62 b4 3e
       0.4046267 0.098797336 -0.0027055694 0.35231078
000030 6f 53 86 3e 6f 57 8c 3e 63 0a cb 3d a2 bf 78 bb
       0.2623553 0.27410457 0.099140905 -0.003795602
000040 20 60 a7 3e ab e7 ed 3e 78 7c 0d bd e3 2a c0 bc
       0.32690525 0.4646581 -0.03454253 -0.02345795
000050 0a 32 2a 3e 03 36 2d bd 99 fe 07 3e a2 ee 76 3e
       0.16620651 -0.042287838 0.13280715 0.24114469
000060 96 79 89 3e 3b ba c6 3e 8f 73 6c bd 78 74 97 3e
       0.26850575 0.38813958 -0.057727393 0.29581046
000070 d8 2c 60 bd 3a 65 ef 3e 6a ab 7b bd e6 db 6b be
       -0.054730266 0.46756917 -0.06144277 -0.23033103
000080 a0 1b 8b 3e ba a3 4e 3b 31 9b 36 be 00 aa 7f be
       0.27169514 0.0031530694 -0.17832638 -0.24967194
000090 03 86 bb 3e 83 f2 be 3e f4 26 50 3e 68 d2 29 3a
       0.3662568 0.37294397 0.2032736 0.00064781914
0000a0 e8 a2 d2 3d 75 52 40 3e a4 ad b6 3d 05 cb 37 3e
       0.10284978 0.18781455 0.08919838 0.1794854
0000b0 b5 53 22 bd 7a 67 6d 3e 7d 07 cb 3e 0f bd e1 bd
       -0.03963061 0.23184004 0.3965415 -0.11022388
0000c0 d6 2f 93 3d 5e d8 82 be 1d 5c 84 3d 03 91 84 3e
       0.07186858 -0.255557 0.06462882 0.25891885
0000d0 d1 f0 eb 3d 9c 3d 4e 3e 58 50 9b 3e 13 2f 3e be
       0.115205415 0.2014069 0.30334735 -0.18572645
0000e0 18 a1 8a 3e d7 72 8e 3c 70 84 a3 3e 0a a7 4a 3d
       0.2707603 0.017388744 0.3193698 0.049475707
0000f0 f0 d7 8d be f0 96 84 3e f1 e2 42 bd 3f e6 7e 3d
       -0.2770381 0.25896406 -0.04757971 0.0622313

linear2.weight f4 [64, 64]
000000 bd 17 05 be 0e 46 29 bf 8f 5e 0b bd 9d 7c f4 bf
       -0.12997337 -0.6612252 -0.034025725 -1.9100529
000010 a4 cb b1 bf c0 fa f0 3c bb e2 e9 be 77 a3 32 3e
       -1.3890271 0.029416442 -0.45680794 0.1744517
000020 a7 68 7a be a6 72 99 3d c6 2f 60 3f 1b dd 10 3d
       -0.24453984 0.074925706 0.87572896 0.035367113
000030 19 1b 93 3e e3 cc b5 bb 98 da ce 3d 72 60 16 3f
       0.2873161 -0.005548106 0.10100287 0.58740914
000040 5e 18 32 bd 3d d6 65 3e 8c 93 9e bf 5c 4b b7 3f
       -0.04348027 0.22445007 -1.2388778 1.4319873
000050 40 f4 58 bf 6c 90 82 3e c7 bf 49 3e 2a 51 13 3e
       -0.84747696 0.2550081 0.19702064 0.1438643
000060 1f cf 3e 3f ec a2 43 3e 18 32 61 bf 22 2d 0b 3f
       0.7453479 0.19105119 -0.8796706 0.5436574
000070 0f bc 57 bc af 14 42 3e a2 88 7a bf 72 9a 7e bf
       -0.013167395 0.18953203 -0.97864735 -0.99454415
000080 e1 33 25 3d a5 d9 e8 3e 2c 29 0a bd a3 41 97 bf
       0.04033268 0.4547855 -0.03373067 -1.1816906
000090 50 7a 46 3e 53 9f cd 3e 11 f4 85 3e 7f 02 4e bf
       0.19382596 0.40160617 0.2616277 -0.8047256
0000a0 d3 e4 1b 3c 00 c4 3e bf a6 a4 e1 3d 65 6d 56 bd
       0.009515005 -0.7451782 0.11017732 -0.05235042
0000b0 cc bd 0c 3f c9 d5 06 3e 63 4a 3c bf 12 04 69 bf
       0.5497711 0.1316749 -0.73551005 -0.91021836
0000c0 76 70 cc 3d 1e 34 a9 be 6b 78 f9 3e 74 ff a1 3e
       0.09982388 -0.33047575 0.48724684 0.31640208
0000d0 56 77 e3 3e 6c 0e c9 3d d1 6e 74 3e 67 e2 be bf
       0.44426984 0.09817204 0.23870398 -1.4912843
0000e0 27 2f 18 bf 60 da 7f be 39 ad c4 be 4f 67 80 3e
       -0.5944695 -0.24985647 -0.38413408 0.25078818
0000f0 aa f9 27 bf 82 5c d5 3d 92 a4 00 3d 81 b8 63 bf
       -0.6561533 0.10418035 0.031406946 -0.88953406
000100 00 be c4 b9 25 01 98 bb e8 91 85 bd 52 2c 12 3c
       -0.00037525594 -0.0046388083 -0.0652197 0.0089217
000110 70 ad fc bd c5 63 a5 bd 96 f9 f7 3d b4 4e 6e 3c
       -0.12337768 -0.0807567 0.121081516 0.0145451315
000120 de ab 3e bd 12 1f de bd 84 4b a0 bd ff 0e 91 3c
       -0.046550624 -0.1084577 -0.078269035 0.017707346
000130 be 47 42 3d b3 eb ba 3d 99 85 c1 bd 13 d0 4b 3d
       0.0474317 0.09126987 -0.0944931 0.049758982
000140 0e 92 09 be e8 01 a9 3c 18 2c c9 bd 41 42 cc bd
       -0.13434622 0.020630792 -0.09822863 -0.099735744
000150 62 88 92 bd c0 85 db bc cc 34 89 3d 91 95 6b bd
       -0.07154919 -0.026797175 0.06699523 -0.057515685
000160 52 ce fc bc c0 1a 7f bd 5c 47 53 bd b2 5b be 3d
       -0.0308601 -0.06228137 -0.051581725 0.09294833
000170 cc d9 20 3d de f4 66 bd 1a 60 bc bd 44 a8 fe 3d
       0.039270207 -0.056385867 -0.091980174 0.12434438
000180 d7 f8 c8 bd 96 30 cf 3d 48 0c 9d bd 00 26 b3 b9
       -0.098130874 0.10116689 -0.07668358 -0.00034169853
000190 71 69 89 bd 48 30 4d bd 54 b5 f3 bd f8 ef 91 3c
       -0.067095645 -0.050094873 -0.1189982 0.017814621
0001a0 08 d9 90 3c 10 0b e5 3d 80 28 c4 bc d6 d5 81 bd
       0.017681614 0.11183751 -0.023945093 -0.06339614
0001b0 1c 12 7d bd 8e bd b1 bd 78 f2 44 3d 58 00 e2 3d
       -0.06178485 -0.08678733 0.0480828 0.11035222
0001c0 4e ae d1 bd 00 c0 59 3a e5 75 01 be 77 3f 92 3d
       -0.10238324 0.00083065033 -0.1264263 0.07141011
0001d0 d0 56 d1 bc 69 5f f6 bd dc f9 23 3d ac 46 cc bd
       -0.02555409 -0.12029917 0.040033206 -0.09974417
0001e0 a1 24 a9 3d c5 10 77 3d 34 11 bf bd f4 b2 aa 3d
       0.082589395 0.060318727 -0.09329453 0.08334914
0001f0 18 64 98 bd 67 a4 8b bd 08 73 ae bd 8e 68 98 bd
       -0.07440966 -0.06818467 -0.08518034 -0.07441817
000200 50 91 90 bd b6 02 0b be 80 8e ce 3c 89 24 13 be
       -0.07058966 -0.13575253 0.025214434 -0.14369406
000210 bc 5f 5d 3d ce cf 91 bd 45 f1 9e 3d 21 2f ca bd
       0.054046378 -0.07119714 0.07760862 -0.098722704
000220 0f 4c c7 bd 14 57 92 bc 65 6c d9 bd e1 95 94 bd
       -0.09731304 -0.017863788 -0.10616378 -0.0725515
000230 66 51 ee bd 63 8d c5 3c 2f f6 d7 3c de 80 a3 3b
       -0.11636619 0.02411527 0.026362507 0.0049897274
000240 32 1e 73 3c 96 23 47 3d b2 d7 05 3d de e2 a5 3d
       0.014838742 0.04861792 0.032676406 0.08099912
000250 65 82 d2 bd 28 5a b3 bd 39 2d ff bd 40 3c 94 3d
       -0.10278777 -0.0875743 -0.124597974 0.07238054
000260 a2 84 df bd 7f 57 9d 3d 2f 0f cf 3b b7 e8 e6 bd
       -0.109139696 0.07682704 0.0063189487 -0.112748556
000270 e5 32 ea 3c af a1 4e bd 83 09 54 3d 55 f1 f5 bd
       0.028588722 -0.050447162 0.051766884 -0.12008921
000280 55 98 eb 3c a6 87 bd bc d2 6a c8 bd 76 2b 84 bc
       0.028759161 -0.023135971 -0.09785999 -0.016134005
000290 70 dc 2d bd fc 40 e5 bb b1 62 25 bc c4 0b 92 3d
       -0.042446554 -0.006996272 -0.010094331 0.0713115
0002a0 e2 c5 33 be 15 c6 42 bd 22 3c 37 be 9d d2 05 be
       -0.17555955 -0.047552187 -0.17894033 -0.13068624
0002b0 81 76 ab bd 85 84 fd 3b 72 5a 3a be 43 18 8f bd
       -0.08372212 0.007736745 -0.18198565 -0.069870494
0002c0 ea 2a 30 bc da 46 a2 bd d4 b9 5b be c1 0c 35 3d
       -0.010752419 -0.0792367 -0.21457607 0.044201616
0002d0 5a 2a 2c 3d 1c 5f dd bd 02 b3 d5 bd 94 26 15 be
       0.042032577 -0.10809156 -0.10434534 -0.14565498
0002e0 88 bb 1e be d6 d9 e1 bd 81 1c d9 3b 40 2c 2d be
       -0.15501225 -0.11027877 0.0066257124 -0.16911411
0002f0 52 c0 33 be e6 98 6a 3d 21 0f c5 bc 1b 84 23 be
       -0.17553833 0.05727472 -0.024055066 -0.15968363
000300 c0 5a 8e 3c af a6 3a bd bc df d7 3d 7e e3 aa bc
       0.017377257 -0.045569118 0.10540721 -0.02086043
000310 f4 e8 f3 bd 1e 1f 23 be 46 d4 b6 3c 31 72 19 bc
       -0.11909667 -0.15929839 0.022318017 -0.009365604
000320 81 3c 0c be 88 92 eb bd a8 80 ae bc a1 97 16 3d
       -0.13694955 -0.11502558 -0.021301582 0.0367657
000330 1c 93 e0 bd cf 39 fa bd f4 53 c6 bd d6 ee d1 bd
       -0.10965559 -0.12218057 -0.096839815 -0.102506325
000340 09 01 87 bd e2 cf f0 bd fe 95 91 bd cc 7e 6d bd
       -0.06591994 -0.117584005 -0.07108687 -0.05798225
000350 e4 fe 8d bd 61 3c e8 bd c2 11 9b 3d c4 b3 81 3d
       -0.06933382 -0.11339641 0.075717464 0.06333116
000360 25 5a 03 be 69 dd d5 3b 0d e1 96 3b 39 cc d6 bc
       -0.12827356 0.0065266383 0.004604465 -0.026220428
000370 ce be 95 bd db fd 1a be a4 cf fa bd 18 a7 06 3d
       -0.07311784 -0.151359 -0.122466356 0.032874197
000380 48 06 f5 bd 00 a4 c9 bd de 10 e2 3b 01 5f e6 bd
       -0.11964089 -0.09845734 0.0068989834 -0.11248589
000390 91 a7 0f be c1 e9 9b 3d 02 9b ea bd 18 f1 90 bd
       -0.14028765 0.076129444 -0.11455347 -0.07077235
0003a0 d4 5d ef bc e2 6a 02 bc 2e 4b a2 bd 92 a5 30 be
       -0.029219545 -0.007960053 -0.07924496 -0.1725066
0003b0 dc 52 02 3d 63 dd bc bd 90 98 10 be ee f1 86 bd
       0.031817302 -0.09221914 -0.14120698 -0.06589113
0003c0 17 78 60 3d bf 2f 65 bc b3 30 10 be 28 b8 e9 bc
       0.054802027 -0.013988434 -0.14081077 -0.028530195
0003d0 99 98 41 3d 1a db c3 bd c0 aa f2 3b 54 f8 8d bd
       0.04726467 -0.09563275 0.007405609 -0.069321305
0003e0 3b 1d c1 3c bb 02 81 bd 64 b3 b5 bc de 7c 8a 3d
       0.023573508 -0.06299349 -0.022180267 0.06762098
0003f0 0f a9 52 3d 92 92 7d 3d 99 33 19 3d eb 2c f6 bb
       0.051430758 0.06190736 0.037402723 -0.007512679

linear2.bias f4 [64]
000000 2a 66 91 3e 87 82 aa 3c fd cd a7 bd 1c e7 2b 3d
       0.28398257 0.020814193 -0.08193586 0.04196845
000010 1b fc aa 3e d5 87 1e 3e cf 35 c7 ba a6 49 a9 3e
       0.33395466 0.15481503 -0.0015198531 0.33064002
000020 57 5f 3c 3d f7 d4 ca bd 25 5b 2f 3e 5e 61 5c 3e
       0.04598936 -0.09903901 0.17124613 0.21521518
000030 b8 7a 9c bc b3 36 14 3e ec 29 39 3e e9 77 ce 3b
       -0.019101486 0.14473991 0.18082398 0.0063009155
000040 ef 9a 87 3d ee 10 81 3e 87 d9 1e 3e 43 51 59 3d
       0.06621348 0.2520823 0.15512668 0.053056013
000050 9a 93 c4 3d 0d e5 f5 3d 14 b0 9a 3d 12 46 5d 3d
       0.09598465 0.120065786 0.075531155 0.054021902
000060 13 90 8e 3e 3d d3 53 3e d2 36 81 bd 28 fd 0b 3e
       0.27844295 0.2068605 -0.06309284 0.1367079
000070 05 99 18 be 0a 9b 1a 3e 08 be cd bd af e0 72 3e
       -0.14902122 0.15098205 -0.10046011 0.23718522
000080 e0 b7 4e 3e bc 93 7d 3c dc d5 e2 3d 69 6b 1d be
       0.2018733 0.015477117 0.11075947 -0.15373005
000090 cb ec 0e bc aa d6 e4 be 34 6d e7 3d 9b 7e 86 3e
       -0.008723448 -0.44695026 0.11300126 0.26268467
0000a0 07 8a cc 3d 41 05 1a 3e 4b 63 47 be e9 6a 85 3e
       0.09987264 0.15041067 -0.19471471 0.26058128
0000b0 d6 2d 87 3e df a7 23 3e 9a ca 1f 3d dd 35 a1 bd
       0.26402158 0.15982006 0.039011575 -0.07871602
0000c0 99 a3 25 3e 29 54 97 3e 81 02 4f 3e 2b ac 15 3d
       0.16175689 0.29556397 0.20215799 0.036541145
0000d0 ff ad 93 bd 95 18 6c 3e 8f 57 6c 3e d5 5c a3 bd
       -0.072109215 0.23056252 0.23080276 -0.07976691
0000e0 a7 fd 03 3e e0 3d 6d bd e5 76 bf 3d 6c 8b df 3d
       0.1288973 -0.057920337 0.09348849 0.109152645
0000f0 a0 e1 9f be 2b 6e 72 3e ac bb 7d 3d dd 8d 1a be
       -0.31226826 0.23674838 0.061946556 -0.15093179

out.weight f4 [4, 64]
000000 64 39 9a 3f e0 c9 cf 3d f5 21 b2 3c da 98 04 bd
       1.2048764 0.101459265 0.021744708 -0.032372333
000010 20 e2 f6 3f 65 f9 90 3e fa 71 2b bf 11 0a 43 bf
       1.9287758 0.28315273 -0.6697079 -0.76187235
000020 1f 7b ab be 03 55 8f 3f 62 aa 24 bf 22 fe a8 3e
       -0.3349237 1.1197819 -0.64322484 0.33006388
000030 ba 88 53 bc 5d 04 71 bf 5e 06 60 3f 6a eb 9e 3d
       -0.012911016 -0.9414728 0.87509716 0.077597454
000040 2d 27 37 bf fb 40 11 bf 19 b0 74 3f 14 dc a2 3d
       -0.7154415 -0.5673978 0.95581204 0.07952133
000050 34 5c b0 be 21 1e 6a 3f fc 64 5c bf 49 41 22 be
       -0.34445345 0.91452223 -0.8609159 -0.15845217
000060 17 69 06 bf 93 f4 54 3f 41 24 b4 bf 33 c2 12 be
       -0.52504104 0.8318569 -1.4073564 -0.14331894
000070 04 80 1a 3d cc 67 a6 3f 54 a9 ba 3d 94 af 67 3f
       0.03771974 1.3000426 0.09114328 0.90502286
000080 38 0d 91 3f 7d db 61 bf 58 25 2c be aa a2 92 3d
       1.1332159 -0.8822554 -0.1681112 0.07159932
000090 29 71 0f bf e3 d1 b8 bf 0b 0f 5a 3f 28 f0 42 3f
       -0.56032044 -1.4439052 0.85179204 0.761477
0000a0 8f c5 69 bf 46 2d 03 bf da 8a de bf 02 36 4a 3f
       -0.91317075 -0.51240957 -1.7386124 0.7898866
0000b0 9e 98 3e 3f cc 23 73 3f c5 9e 0e 3f e0 a6 3b 3c
       0.74451625 0.94976497 0.55711013 0.01145336
0000c0 64 79 92 3f da 72 0e 3f e8 60 2a bf ac 9f 1f 3f
       1.1443295 0.55644 -0.6655412 0.62353015
0000d0 8b b8 d0 bf e3 37 7f 3f 0c 43 76 bd 64 aa ac 3d
       -1.6306318 0.9969465 -0.060122535 0.08430937
0000e0 1d 5a c6 bf d0 8b 7c bf db bb 59 bf ca aa ad 3f
       -1.549625 -0.98650837 -0.8505227 1.3567746
0000f0 0d 40 84 bf a9 e1 dc 3f 8c f7 6e bf b5 19 71 3d
       -1.0332047 1.7256366 -0.93346477 0.058862407
000100 76 53 a1 3f f1 db e2 bc 0f 17 c3 bd 6d c1 3c 3d
       1.2603595 -0.027692767 -0.095258825 0.046082903
000110 15 f5 fb 3f e5 58 01 3f 0a 43 4a bf 76 cb 1f bf
       1.9684168 0.5052627 -0.79008543 -0.6241983
000120 e8 1b 3a bd 12 ff 99 3f 7b e8 f2 be a5 95 d8 3e
       -0.04543677 1.2030966 -0.47442994 0.4230167
000130 76 fa cf 3d c4 f4 86 bf cc 36 8d 3f ee 1f 9d 3c
       0.101551935 -1.0543447 1.1032348 0.019180264
000140 7f 20 70 bf 2e 4b 34 bf b6 5f 70 3f e2 65 d5 3c
       -0.93799585 -0.70427215 0.93896043 0.026049558
000150 d9 b8 04 bf dc 61 64 3f 2d 91 26 bf 93 ff 85 3d
       -0.51844555 0.8921182 -0.6506527 0.065428875
000160 de fd f3 be 9e f1 5f 3f ed 28 c7 bf 04 c8 b8 be
       -0.47654623 0.87478054 -1.5559365 -0.360901
000170 f0 e7 7e 3c 65 24 6e 3f 6c af 11 bd 66 b4 66 3f
       0.015558228 0.93024284 -0.035567686 0.90119016
000180 77 de 99 3f c3 25 5b bf 96 bb 4e bf 6d ea a3 3c
       1.2021016 -0.85604495 -0.80754983 0.020009244
000190 72 d3 db be 47 d7 b3 bf cc 1a 36 3f de d7 48 3f
       -0.42934757 -1.4050072 0.7113464 0.7845439
0001a0 a4 d1 2b bf c7 96 10 bf f6 7c c9 bf 19 2e 22 3f
       -0.6711676 -0.5648007 -1.574126 0.6335159
0001b0 ff b8 41 3f 05 1d 88 3f 21 1b 14 3f c4 ef 54 bd
       0.75672907 1.0633856 0.57853895 -0.05198647
0001c0 f2 9a 74 3f ed 56 43 3f d7 6b 51 bf 47 8c 36 3f
       0.9554893 0.76304513 -0.81805176 0.71307796
0001d0 61 d8 ee bf 42 6f 63 3f e5 66 b0 3e 04 81 98 bb
       -1.8659784 0.8884164 0.34453502 -0.0046540517
0001e0 3c e2 cd bf 6d 6e 41 bf e0 2a 82 bf 44 5c c3 3f
       -1.6084666 -0.7555912 -1.0169334 1.5262532
0001f0 1c 66 93 bf 5e fe b8 3f 7c c1 89 bf e3 cd 3b 3d
       -1.1515536 1.4452627 -1.0762172 0.045850646
000200 92 10 8f 3f 81 36 e1 3c b7 bc 99 3c 12 94 e5 bd
       1.1176932 0.02749181 0.018766744 -0.11209883
000210 04 53 e4 3f 7b df 96 bf d5 9a 04 bf 7a d3 7a bf
       1.7837834 -1.1786951 -0.51798755 -0.9797894
000220 d3 6b 8e bf ec 7c 5d 3f b7 43 41 bf f8 2f ba 3e
       -1.1126655 0.8651874 -0.7549395 0.36364722
000230 b4 d8 30 bd 38 f9 2b bf 10 0b 8b 3f 88 0e 85 bd
       -0.043175414 -0.6717715 1.0862751 -0.06496912
000240 e1 e7 48 bf 71 c3 41 bf dd 0e 82 3f 0f 14 bc bc
       -0.7847882 -0.75688845 1.0160786 -0.022958783
000250 de 20 16 bf 53 c2 6b 3f 21 4e 6a bf 2d 05 2f 3e
       -0.586439 0.9209339 -0.91525465 0.17091818
000260 9d 89 35 bf ea 63 71 3f 5f 5b a1 bf 05 1e 1a 3f
       -0.70913106 0.9429308 -1.2606009 0.60202056
000270 64 7d 48 3c 64 e2 ad 3f f7 28 80 3c a4 04 54 3f
       0.012236927 1.3584714 0.015644534 0.8281958
000280 6f 7c 90 3f f7 14 44 bf df 80 8e be 56 97 fd bd
       1.1287974 -0.7659449 -0.27832696 -0.12382381
000290 0a 83 18 bf 8f ad b7 bf e1 fd eb 3e 6d 93 db 3e
       -0.5957495 -1.4349841 0.46092132 0.42885914
0002a0 2a 73 5b bf 14 60 13 bf b9 3b cc bf 9f cc 41 3f
       -0.857226 -0.5756848 -1.5955726 0.7570285
0002b0 15 bb 47 3f 44 d3 63 3f 34 d9 b1 3f af 40 15 3d
       0.7801984 0.8899424 1.389441 0.03643864
0002c0 fd c5 75 3f c5 83 3b 3f b1 33 9a 3b 25 d4 0d 3f
       0.9600523 0.7324794 0.004705869 0.5540183
0002d0 b3 1b d5 bf 9a ee a6 3f 25 32 38 bf 9a 05 87 3d
       -1.6649078 1.3041565 -0.71951514 0.06592865
0002e0 ac 89 b1 bf 02 8c 26 bf ca c3 fa be 45 80 bc 3f
       -1.3870139 -0.65057385 -0.489775 1.4726645
0002f0 c0 60 69 bf 1a 51 95 3f a9 39 25 bf f0 1a 92 3d
       -0.91163254 1.1665375 -0.6454111 0.07134044
000300 c5 96 7f 3f 15 0d 81 bd b9 af 97 bd 2a 9c b5 bc
       0.9983943 -0.06301323 -0.07406563 -0.022169191
000310 8e 3f 02 40 da 70 f0 3d 47 28 05 bf 49 d0 72 bf
       2.035129 0.11740275 -0.52014583 -0.9484907
000320 6e 0f 20 bf a7 77 96 3f c2 92 21 bf e6 5c a9 3e
       -0.62523544 1.1755265 -0.6311456 0.33078688
000330 c6 d7 00 bd a8 63 3d bf 70 80 53 3f f8 5a e4 3d
       -0.031455778 -0.7398019 0.82617855 0.111501634
000340 29 83 47 bf a6 11 e2 be 18 33 79 3f e1 49 96 3d
       -0.7793451 -0.4415409 0.9734359 0.0733831
000350 fe ec c1 be 79 25 48 3f 74 b8 70 bf 8e e0 91 be
       -0.37876123 0.7818218 -0.94031453 -0.28491634
000360 ad 0f 3e bf ad b0 2d 3f c8 cd 86 bf 38 16 81 3e
       -0.7424267 0.6784771 -1.053155 0.25212264
000370 20 7f d9 bc 85 c4 d6 3f 58 91 00 3d 02 3e 55 3f
       -0.026549876 1.6778723 0.03138861 0.8329774
000380 fa c6 9c 3f 83 b6 52 bf bf b7 07 3f 62 40 de bd
       1.2248223 -0.8230974 0.5301475 -0.10852124
000390 85 b9 1b bf e8 f0 d1 bf 27 05 8e 3f 53 a5 30 3f
       -0.60829955 -1.6401644 1.1095322 0.69002265
0003a0 8e 12 91 bf 41 51 e3 be 10 63 df bf 15 d9 4a 3f
       -1.1333787 -0.4439793 -1.7452106 0.7923749
0003b0 03 a8 3b 3f 2d 96 78 3f 32 8d e9 3e c0 cf c5 3b
       0.7330324 0.9710415 0.45615536 0.0060367286
0003c0 21 63 9a 3f 03 5c 91 3e d3 48 d4 be c8 56 44 3f
       1.2061502 0.28390512 -0.4146181 0.7669492
0003d0 7c 5c dd bf 96 54 7c 3f b7 be 13 bf 6c ce 1f 3d
       -1.7293849 0.9856657 -0.5771288 0.03901522
0003e0 a5 bd c5 bf d6 96 dc bf 71 c5 40 bf dc 85 9d 3f
       -1.54485 -1.7233531 -0.7530127 1.2306476
0003f0 e4 6a 41 bf 8d 2e f4 3f 6a c4 29 bf e6 48 ad bd
       -0.7555373 1.9076706 -0.6631533 -0.0846117

out.bias f4 [4]
000000 53 60 f0 3d 80 fb cb 3e c5 00 9b 3d bd 7b 00 be
       0.117371224 0.39840317 0.07568506 -0.12547202
