solved/DuelingDQN_best.pth (torch, 23359 bytes, 9 tensors)

linear.0.weight f4 [64, 8]
00000000: 183e 85be b50f 5a3e d9d2 99be 8172 643e
00000010: 0242 513f 62dd 873f 4e5c e23d 7746 b0bf
00000020: c021 eebe 96f8 bc3d f18b 57bf f1b9 cf3e
00000030: ea60 913f 73ab 7a3f 2172 973e 6050 393e
00000040: 63c2 06be c3b6 1e3e 3d2f 08bf b067 e03d
00000050: f292 003f 1c89 163f d66c 483f 2afe 10bf
00000060: cf5e 5b3d 3947 81bd df94 0fc0 cea2 3b3f
00000070: e549 13be f635 c4bd 1d11 663e da3f 59be
00000080: c2bf a23f 8a39 abbe 183d 9d3f 8764 9fbe
00000090: c74e 29bf fdce 57be 1544 593d 625e 29bf
000000a0: b8f5 01bf ec3c 033f a795 c0be d563 b3bf
000000b0: 89b5 3e3d 9731 b23d de75 b3bf 20e5 0cbe
000000c0: a604 77be 9933 c63e 3aa2 bdbf 7124 91be
000000d0: 04b8 483f a965 343e 5531 8c3d db0f 383d
000000e0: 0d49 b7be a54b 603e f469 fabe b846 873f
000000f0: 542f 843f af16 71be fefa eebe 9d1b c23e
00000100: 455f d6be e654 fb3d 30da 393f 0ab5 b03f
00000110: b6cd edbe ca68 9c3e a55a 93bf e4c0 1d3f
00000120: 9b75 bc3f e29b 9a3e a60a 843f 98c6 753e
00000130: 533e fbbd d610 3a3e 92b9 3d3e 0708 383e
00000140: 798c d73e ba5a 40bf 2938 ef3e d541 a8bf
00000150: 6e79 07bf d115 77bf a9b5 b6bf 8170 d43e
00000160: 05e3 4e3e f9fc ca3e f468 82be fdfb b6be
00000170: db94 8f3f 9aad 16bf 6210 893e 62ca ed3e
00000180: ae10 d83e 8a1b c7be d148 b53e 6fbb a7bf
00000190: 551e abbe a1e3 863e ec79 fa3d fb74 be3e
000001a0: 3039 cabe b126 77bc d511 76bd 28f8 d2bf
000001b0: 0278 bfbf 5069 0dbf 816d 8fbd 4e8b 93bd
000001c0: c321 8cbe 77a7 0c3f 3b4d f3bd d471 f6bf
000001d0: 5687 65bf 66b8 4dbf 449a 9dbe f269 38be
000001e0: 90dd b6bd 45fe 48bf 4e29 9e3f 24f1 85bf
000001f0: 1b1d 353f 6fbd 08c0 630a f93e efe7 9e3e
00000200: 4bee 93bf f315 a8be 4df5 82bf 5e97 9f3f
00000210: de13 6ebf 627f e3be 61a8 3f3d 1dcf 83bd
00000220: 78b6 9e3e 9f1c b3be ceda 4d3f 88e4 2e3f
00000230: 13c5 91bd 4c1b e13e b2ce 87bf 8906 e2be
00000240: ea28 e23e 84b7 083e 4b04 04bf 9da0 363f
00000250: 46da cb3e f7f2 3e3f 5816 7cbe 5179 e2be
00000260: e099 c43e e1af 27be adc1 303f 13cf eb3f
00000270: 9b53 18bf 43c7 8dbe 7d60 f53e 4f2c a03e
00000280: 63e3 163c 64fe e7bb bd04 e73f a428 fe3f
00000290: 0ff9 cd3b d2c0 b2bd 57bc 9b3d 428a a6bd
000002a0: 1312 75bf 65fa 12bf bd2d f2be 07f3 a8bf
000002b0: 3acf 583f 2e3c 133f f79a 78bd 011a 9e3e
000002c0: 6cd2 a3bf 6da2 afbe 0e6c 70bf de79 3dbe
000002d0: 9d46 0fbf 206b bebd 6e9d da3e f6ae d4bd
000002e0: 65d1 72be ca19 ba3e 3f84 183f e4e6 a0bf
000002f0: 6379 efbe 3384 123e 29b1 7b3d cb1f 98be
00000300: 6a54 84bc 81f7 e13a c28d 29bd 01f5 773c
00000310: c17f 0940 cdda 8d3c d42b 74be b727 8bbe
00000320: 6320 163f 7030 e13e e634 973e 23f5 6fbf
00000330: 4fc5 94be 9a98 163f 6c00 0b3e 2959 163e
00000340: 0d04 733d 0dda d93e 3634 bbbe 8d41 b23d
00000350: 2ce9 263f 3124 953f f06b e93e 3b8e a4bf
00000360: ae4c 7b3c 8c18 593e cc2e 073f 3034 dfbf
00000370: 0f87 e73d 9649 123f 1d74 9ebd a335 2dbf
00000380: 1baa 1f3e 711b 853e 6e99 d63e 3ba8 8bbf
00000390: 10b0 a63d afba f43e 1c36 9b3e 00b1 debe
000003a0: de4f dabe 46ce c43e 96eb 8dbe 8c91 a4bf
000003b0: ca40 70be 43aa 4f3e 3633 a8be 9acc 2f3e
000003c0: 3b8b dabd 6b8d c63e 562e 2a3f 94e2 6f3e
000003d0: 35b6 a5bf 48f4 afbf 7f68 023f 9b8f b9bd
000003e0: 9b17 be3e e873 3ebd 2e11 ef3e 2cb5 7e3f
000003f0: a252 82bf f579 9ebd a32f ef3e e42c 8b3e
-0.26023936 0.21295054 -0.30043676 0.22309305 0.81741345 1.0614436 0.11052762 -1.3771504
-0.46510124 0.092271015 -0.8419791 0.4057155 1.1357701 0.9791786 0.2957926 0.18097067
-0.1316009 0.15499406 -0.5319708 0.10957277 0.5022422 0.5880296 0.7829107 -0.56637824
0.053557213 -0.06312413 -2.2434614 0.73295295 -0.14383657 -0.09580605 0.22467466 -0.21215764
1.271477 -0.33442336 1.2284269 -0.31131384 -0.6613583 -0.21075054 0.053043444 -0.6615964
-0.5076556 0.51264834 -0.37614176 -1.4014841 0.046559844 0.08700865 -1.4020345 -0.13759279
-0.24122867 0.3871124 -1.4815133 -0.28348115 0.78405786 0.17616905 0.06845347 0.044936996
-0.3579792 0.21903856 -0.4890896 1.0568457 1.0326943 -0.2354381 -0.46675867 0.37911692
-0.4186956 0.122720525 0.7259855 1.3805249 -0.46446007 0.30548698 -1.1512038 0.6162245
1.472339 0.30197054 1.031575 0.24001539 -0.12267747 0.18170485 0.1852782 0.17971812
0.4209936 -0.7513844 0.46722534 -1.314509 -0.5291966 -0.96517664 -1.4274188 0.41492084
0.20203789 0.39646128 -0.25470698 -0.35739127 1.1217302 -0.58858645 0.26770312 0.46443468
0.42200226 -0.38888198 0.35407117 -1.3104075 -0.3342158 0.26345542 0.12230286 0.37198624
-0.39496756 -0.015084908 -0.0600756 -1.6481981 -1.4958498 -0.5523882 -0.07003308 -0.07204305
-0.27369508 0.5494303 -0.11879965 -1.9253488 -0.8965963 -0.80359495 -0.30781758 -0.18009165
-0.089289784 -0.78512985 1.2356355 -1.0464215 0.70747536 -2.136562 0.48640737 0.31036326
-1.1557096 -0.32829246 -1.023111 1.2468069 -0.92999065 -0.44433123 0.046791438 -0.06435988
0.30998588 -0.34982774 0.80411994 0.6831746 -0.07117667 0.43966138 -1.0609953 -0.4414561
0.4417184 0.13351256 -0.5156905 0.71338826 0.39814967 0.74589485 -0.24617898 -0.44233182
0.38398647 -0.16375686 0.69045526 1.8422569 -0.5950257 -0.27691087 0.47925177 0.31283805
0.009209487 -0.0070798863 1.8048321 1.9856153 0.0062857936 -0.08728184 0.07604282 -0.08131839
-0.95730704 -0.5741332 -0.4730052 -1.3199166 0.846912 0.575137 -0.06069466 0.30879214
-1.2798591 -0.3430361 -0.9391488 -0.1850352 -0.5596712 -0.09297776 0.42698234 -0.10384934
-0.2371269 0.363478 0.5957679 -1.2570462 -0.46772298 0.14308242 0.06144825 -0.29711756
-0.016153533 0.00172399 -0.041394956 0.015134097 2.1484225 0.017316246 -0.23844844 -0.27178738
0.5864317 0.43982267 0.29532546 -0.93733424 -0.29056785 0.588266 0.1357438 0.1468245
0.059330035 0.42549172 -0.3656327 0.08703909 0.6519954 1.165167 0.45590162 -1.2855905
0.015338106 0.2120077 0.5280578 -1.7437801 0.11305057 0.57143533 -0.077369906 -0.6765997
0.15592234 0.259975 0.41913933 -1.0910715 0.0813905 0.47798678 0.3031472 -0.43494415
-0.4263906 0.38438624 -0.277188 -1.2856917 -0.23462215 0.20279793 -0.3285157 0.17167893
-0.10671087 0.38779768 0.66476953 0.23426276 -1.294623 -1.3746424 0.509407 -0.09060594
0.37127385 -0.046497256 0.46692795 0.99495196 -1.0181468 -0.07738105 0.4671603 0.27182686

linear.0.bias f4 [64]
00000000: 8fe8 283e 0d2b 0b3f 891d 8e3e e5bc 18bc
00000010: 57a2 24bd 91c3 a63e 5ec5 0b3f 38fd 163f
00000020: 2a10 9e3e 9395 a2bd 2d06 09bf 2d44 18bd
00000030: 55d9 a43e b0c7 153f 7b2f da3e 0a97 d1be
00000040: acf2 8f3d 88b3 863e c631 ae3e e54e a6be
00000050: f9a4 103c 756d 95be 2f59 8f3d 7d57 de3e
00000060: c5da 3c3c 26e6 163f 912e d8be af54 3b3f
00000070: 2b97 ed3e 6696 0b3f a77a c03e 90d8 dcbe
00000080: 328a 6b3e 1878 b13e 5025 2cbe 75c6 363b
00000090: 3539 083f ead8 233f 356e bd3b ccc3 6abd
000000a0: bcd0 893e 56d2 b33d e7fd 6abd 5da0 af3e
000000b0: c737 28bf f5a3 393e b798 c13e 2613 74be
000000c0: f49c 713e ae8c 9abe 650d 823e f191 ab3e
000000d0: 4c77 783d a273 6ebc 5d3a 033f aa0e 6cbc
000000e0: 89e7 773e 6311 a83e 4d87 b5bc 17f3 e93e
000000f0: d09f cebe 0f31 123f 060a 1fbe e9e8 b13d
0.16494964 0.54362565 0.2775691 -0.00932238 -0.04019388 0.3257108 0.54598033 0.5898013
0.30871707 -0.07938685 -0.5352505 -0.037174392 0.3219706 0.58507824 0.4261435 -0.40935546
0.07028708 0.26308846 0.3402235 -0.32482067 0.008828395 -0.29185072 0.06999432 0.43426123
0.011526768 0.5894493 -0.42223027 0.7317609 0.46404395 0.54526365 0.37593576 -0.43133974
0.23001936 0.34661937 -0.16811109 0.0027889286 0.5321229 0.6400286 0.00578096 -0.057315633
0.26917064 0.08780353 -0.057371046 0.34302035 -0.6571011 0.18128951 0.37811825 -0.2383543
0.23595029 -0.30185455 0.25400844 0.33509782 0.060660645 -0.014553936 0.5126093 -0.014407793
0.24209417 0.32825765 -0.022159243 0.45693275 -0.40356302 0.5710611 -0.15531167 0.08687002

advantage.0.weight f4 [32, 64]
00000000: 2d93 c3be 1b7a 323f 31aa 483e 3300 4b3f
00000010: ed1e 05bf e463 303d 72e8 e53e 5662 8e3e
00000020: 0d21 6cbf 9911 83be 7a1a 1bbf 8566 1d3f
00000030: a417 913e a0ae c7bd 690a 283d 5359 c0be
00000040: 6ea5 f23e 46b2 05bf 45ef f33d 99a5 093f
00000050: 8217 0bbf ff1f cc3c 3e86 64be 4dec 97be
00000060: 49a1 bebe fb5d 38bd 2bbb eb3e 92ba b23d
00000070: bd6c dfbe 076c 203e 1c0a b9be 6cda e33e
00000080: da29 0c3f 5a1a 4c3d cc05 b4bc 659b 67bf
00000090: ff41 edbe 178b 883c 64ae b8be 2680 20bf
000000a0: b65d 423f 5bb1 3e3f caaa 3abd 4105 1a3d
000000b0: 30ca 873e ee1a 8c3e eaff f0bd 2f53 acbf
000000c0: 5614 9b3d dc5b 183e b776 79bd 9add 25bf
000000d0: 0d54 f6be 1467 ec3e 52fa 7abe 3c08 abbc
000000e0: 22ff 89bd 099c 5a3e 0b62 c33e 8f09 dfbe
000000f0: bd5a d93e 6af0 a2bd 012f 3cbd 4b5f c33d
00000100: 89f5 b8bc ca3d 74bc 743c b3bd 822f 95ba
00000110: 70ad fcbd 1126 e9bd 9b3f ca3d ce41 bb3b
00000120: b02e 06bd 22d0 cabd a2e5 81bd 9be3 43bb
00000130: 53ff 0f3d 307c 9b3d 5a89 d8bd 81ff 273d
00000140: 5097 12be 70c6 0c3d 755a f6bd 1604 aebd
00000150: 6288 92bd 1721 49bd 50c7 363d 5610 8abd
00000160: f08b 94bc 4364 91bd 5c47 53bd 68a1 aa3d
00000170: 6b85 fc3c 94c5 8dbd 1a60 bcbd 44a8 fe3d
00000180: fd94 dcbd 0090 8a3d e7a6 c9bd 0026 b3b9
00000190: 82c0 9abd 24aa 15bd 83d6 00be f8ef 913c
000001a0: 06b9 69bb b14d d23d b5b4 3cbd 817a 97bd
000001b0: 1c12 7dbd 6de1 ecbd fbeb 233d 6c58 b43d
000001c0: 5467 ffbd 44ca afbc 8ff7 0cbe 883d 823d
000001d0: 0810 0cbd 50f8 f8bd dcf9 233d ac46 ccbd
000001e0: c85f c43d 4655 623d bdaf d0bd b950 973d
000001f0: 73f0 c5bd d5a0 9ebd abdc bfbd 0c2c c6bd
00000200: 4065 79bf 411f 23bf fdeb bfbe 0f88 503f
00000210: 7df2 253f 10ed 483e ace2 e93e c9be 0abf
00000220: 26f2 e9bf b2ed 7ebe 5180 f2bf 3092 e63d
00000230: a450 873e 40b9 753e 9e33 f63d f003 a9bf
00000240: 61b5 703f 1e98 023e 52b3 2abe e3c8 3bbf
00000250: 22b7 02c0 5c0c 8dbf 9fa1 93be 1ae7 093e
00000260: 81ca ac3f f075 593e ef78 9cbe 2795 6e3e
00000270: 627e 463e 14ff 463e 8e2c 9ebf 24bc 2ebe
00000280: 04d2 043f 65aa 4f3f 7b87 5ebd 2048 f8bd
00000290: 6c26 ddbc 429a 203e 0924 493e eaca 333f
000002a0: 2654 b63e 8a64 44bd 0309 a63e 6213 553e
000002b0: 6a55 08c0 2a49 f63e c00b 3abe 8f71 0c3e
000002c0: db14 cb3e 8369 2dbd d01f 92bf 5538 f43e
000002d0: 718b 5f3e 2d60 6ebd 530e 953e 9be2 773d
000002e0: c747 a0bf 986f 883d cfbc 423f 97df 13bd
000002f0: a3b9 1ebe fd90 363e 0a0a 193f abc6 51bf
00000300: 0b21 46be ee3a 293e 48cc ed3e c459 a53e
00000310: 0cc4 8a3f 04bf 37bf 7c66 75bf 059f ffbf
00000320: 2509 9cbf af43 48bf 0c50 96be 784b 2ebf
00000330: bfef ec3e b496 6ebe 9386 9cbf 7e80 58c0
00000340: c2fb 95bf e699 7fbe 66e4 383e cd92 5c3f
00000350: 15ca e9be d922 c5bf f2d5 d9be af45 193e
00000360: 8156 613f c606 d03e d2b3 83be fc13 b13e
00000370: 3d47 ae3e e6c1 0abf 0ada ddbf 0e1f ac3f
00000380: 7239 d1bc edcb d5be 1869 67bf c23d 013f
00000390: bd4f 293e 4dfc cf3d 70e5 013e a2f8 25bf
000003a0: 27f0 6e3f 00ff 5ebf bc40 9bbd d538 25bf
000003b0: 5be3 dbbe 784d fcbe 1f56 1b3f 8b65 1ebf
000003c0: dfa6 fdbd 7be3 a8bf 792a 3cc0 154b 923f
000003d0: d205 ef3e ccba 9dbf 8f05 c0be 0d9b 88be
000003e0: 997e 08c0 cc28 993e 4c04 033e f180 02c0
000003f0: 6351 913d 6bb4 e63d 0a47 1dbf 5c72 333f
-0.38198224 0.6971757 0.19596173 0.7929718 -0.52000314 0.043064013 0.44903904 0.278094
-0.9223793 -0.25599363 -0.60587275 0.6148456 0.2833835 -0.09750104 0.041025553 -0.3756815
0.47391838 -0.5222515 0.119108714 0.53768307 -0.54332745 0.0249176 -0.22316834 -0.2967247
-0.37232426 -0.0450115 0.46041235 0.08726992 -0.43637648 0.15666209 -0.36140525 0.4450258
0.5475136 0.04982982 -0.02197542 -0.9047149 -0.46339414 0.016667886 -0.3607055 -0.6269554
0.7592424 0.7448937 -0.045573033 0.037602667 0.26521444 0.27364296 -0.11767562 -1.3462886
0.07572238 0.14878792 -0.06090423 -0.6479126 -0.48111 0.46172392 -0.24509552 -0.02087795
-0.06738116 0.21348585 0.38160738 -0.4356198 0.4245204 -0.079560116 -0.045943264 0.0953966
-0.022578018 -0.01490731 -0.08751765 -0.0011381956 -0.12337768 -0.11384214 0.09875413 0.0057146316
-0.03275937 -0.099029794 -0.06342627 -0.0029890302 0.035155606 0.07592046 -0.10573073 0.041015152
-0.14315534 0.034368932 -0.12028972 -0.08496873 -0.07154919 -0.049103823 0.044623673 -0.06741397
-0.018133134 -0.070992015 -0.051581725 0.08331567 0.030825337 -0.06922451 -0.091980174 0.12434438
-0.10770605 0.06765747 -0.09846287 -0.00034169853 -0.07556249 -0.036539212 -0.1258183 0.017814621
-0.003566326 0.10268725 -0.046070773 -0.07396413 -0.06178485 -0.11566434 0.04001997 0.08805928
-0.1247088 -0.021458752 -0.13766311 0.063593924 -0.034194976 -0.12156737 0.040033206 -0.09974417
0.09588581 0.055257104 -0.101897694 0.073884435 -0.09665003 -0.0774552 -0.09368261 -0.0967637
-0.9742012 -0.63719565 -0.37484732 0.8145761 0.6482313 0.19621682 0.4568075 -0.54197365
-1.8277023 -0.24895361 -1.8945409 0.11258352 0.2642871 0.23996449 0.12021564 -1.3204327
0.9402676 0.1275334 -0.16669968 -0.73353404 -2.0424275 -1.1019397 -0.28834245 0.13467064
1.3499299 0.21236396 -0.30561015 0.23299085 0.19384149 0.19433242 -1.2357347 -0.17063957
0.5188296 0.81119376 -0.054328423 -0.12123132 -0.02699586 0.15683845 0.19642653 0.702315
0.35611075 -0.047947444 0.3242875 0.20808175 -2.1302133 0.48102695 -0.18168545 0.13715194
0.3966435 -0.042336952 -1.1415958 0.47699228 0.21830536 -0.05819719 0.2911249 0.060518842
-1.2521905 0.0666191 0.7606935 -0.036101904 -0.15500502 0.17828746 0.59780943 -0.8194377
-0.19348542 0.16526386 0.46444917 0.32295048 1.0841079 -0.7177584 -0.95859504 -1.9970404
-1.2190291 -0.78228277 -0.29357946 -0.68083906 0.46276662 -0.23299676 -1.2228569 -3.3828425
-1.1717455 -0.24961051 0.18055877 0.861615 -0.4566199 -1.540126 -0.4254604 0.14967988
0.8802262 0.40630168 -0.2572313 0.3458556 0.34038725 -0.54202116 -1.7332165 1.3446977
-0.025540087 -0.41757146 -0.90394735 0.5048486 0.16534324 0.101555444 0.1268518 -0.6483251
0.93335193 -0.8710785 -0.075807065 -0.64539844 -0.42946896 -0.49277854 0.60678285 -0.6187369
-0.12385344 -1.3194422 -2.9400923 1.1429163 0.46684128 -1.2322631 -0.3750424 -0.26680794
-2.132727 0.29913938 0.12794608 -2.03912 0.070956014 0.11264881 -0.6143652 0.70096374

advantage.0.bias f4 [32]
00000000: 09c4 653e 4acf 05be a33c 243e 327f 963d
00000010: 4e1f a33d 40b1 293f fdb0 a03e 7caa 823e
00000020: c192 d8bd 360e 24bf 5093 d13d 71aa 363e
00000030: c28d b63e 0351 b33e 4922 febd a6bc c039
00000040: 44ce 323d da28 d33c b648 6b3e 652e bbbb
00000050: a617 a7bd 4dfe 2abe a032 50be 3854 f33e
00000060: 850b 273e 2359 343e 49d6 703e 09d0 313d
00000070: 2a12 e7bd f76e 313e d8f0 e6bd 0d46 41bd
0.22438063 -0.13067356 0.16038756 0.07348479 0.07964955 0.6628609 0.3138503 0.25520694
-0.10574866 -0.64084184 0.10233176 0.17838456 0.35655028 0.35022745 -0.12408883 0.00036761648
0.04365374 0.025776315 0.22976956 -0.005712318 -0.081588075 -0.1669857 -0.20331812 0.4752519
0.16312988 0.17612128 0.23519243 0.04341129 -0.112827614 0.17327486 -0.11276406 -0.047185946

advantage.2.weight f4 [4, 32]
00000000: b26b 8c3e f09d 2cbc 11d6 813f 2e43 943f
00000010: dcad 52bf ab0a 95bf 4f8b 41bf 8f11 883f
00000020: 9d38 02bd 1247 b7bf 1e4c 51bf 019b 5fbf
00000030: 620b 16bf 64c1 1abe f650 06be 3fba 1fbe
00000040: 4e6a 19bf fc77 f5bd 9bc9 443f 9b87 52bf
00000050: 531f 8a3d 4c05 743e 0a5c 16bf e06c 60bf
00000060: 5c3d bd3e cf6a 893e 9e29 883f fbd5 cf3f
00000070: ea2a de3f 7018 773f d1e1 0f3e 5f22 593c
00000080: 0747 0dbe 1000 243d e20c 833f 1611 b43f
00000090: 77a5 34bf 8730 99bf 7651 44bf 165d 7a3f
000000a0: c5fa 42be 0fda a0bf 0e15 5fbf 05dd 31bf
000000b0: 996c 94bf bb40 73bf 442e 9cbd fd95 973d
000000c0: a12a f9be 2cfb cc3d 3526 903f c3f2 5ebf
000000d0: f568 d93b 1c5c 84be ea97 00bf 761d 27bf
000000e0: 688f 593e 41a8 183f c088 c03f 13c5 c63f
000000f0: 3ec7 a03e c4d0 893f f602 b83d cf98 e43c
00000100: 3bb1 61bf b2ae ba3d a140 7d3f 0b96 fe3f
00000110: fa31 05bf ce72 8fbf 5fee cfbe 62ad 603f
00000120: 1dcd 87bc 6fd7 d1bf b465 68bf 16d4 77bd
00000130: 9c48 a83e a11f a7be b23a 603d 0481 313d
00000140: 1909 54bf a1da 183e c148 9b3f a2c2 34bf
00000150: 0791 00bd 2078 2f3f c06c 91bf 06dd 8dbf
00000160: 2ee1 bcbf 0296 d4be 8ac3 e0be d04a ca3f
00000170: d35a 0ebf d0a2 863f 7304 f23d 66f9 e33b
00000180: ed54 dc3e 6b9d 553d f0dd 823f c30b a33f
00000190: 395d 15bf ce5c 86bf 13da 79bf 0e21 8a3f
000001a0: 576a b63d 5bae babf 9bf6 43bf 769f 62bf
000001b0: 58dd cabe ada9 843e 9131 f33c e13a b53d
000001c0: ef87 36bf 76a5 933d 5341 0c3f f0b5 34bf
000001d0: d6f3 d5bd d027 703f 4328 26bf 7944 83bf
000001e0: f31c a23e ae37 95be 51c8 653f 44bf cb3f
000001f0: 5343 6c3f b7ce 683f 0248 7f3c 51cd a53c
0.27425915 -0.010535702 1.0143453 1.1583002 -0.8229654 -1.1643881 -0.75603193 1.0630358
-0.031792272 -1.4318564 -0.8175677 -0.8734589 -0.5861112 -0.15112835 -0.13116822 -0.15598391
-0.59927833 -0.11985776 0.76870126 -0.8223817 0.06744256 0.23830146 -0.5873419 -0.8766613
0.36960876 0.268393 1.06377 1.6237177 1.7356846 0.96521664 0.14050986 0.013252824
-0.13796626 0.040039122 1.0238307 1.4067714 -0.7056498 -1.1967934 -0.766868 0.9779829
-0.19040973 -1.2566546 -0.871415 -0.69477874 -1.1595641 -0.95020646 -0.07626012 0.07401655
-0.48665336 0.10008845 1.126166 -0.87089175 0.0066348263 -0.25851524 -0.502318 -0.6527933
0.21246111 0.59631735 1.5041733 1.5528892 0.3140201 1.0766835 0.0898494 0.027904896
-0.8816106 0.09115352 0.9892674 1.988954 -0.52029383 -1.1206911 -0.4061155 0.8776456
-0.016577298 -1.639387 -0.90780187 -0.060504995 0.32867897 -0.32641318 0.054743476 0.04333593
-0.8282638 0.1492715 1.2131578 -0.70609486 -0.03138831 0.6854267 -1.1361313 -1.1083076
-1.4756219 -0.41520697 -0.43899184 1.5804081 -0.55607337 1.0518436 0.11817255 0.006957221
0.43033543 0.05215208 1.022398 1.2737964 -0.5834537 -1.0497072 -0.9759838 1.0791337
0.089070015 -1.4584459 -0.76548165 -0.8852457 -0.39621997 0.25910702 0.029686721 0.08849121
-0.7130117 0.072092935 0.54787177 -0.70590115 -0.10446899 0.9381075 -0.64905185 -1.0255271
0.31662712 -0.29144043 0.89758784 1.5917745 0.9229023 0.9094042 0.015581133 0.020239504

advantage.2.bias f4 [4]
00000000: 6950 413d 96fa 3bbe c2ce c43d 8ebd b5bd
0.047195826 -0.1835731 0.096097484 -0.08874045

value.0.weight f4 [32, 64]
00000000: 7336 a33f 69c6 df3e 26d5 2b3e be35 0cbf
00000010: 3769 0140 6227 3cbe 27fb ae3d 0138 4cbf
00000020: 9657 21c0 65fb 96be 9cd1 1040 2094 b83d
00000030: aaa7 543e 9f18 3fba 9cc7 5cbe 770f 143f
00000040: 21c1 563f 3287 b3be 2999 7abe 9756 103f
00000050: 9a3a cabf 3cdc eb3f 35ef 333f da98 00be
00000060: 39b7 233e 7905 44bf bd3f b13f 8831 f3be
00000070: 8796 b2be 0af7 77bd 59fa 033f d332 333f
00000080: a9b5 193f bfe7 0b3e bad8 a9be f3c1 ab3f
00000090: 2315 18be d0e9 1abf 243e aa3f 77ff f3be
000000a0: f842 a4bd 14c8 fc3e b368 b9bf 5869 dcbe
000000b0: f34b 1540 dd4c a53d 59dc 8d3e 5b81 0f40
000000c0: d521 b83d e5f8 d33e 0ee3 a83d e0da 6fbd
000000d0: eb54 00be ec33 723e ad33 25bf 44ee fc39
000000e0: d93d 9d3d e25a 613f 78e1 823f 4be7 a03d
000000f0: e8f8 713f bd18 20be 0bc8 333e 0637 083f
00000100: 1b74 07bd b079 8c3e e566 a53e 70b8 6cbf
00000110: 2f10 a23f c04b 44be 2b0e 8dbd 7248 04bd
00000120: b200 6d3e 7dce 803e 370a 0040 7c17 31bd
00000130: 83da a43e 7561 af3d 7367 1ebc 629e bfbb
00000140: dc4a b5bd 9672 8bbd d412 87be 0ec3 023f
00000150: fa26 47bf 9411 793f 01d0 f13e 9058 133b
00000160: f9ee 08bf 2f2e c4bc 9149 b03e 6614 333d
00000170: aebc 3c39 a804 213d 912e 493e e1cc 063f
00000180: b6c7 263e a0b0 e13e e910 03bf 9c4c c1bf
00000190: f1af babd 5d12 afbc 70c1 a73e 8925 9e3c
000001a0: 65a0 03bf 4dbc 6bbe 1a81 d6bc a520 69bd
000001b0: c604 1c40 f36e bdbe 26fa c33e f291 1c3f
000001c0: c602 b5be fafb 3a3e 33dc e33e 8130 a5bd
000001d0: a707 89be 1194 0c3f 71dd 82bc c7ed 4dbe
000001e0: 86ae d83e 5de7 5a3f 26f4 25bf 5669 063f
000001f0: f459 a03e d120 00be 7953 c4be 6722 303f
00000200: e644 eb3e 4d9b c53e 52e4 c33e e22b 33bf
00000210: 96b0 8d3f f29c 2d3d 51bc 633c 6ceb b33d
00000220: 01ec 9a3d 34b7 263e c3b0 0340 e8fb ee3c
00000230: 720e 35bd 4d87 3b3e a1bb b83d 50e3 4a3e
00000240: 8427 97bd 6f8c dabc c88b 4c3e 08f5 1b3f
00000250: 6ce7 61bf 1110 123f 853f 0a3f 0cd9 dcbd
00000260: 6bdb 9abf 7047 ae3d 727b 393e feaf be3c
00000270: 3d38 10be dfa8 883d 2f0c d03d e0d2 003f
00000280: 6a0b 7bbd 12ca 933e ebd2 28be 829b e7be
00000290: dd5c 5cbd e3d6 92bc e5f4 b33e c036 0dbf
000002a0: 5bea ffbe 6f2f 76bc b539 1abe 28a2 42be
000002b0: 85bb 1240 4e50 90be e0fe c53e 10e4 233f
000002c0: f8f6 21be b0fa c83e e4a7 e83e 91d6 263c
000002d0: 866a 7dbe 2f73 fd3e 3d61 0bbe 0e25 5cbe
000002e0: b2ee fb3e 79cb 2e3f 9aa0 79bf 9e7d 053f
000002f0: 7cb9 013f f361 e4bd cb83 80be 4140 2f3f
00000300: 23cf 293f 71f3 61bd 8e72 093f 19c1 a8bf
00000310: eca0 1abf b3a7 54be 8c6b 62be 5722 cfbd
00000320: 329c 0b3e 4ce6 583f ea26 d3be 4def f83c
00000330: b6e2 7dbd bdf7 5dbe d162 b6be 3302 d63c
00000340: 8487 c9be 37b9 0b3f 0abc 723d a795 b23c
00000350: 2360 8f3e ede2 3e3f c70d 143f c0a5 9d3d
00000360: bd94 fdbe e4f5 6a3e 1562 873f e488 6e3e
00000370: 08dd 9b3e 62a1 17be 7026 ddbe 7f06 45be
00000380: 7c44 f03d 99e0 673d 2ebb 05bf 8899 f5bf
00000390: 2f29 a63e fbb2 943d 5801 2e3f 3eea 82c0
000003a0: ce62 91be f1f5 a23e a5d8 1e3f ddbc 0bbc
000003b0: 9fd6 3640 400f 3ebd 859b a23e 68de ecbe
000003c0: 4c4d fdbd 5dfc 423e 0b40 69be caac 18bf
000003d0: f26c 603e 8831 f6bf 56f9 4bbf 6c1e 32bf
000003e0: 132b f0be 8432 373f 2f04 f8be 2396 a6be
000003f0: 342f e63e a79a 643e b8b2 123e 52c7 5c3f
1.2750992 0.43706062 0.16780528 -0.54769504 2.0220468 -0.18374398 0.08543997 -0.79772955
-2.5209708 -0.29488674 2.2627935 0.090126276 0.20767084 -0.00072897406 -0.2156052 0.578361
0.8388844 -0.35064083 -0.24472488 0.56382126 -1.5799134 1.8426585 0.70286876 -0.12558308
0.15987863 -0.7657085 1.3847576 -0.47498727 -0.34880468 -0.06053833 0.51553875 0.69999427
0.60042816 0.13662623 -0.33173162 1.3418564 -0.14851813 -0.6051302 1.3300214 -0.47655842
-0.08020586 0.49371397 -1.4485077 -0.4304912 2.3327606 0.08071301 0.27707174 2.2422702
0.08990828 0.4140083 0.08246432 -0.058558345 -0.12532394 0.23652619 -0.64531976 0.00048242707
0.07677812 0.880293 1.0225058 0.07856616 0.94520426 -0.15634437 0.17556779 0.5320896
-0.03306971 0.2743659 0.32305065 -0.9246893 1.2661189 -0.19169521 -0.06887468 -0.03229565
0.23144796 0.25157538 2.0006235 -0.043235287 0.3219796 0.0856351 -0.009668219 -0.005847738
-0.08852169 -0.06808965 -0.26381552 0.5107888 -0.7779385 0.9729245 0.47229007 0.0022483207
-0.53489643 -0.023947803 0.34431127 0.043720625 0.00017999366 0.03931108 0.1964667 0.5265637
0.16287121 0.44080067 -0.5119768 -1.5101504 -0.091155894 -0.021371061 0.3276477 0.019305008
-0.5141662 -0.2302105 -0.026184607 -0.056915898 2.4377913 -0.3699871 0.38276786 0.61160195
-0.35353678 0.18260184 0.44503936 -0.08065892 -0.2676365 0.5491343 -0.015974732 -0.20110236
0.4232065 0.8550928 -0.64825666 0.5250448 0.3131863 -0.12512518 -0.38344935 0.68802494
0.45951003 0.38595048 0.38260132 -0.69988835 1.1069515 0.042386003 0.013899879 0.087851375
0.075645454 0.16280824 2.0576637 0.029172853 -0.04420323 0.18313332 0.090201624 0.19813275
-0.07380584 -0.026678292 0.19975197 0.60920763 -0.88243747 0.57055765 0.54003173 -0.10783586
-1.2098211 0.08509719 0.18113497 0.023277279 -0.14083953 0.066728346 0.10158574 0.5032177
-0.061290182 0.28865105 -0.16486709 -0.4523583 -0.0537995 -0.017924732 0.35147777 -0.55161667
-0.49983487 -0.0150259575 -0.15061076 -0.1900717 2.2926953 -0.28186268 0.38671017 0.6401987
-0.15816867 0.3925376 0.4544059 0.010182993 -0.24747667 0.4950194 -0.13611312 -0.2149851
0.49205548 0.68279225 -0.97510684 0.521448 0.5067365 -0.11151495 -0.2510055 0.6845742
0.6633169 -0.055163804 0.5369042 -1.3183929 -0.604018 -0.20767097 -0.22111338 -0.10113972
0.13633803 0.84726405 -0.41240627 0.030387545 -0.061983787 -0.21676536 -0.35622266 0.026124096
-0.39361203 0.5457949 0.05926136 0.021799875 0.28003034 0.7456501 0.5783352 0.0769763
-0.4952754 0.22945362 1.0576807 0.23294407 0.3044207 -0.14807656 -0.43193388 -0.1924076
0.11731812 0.056610677 -0.5223874 -1.9187479 0.32453296 0.072607 0.679708 -4.091094
-0.28395694 0.31828263 0.62049323 -0.008528915 2.8568494 -0.046401262 0.31759277 -0.46263433
-0.12368259 0.19041581 -0.22778337 -0.59638655 0.2191656 -1.9233866 -0.7967733 -0.6957767
-0.46907863 0.71561456 -0.48440692 -0.3253642 0.44957888 0.2232462 0.14325988 0.8624164

value.0.bias f4 [32]
00000000: 69b3 66be 9889 c63d 8380 d83d 8c9d cfbc
00000010: 2ea0 9cbd 3bc5 f0bd be0e 69bf 1dfe 86bd
00000020: e968 35bc 3694 403e 27cc debc b0f4 68bd
00000030: d5f3 243d 8b6a 0c3b d4b4 d3be a750 273d
00000040: 018b 5abd 052c bfbd 0654 e13d df98 d63d
00000050: 632d ebbd 39a3 a63e eb14 acbd 2c33 313f
00000060: c247 1c3e 32e9 93be c14e 8fbe 5975 ff3c
00000070: 96b9 1a3e 6f2c df3c ecc7 adbc f198 b4bd
-0.22529377 0.09694213 0.10571387 -0.025343679 -0.07647739 -0.11756369 -0.9103812 -0.06591437
-0.011072376 0.18806538 -0.027196957 -0.056873977 0.0402716 0.002142581 -0.41348898 0.0408484
-0.05335522 -0.09334568 0.11002354 0.104783766 -0.11483266 0.32546404 -0.08402427 0.6921871
0.15261748 -0.2888885 -0.27989772 0.031183885 0.15109858 0.027242867 -0.021213494 -0.08818234

value.2.weight f4 [1, 32]
00000000: 0bed 0ec0 1ecd 71bf 3677 3dbf abdd c1bf
00000010: 3189 a538 ec36 71bd 1174 62c0 9039 8bbb
00000020: 8b85 5cbf 1fd0 b93f c7c1 17bf 7c84 2cbf
00000030: 4870 25bf 42ef 87bf 959b cfbf f62d 19bf
00000040: 9a07 40bf 227a 493e b58a 23bf 07bd c83f
00000050: ac94 b7bd abb3 db3f 5d0f 1240 ccfd a23f
00000060: c298 cc3f 20c2 23c0 782a 9fbf c41f c43c
00000070: 3825 b43f da87 22bf a12e 94bf 864c bebf
-2.233218 -0.9445361 -0.74010026 -1.5145773 7.893367e-05 -0.05889027 -3.5383341 -0.0042488053
-0.8614127 1.4516639 -0.59280056 -0.67389655 -0.6462445 -1.0619891 -1.6219355 -0.59835756
-0.750116 0.19675496 -0.63883525 1.5682687 -0.08963904 1.7164205 2.2821877 1.2733703
1.5984118 -2.5587234 -1.2434835 0.023940928 1.4073858 -0.63488543 -1.157673 -1.4867103
