solved/Dueling_DQN_weights.pth (torch, 23359 bytes, 9 tensors)

linear.0.weight f4 [64, 8]
00000000: ce6d 54bd a99b 2bbc 8633 313f 0b09 b83d
00000010: 0dd8 8f3e cf72 7d3f 8077 4f3e 85ec d1bf
00000020: b5d5 d8be 05a7 2abd 45d5 b9be 80fc f53e
00000030: e10f 873f 7964 3e3f f2fe b33f 052e ee3e
00000040: d1d7 a6bd f9d2 573d eea0 82be 9afd 3c3e
00000050: 129c 3f3f 116e 663f 8c41 673f d26d 15bf
00000060: 32fc 06bf dd5a b73d 2913 57bf b0a7 303f
00000070: 37b9 4a3e bbb9 183f 6361 b03e 4eba 3ebf
00000080: 9691 a63f 6068 97be 948e 9d3f a45c ebbe
00000090: a19b 49bf 148a c7bd 7b95 60bd 5d02 0dbf
000000a0: d796 02bf 1909 1d3f 1443 adbe 68c1 9fbf
000000b0: 8fd1 87bf 257a 0c3e f55c e1be fb48 243e
000000c0: 08ae 653d ed10 6cbd 91d6 fdbf 2917 383f
000000d0: be41 abbe 49a3 943d f2f1 ac3e 1732 1d3f
000000e0: 8526 27bf 91f1 593e ebfb 19bf 6221 f63e
000000f0: 5dd6 293e f7b8 c83e 99a0 43be 2d5e 393e
00000100: cf25 353d ea5b 373c 4f91 8c3f 025d aa3f
00000110: 538a 77bf 1f7d 1cbe 28a5 253d fae5 5a3e
00000120: c428 a13f 44fb 853e fde1 703f bd2b 1e3f
00000130: 2f16 563e bd2d 553f 52af f5bd 9096 703e
00000140: 4c6f 38be e2ab 5cbf cf38 e63d 3fdb 90bf
00000150: 357b 223f 9748 49bf 226c 63bf 09fa 83bc
00000160: 6ea1 4fbe 36e7 58be ead0 cabf 35bf 6f3e
00000170: 0fcb 183f 24a9 06bf 520f 363f 519e ea3e
00000180: dc72 8a3e 762b 7dbf 0847 aa3f edf4 7bbf
00000190: edb7 c1bf f8e2 8ebf 7d1a ca3e 5f1f a23e
000001a0: 8cda f63d 4b72 81be 5c9c 6dbf 4761 e3bf
000001b0: b2d8 d9bf 8345 0b3d 31da e53d 6579 bd3c
000001c0: d9b9 e03e ffd9 243f abdc 9f3d 2336 b1bf
000001d0: 9640 16bf b8bf 19bd 8077 12c0 db28 a6bf
000001e0: 4a0d 81be 86bf f23c e224 ea3f 812c bbbf
000001f0: fe77 c73e f5dc bebe 8120 1dbd 0a8b fe3c
00000200: 11ba c2be 4b84 323e 6a06 91be a593 933f
00000210: 1a1f 853d bb0b 24be ce92 f8bd e0cc 0fbe
00000220: 9925 5d3e 3701 243e 7bbf 353f 5ad7 553f
00000230: d9cd a73e 9cac be3e 0148 47bf 0a34 8abe
00000240: 90d9 73be efab 2d3e f110 9abe d735 9a3e
00000250: aa5c 8d3f b247 7e3f 5a17 a53e 6106 e0bf
00000260: a74f 9d3e cd30 21bf 803b 23bd 3894 4140
00000270: db61 1abe aa42 15bf bc68 013f 9a26 ea3d
00000280: ea7b dcb9 58da 00bc 2597 bc3f 1b99 0440
00000290: b04f 95bd 53f9 823d 3f7b 47be 0f08 46bd
000002a0: 4d8f 30bf 05ec 073e 15e9 8a3d 3e5d 72bd
000002b0: 3dd7 8dbf 2ce7 79bd 79cc f2be 034d 003f
000002c0: 7a41 90bf f925 a5be 3201 8abf f51d 03bf
000002d0: 459a 303e dda8 8cbe 4853 4d3e d0ea 3abd
000002e0: d46f 86bd ba0a 6a3e 2ca7 613f bf57 a7bf
000002f0: ab11 d4bd 0607 373f 62bd 10bf 41fc 7a3d
00000300: 50ab 00bc 0529 c03c 36df 89bd 8691 763d
00000310: 244a 2e40 3438 04be faf3 b1bd ba76 033d
00000320: 61ee 3dbe 2880 cd3e 49d3 9a3e 9f94 5dbf
00000330: 8196 a6be 7469 9f3f c98e 7e3f f0fa 6bbe
00000340: a295 a5bd b040 cc3e be17 90be 0d64 273b
00000350: 0960 103f 0146 303f 14d3 1b3f a5b5 a5bf
00000360: 1c1b 03bf e3e3 d63b 40cb 203f 4310 04c0
00000370: a4ef 033f db75 143f f4e1 20bf 1baa ccbf
00000380: 23e6 44bf 7dfd 003e 6799 d33e 808b 7dbf
00000390: 4830 0f3c e174 443f 0fda 1d3f 5c99 5fbf
000003a0: 727c e4be 2ea7 073f fa81 debe 124e 89bf
000003b0: e96d 1dbf 7ecb 363f 4981 fa3d 6a78 7a3e
000003c0: 6ced 293e d7ed d73d 5325 233f af1e cbbb
000003d0: 66e6 08c0 ea64 fbbe 4dee 3e3f 0aca 00bb
000003e0: cac1 1b3e a9e8 43bf 8d5d 3c3e 1d78 2840
000003f0: 46cb 48bf 20fb e3be c19c d83e 05c6 babd
-0.05186253 -0.010474124 0.69219244 0.089861 0.2809452 0.9900331 0.2026043 -1.6400305
-0.42350546 -0.04166319 -0.36295524 0.48044205 1.0551721 0.7437206 1.4062178 0.46519485
-0.081466325 0.052691434 -0.25513405 0.18456116 0.7484752 0.900117 0.9033439 -0.583707
-0.5272857 0.08952878 -0.8401361 0.6900587 0.19797216 0.596584 0.344493 -0.7450303
1.3013179 -0.2957182 1.2309136 -0.45969117 -0.78753096 -0.09743133 -0.054830056 -0.5508173
-0.51011413 0.61342007 -0.3384024 -1.2480898 -1.0610827 0.1371847 -0.44016233 0.16043465
0.056074172 -0.05763333 -1.9831105 0.7191034 -0.33448595 0.07257707 0.3377834 0.61404556
-0.6529315 0.21283557 -0.6015002 0.48072344 0.1658568 0.39203617 -0.19104232 0.18102331
0.04422551 0.011191348 1.0981845 1.3309634 -0.9669544 -0.15282105 0.04044071 0.21376792
1.2590566 0.26168263 0.9409483 0.6178549 0.209069 0.83272916 -0.1199633 0.23494935
-0.18011206 -0.8619977 0.11241304 -1.1316909 0.6346925 -0.7862639 -0.8883687 -0.016110437
-0.20276424 -0.2118195 -1.5845006 0.23412783 0.5968484 -0.5260184 0.71117127 0.4582391
0.27040756 -0.9889444 1.3302927 -0.984206 -1.5134255 -1.1163015 0.39473334 0.3166456
0.12053403 -0.2528251 -0.9281671 -1.7764062 -1.7019255 0.03400184 0.11223257 0.023129174
0.4389179 0.64395136 0.07805761 -1.3844646 -0.586923 -0.037536353 -2.2885437 -1.2981218
-0.2520545 0.029632341 1.8292506 -1.4622957 0.38958734 -0.37277952 -0.038361076 0.031072158
-0.38032582 0.17433278 -0.28325206 1.1529433 0.06500073 -0.160201 -0.12137376 -0.14042997
0.21596374 0.16016088 0.709953 0.83531725 0.32774237 0.37241066 -0.77844244 -0.26992828
-0.23813462 0.16960119 -0.3009105 0.30119202 1.1043904 0.9932815 0.32244378 -1.7501947
0.30724832 -0.6296509 -0.039851665 3.0246716 -0.15076391 -0.58304846 0.50550437 0.11433144
-0.00042053993 -0.007864557 1.4733626 2.0718448 -0.0729059 0.06395211 -0.19480608 -0.04834753
-0.6896866 0.13273628 0.06782738 -0.059170954 -1.108131 -0.06101148 -0.47421625 0.5011751
-1.1269982 -0.32255533 -1.0781615 -0.51217586 0.17246349 -0.27472582 0.200513 -0.04563409
-0.06564298 0.22855654 0.8814571 -1.3073653 -0.103549324 0.7149509 -0.56538975 0.061275724
-0.007853344 0.02345706 -0.06732027 0.060197376 2.7232752 -0.12912065 -0.08689113 0.03209565
-0.18547966 0.40136838 0.30239323 -0.865549 -0.325367 1.2454057 0.9943662 -0.23044944
-0.08085181 0.39893103 -0.28143114 0.0025541813 0.5639654 0.6885682 0.60868955 -1.2946059
-0.5121324 0.006557928 0.62810135 -2.0634925 0.5153754 0.57992333 -0.6284478 -1.5989412
-0.7691366 0.12596698 0.41327974 -0.99040985 0.0087395385 0.76740843 0.61660856 -0.8734338
-0.44626194 0.5298947 -0.4345854 -1.072695 -0.61495835 0.71404254 0.122316904 0.24459997
0.16594476 0.10543411 0.6372883 -0.006198726 -2.1390624 -0.4910043 0.7458237 -0.0019651675
0.15210643 -0.76526886 0.18395062 2.6323311 -0.7843517 -0.4452753 0.42307094 -0.091198005

linear.0.bias f4 [64]
00000000: 70b6 4a3c 9d8c f73e 26a8 2d3e e6f3 193f
00000010: 6aad 903c b851 893e 7f42 ebba 7b22 ec3e
00000020: 745b 213d 86cd 8dbd 5ddd 64be 20b7 a33d
00000030: 37a5 8ebe 8bb2 fc3e 89f8 c93e 47ab be3e
00000040: 100b 683e f871 f13e 3cd2 0f3e 670c 9cbe
00000050: d210 b03a 7660 88be 821c 61ba bcb3 033f
00000060: ef83 63bb a951 f63e 00df b1be f1d4 013f
00000070: cf8b cf3e 52c4 f33e ed2a b03e fdeb b4be
00000080: cb2f e33e 3cd9 d23e dd7d a5bc a02c 5f3e
00000090: f27e c03e af41 1c3f cb06 8ebe 4d5b 42bb
000000a0: 2e7b 983e e23f 643e 1eaf 08be f123 b03e
000000b0: 332a 70be 1752 243d d4f2 cd3e a41a ba3e
000000c0: 0ab4 91b9 2b70 3abe 2c80 993e 56ed be3e
000000d0: c072 8b3e 3ab6 4e3e f88d 3b3e ee21 6abb
000000e0: fcba 213e fb4a bdbd 4f96 493e d42e c63e
000000f0: 9ce4 143e 9db7 123f 1a67 20be 6106 4b3e
0.012372598 0.48349467 0.16958675 0.60137784 0.017660815 0.2682016 -0.0017948895 0.46120057
0.039393857 -0.06923966 -0.22350068 0.07993913 -0.27860424 0.49354967 0.3944743 0.3724005
0.2266047 0.47157264 0.14045042 -0.30478212 0.0013432747 -0.26636094 -0.0008587317 0.5144613
-0.003471609 0.48109177 -0.34740448 0.5071555 0.40536353 0.47610718 0.3440775 -0.35336295
0.443724 0.41181362 -0.020201618 0.21794367 0.37596852 0.61037725 -0.27739558 -0.002965647
0.2978148 0.22289994 -0.13348052 0.3440242 -0.23453598 0.04011735 0.40224326 0.3634845
-0.00027790695 -0.18206851 0.299806 0.37290448 0.27235985 0.20186701 0.18315876 -0.003572579
0.15793985 -0.09242817 0.19686244 0.38707602 0.14540333 0.5731142 -0.1566433 0.19826652

advantage.0.weight f4 [32, 64]
00000000: e4e9 8d3e d99b f13e bb49 31bd 4682 4a3e
00000010: c8f7 b6be 7b0e 45bd 6307 47be 45a8 7e3e
00000020: 0814 683f f79d 173d b5ed a2bf 4efe 973e
00000030: 065c 6cbf 5164 0dbe 4325 363c 37ac 31be
00000040: a7f8 c73e 0b9b cb3e d83d 5cbd 61ef ca3f
00000050: 1f09 aebd c380 cbbe a7be 023d 8bd1 163d
00000060: 8f00 6cbf 1159 363e 5c88 b5be d340 af3e
00000070: 5a8d a6bd 9952 153e c4c5 07be 0e7a 2340
00000080: 1ef5 963e c344 40bd a76b dbbe c9dc c1be
00000090: 937e 16bf 9556 753e 32cd 4c3f 33bb 23bf
000000a0: 4bd4 5a3d 4c79 b63e d16f 433d 530e c83d
000000b0: 2b7d 02c0 1c64 7e3e de16 823e 39c2 42be
000000c0: 1504 26bf a191 803d 220a 283d 565d 88bf
000000d0: 942f f93d c9c3 553e 8b3f 30bf 42a2 d0be
000000e0: 3585 a53d dc3f 9dbf ec93 a43e 276f 9dbd
000000f0: 9182 fbbb 9b22 ca3d 01d8 a93e c628 803e
00000100: c68e edbc 4a40 85bb a44d 97bd 1dba 0dbc
00000110: 70ad fcbd ede0 c4bd 9ed7 f83d f521 eeb9
00000120: 8888 9bbd da03 fcbd 361f a3bd 1c12 fc3c
00000130: bb8c 5b3d 2bf8 be3d 5cad 06be ec99 4f3d
00000140: 5bd4 1abe 07da 8fbc c480 07be 675d 9bbd
00000150: aa4a 00be 95e8 f139 7c10 ac3d 3f4d 77bd
00000160: 2f05 91bd fbd9 80bd 3961 c6bd 6f5c bb3d
00000170: 2316 f33c a099 73bd 5130 cebd 30d6 1e3e
00000180: 9222 cebd 8c77 cb3d 7999 3abd 57ed e73c
00000190: 5317 9dbd 9106 90bd 4586 ddbd 4304 99bc
000001a0: 6965 6fbc 1759 003e 4692 82bc 0006 64bd
000001b0: 3597 bdbd b789 9cbd feed 453d 7280 f23d
000001c0: 9e8a 9abd fde3 2d3d 3ac5 fdbd 0913 813d
000001d0: 23f1 a7bc d6af f8bd fc5b 6e3c 653a b0bd
000001e0: a55c b13d 597a a13d 4c62 01be 8d0c a43d
000001f0: 21c6 f7bd 604d 8dbd 57e4 85bd 6ea4 95bd
00000200: 6448 05bf dd1a c9be baae ad3d 04bd 1c3e
00000210: 27d1 003f a39d adbb 0c83 bf3f 4454 bfbd
00000220: fbc8 e5bf a9dc acbe 7743 98bf a133 023f
00000230: e56e 3fbe 6938 ab3e 2e5a 473e 12c2 08be
00000240: 6a8a 283e 2ac2 a0be 5fd6 3ebe 72fc c43b
00000250: 6df0 1ec0 8fdd 2a3f d77e abbe a570 223d
00000260: 55aa 953f 216f 173e 3169 23be 3dd6 90bd
00000270: c929 623e 5ae3 233d 0b6f a7be a10f 97be
00000280: 5093 363e 7b2a e63e c644 3f3e 5c36 1d3c
00000290: 8af7 49be 0616 483e 3684 ffbe b3a4 abbe
000002a0: 3785 d8be 2bba bcbe 7618 49bd f499 aabc
000002b0: 8ef9 e33d 0c00 c23d 89a0 2dbe faa4 6e3e
000002c0: 240e 203f 6139 ec3d d7c7 b5be 5993 ae3e
000002d0: e77c 9fbc ac78 ab3c 7725 633e 3a73 633f
000002e0: 6f0a d4be a802 9fbf ead0 43be 85e2 85be
000002f0: bab9 23be 8d2e f03c f92b 283f 3a6c 9b3d
00000300: 8c0e 143e 4e2c 8d3e 7938 1e3f 277a 8ebd
00000310: 89cc 1f3f a236 52bf 339a 873f 3c23 21bf
00000320: 2530 abbf 9b07 b0bd 189c 04c0 e698 143e
00000330: 0a73 47bd eb50 8c3e 429d d5bd 78cd 89be
00000340: 9f67 90bf 2974 e2be fbf2 debe 34f2 f4bf
00000350: ff0d a23e 964e 4c3f 5099 09bf 605b ed3e
00000360: 16c4 573f 0ebf 033f 62a9 7cbe 2a55 0e3e
00000370: 6501 103d 0f0c 63be a65b 8cbf e7aa c8bf
00000380: dbf0 613e 1f99 2ebf 9a77 7abf 0890 9b3e
00000390: 8501 30be 7cbd a03e 7850 9ebd 01a3 4fbf
000003a0: 9985 9b3f 0467 52bf ccc4 18be 158f 3f3d
000003b0: b55e 253f bb6c 07bf ce1f 0a3f 6683 d13e
000003c0: 85b2 573f bb84 c0bf 9229 e3bf f1fa b6bd
000003d0: 0057 1b3e ba82 d7bf 8676 033d d78e b2bc
000003e0: e487 23c0 ba6b c0be 87bc 74bf 229c ddbf
000003f0: 16d6 45be 3aef 293e 768f 8abf ec6c 193f
0.27717507 0.47189215 -0.043283205 0.19776258 -0.35735917 -0.048109513 -0.19436412 0.24868877
0.90655565 0.03701588 -1.2728792 0.29686207 -0.92327917 -0.13807799 0.011117282 -0.17350851
0.39056894 0.39766726 -0.053769916 1.5854303 -0.084978335 -0.39746675 0.0319201 0.03682093
-0.9218835 0.17807414 -0.35455596 0.34229144 -0.081324294 0.1458229 -0.13259035 2.5543246
0.29483885 -0.046940576 -0.4285557 -0.37863758 -0.58786887 0.2395881 0.80000603 -0.6395752
0.053425115 0.35639417 0.04771406 0.09768357 -2.0388896 0.24842876 0.2540807 -0.19019403
-0.6484998 0.062777765 0.04102529 -1.0653484 0.12167278 0.20875467 -0.6884696 -0.40748793
0.08082048 -1.2285113 0.32144105 -0.07687216 -0.007675477 0.09869882 0.3317261 0.25031108
-0.028998744 -0.0040665017 -0.07387856 -0.00865033 -0.12337768 -0.09613214 0.12150501 -0.00045420197
-0.07594401 -0.12305422 -0.079649374 0.030770354 0.053601008 0.09324678 -0.13152069 0.0506839
-0.1512007 -0.017560018 -0.13232714 -0.075861745 -0.12528482 0.0004614039 0.08401582 -0.060376402
-0.07081067 -0.062915765 -0.096865125 0.0914849 0.029673642 -0.05947268 -0.100678094 0.15511394
-0.100651875 0.09934911 -0.04555652 0.028311415 -0.07670464 -0.070325024 -0.108166255 -0.01867879
-0.01461158 0.12533985 -0.01593889 -0.055669785 -0.09257356 -0.076434545 0.04832267 0.11840905
-0.075459704 0.042453755 -0.123911336 0.06302459 -0.020500725 -0.12142913 0.014548298 -0.08604888
0.08660249 0.07884664 -0.12635154 0.08010206 -0.12098337 -0.06899524 -0.06537693 -0.07306753
-0.52063584 -0.39278308 0.08480592 0.15306479 0.5031914 -0.005298333 1.4961867 -0.09342244
-1.7951959 -0.337621 -1.1895589 0.5086003 -0.18694647 0.33441475 0.19467995 -0.13355282
0.16459051 -0.31398135 -0.18636464 0.006011539 -2.4834244 0.6674432 -0.3349521 0.039658207
1.1692606 0.14788486 -0.15958096 -0.07072113 0.22086252 0.04001174 -0.32701907 -0.2950411
0.17829633 0.44954285 0.18678579 0.00959548 -0.19723335 0.19539651 -0.49905556 -0.33524093
-0.42289135 -0.36860785 -0.049095593 -0.020825364 0.11131583 0.09472665 -0.1695577 0.23305121
0.62521577 0.11534382 -0.35504028 0.34096792 -0.019468738 0.020931564 0.2218226 0.88847697
-0.4141421 -1.2422686 -0.19122663 -0.26149383 -0.15988818 0.029319072 0.65692097 0.07589002
0.14458674 0.27572864 0.6180492 -0.069568925 0.6242147 -0.82114613 1.0593933 -0.6294439
-1.3374068 -0.08595201 -2.0720272 0.14511451 -0.048693694 0.27405486 -0.10430385 -0.26914573
-1.1281623 -0.44229248 -0.43544754 -1.9136415 0.31651303 0.7980741 -0.5374956 0.46358776
0.8428358 0.514634 -0.2467399 0.13899675 0.03515758 -0.22172569 -1.0965469 -1.5677155
0.22064535 -0.68202394 -0.9783875 0.30383325 -0.1718808 0.31394565 -0.07730192 -0.811081
1.2150146 -0.8218844 -0.14918822 0.046767313 0.64597636 -0.52900285 0.5395478 0.40920562
0.84256774 -1.5040506 -1.7747061 -0.08934582 0.15169907 -1.683677 0.032095455 -0.021796627
-2.555169 -0.3758219 -0.9560017 -1.7313273 -0.19319949 0.16595164 -1.0825031 0.59931827

advantage.0.bias f4 [32]
00000000: 4635 643e bbdc 0cbe 57bd 2f3e 2818 303e
00000010: f5bc e8bd 3126 003d fc4f ba3e 8502 af3e
00000020: 512b a7bd 8cf7 ecbd 43d2 173e 9e64 053e
00000030: caa1 273e e6f9 8f3e c5ff d7bd 7fb9 ecbe
00000040: f124 2d3e 9454 5dbb d476 063e 39f2 163e
00000050: df05 cabd 1a38 653d c5f7 45bb df2c aebe
00000060: 8346 a4bd 4d0c 5c3e e9b2 403e 7aa4 5a3d
00000070: be23 06bd 57a3 fb3e f191 d5bd 6b28 8bbc
0.22285947 -0.13756077 0.17162071 0.17196715 -0.11364166 0.031286422 0.36389148 0.3418161
-0.08162559 -0.11570653 0.14826302 0.13026664 0.16370311 0.28120345 -0.10546831 -0.46235272
0.16908623 -0.0033772336 0.13131267 0.14740838 -0.09864401 0.055961706 -0.0030207497 -0.3401861
-0.080212615 0.21489067 0.18818249 0.053379513 -0.03274893 0.49148056 -0.10428227 -0.016987046

advantage.2.weight f4 [4, 32]
00000000: 6802 a9bd eb29 43bd 45c7 653f 89a7 9a3f
00000010: d773 4abf 05df 6c3c 9581 4bbf f5e6 6a3f
00000020: 1be8 313d d50b 943d 96f3 3ebf eec8 23bf
00000030: 95dd 85bd 0b70 bdbe a913 10be 0383 75be
00000040: 940b 16bf 1689 17be 52a1 5abe 7ef4 42bf
00000050: 554f 893d ac85 d83d 1f18 17bf 6ca0 66bf
00000060: da2d 0a3e 8271 e13e 4b2a 1f3f 2713 ab3f
00000070: 2310 c03d f171 b63f a038 133e 19c0 16bc
00000080: e51c 863c 7b23 863d 1e6c 743f 1180 153f
00000090: 9921 3abf 387d 8f3c 73af 26bf c648 9a3f
000000a0: 8271 19be ba50 3e3d 01fb 50bf e6cd cbbe
000000b0: 0bf6 4dbf a7c6 7dbf b273 9dbd 4691 05bf
000000c0: b282 c1be d78e 9c3d e7a6 d33e 272c 5dbf
000000d0: db1a 663b 058f 853e d0f9 e7be 6d2e 35bf
000000e0: 55fc eabd 81f2 453f 1960 253f 04ee b63f
000000f0: 1d49 9f3b 694f ae3f 81ed d33d 3f46 eebc
00000100: 6f55 7ebf 37e7 643d 9c4f 193f 291b 0a40
00000110: 1876 3bbf 1bd0 22bd e2ae f2be 4024 ad3f
00000120: d35d 5f3b e26d 1abe a70c 55bf 79e8 cebd
00000130: 1586 083f 285b 8bbe fcd9 583d 33ef 91bf
00000140: a0bb 5bbf b21c 043e 7f9f 913e 4a56 27bf
00000150: 94d9 f9bc d87a be3f 24bd 8dbf 270f 6bbf
00000160: 919c 00be a63e 6d3d 5af8 3fbf a30b e43f
00000170: b8df b93c ee33 a43f a0ba ff3c 4077 a03c
00000180: de4f 96bd 8c85 403d 118c 4f3f 9a87 ae3f
00000190: 3f31 2abf a00a 8ebd ca9b 5ebf 93a6 513f
000001a0: fe5b ee3d e6ef dc3d bb21 57bf 4203 5ebf
000001b0: 9eac e43e 4f20 e63d 39a5 8c3c 4063 003f
000001c0: dfcd 4fbf 6613 e73c 7df1 40bf 0613 36bf
000001d0: 5874 9abd 89a7 8f3e 2eac 18bf 7c0e 90bf
000001e0: 125d b63d 2ce9 a33e 2045 153f 7ad4 983f
000001f0: 3fc1 733d ccb8 bf3f 7b54 423b 1562 453c
-0.08252412 -0.047647398 0.89757186 1.2082378 -0.7908301 0.014457469 -0.794946 0.9175866
0.043434244 0.07228819 -0.7459043 -0.6397847 -0.06536404 -0.36999545 -0.1407 -0.23975758
-0.58611417 -0.14798388 -0.21350601 -0.76154315 0.067045845 0.10572371 -0.5902118 -0.90088534
0.13494053 0.44031912 0.6217391 1.336522 0.09378078 1.4253522 0.1437707 -0.009201073
0.0163712 0.06549736 0.95477474 0.5839854 -0.72707516 0.017515764 -0.65111464 1.2053459
-0.14984706 0.046463706 -0.81633 -0.39805526 -0.80453557 -0.99131244 -0.07688083 -0.52174795
-0.37795025 0.07644432 0.41338274 -0.86395496 0.0035111222 0.26085678 -0.4530778 -0.70773965
-0.1147391 0.77323157 0.6459976 1.4291387 0.0048610107 1.3617984 0.10348035 -0.02908623
-0.9934911 0.055884566 0.598871 2.1579077 -0.7322707 -0.039749246 -0.4739905 1.3526688
0.0034083023 -0.1508098 -0.8322243 -0.101029344 0.5332959 -0.27217984 0.05294226 -1.1401123
-0.8583317 0.12901571 0.28441998 -0.6536604 -0.030499257 1.4881239 -1.1073346 -0.91819996
-0.12559725 0.057921074 -0.7498833 1.7816051 0.022689685 1.2828348 0.03121692 0.019588113
-0.07339452 0.04700236 0.810731 1.3635132 -0.66481394 -0.0693562 -0.86956465 0.818948
0.1163864 0.107879445 -0.84035844 -0.8672372 0.44662946 0.11236631 0.017168628 0.50151443
-0.8117351 0.028207492 -0.7536848 -0.7112278 -0.07541722 0.28057507 -0.59637725 -1.125442
0.089044705 0.32013834 0.583086 1.1939843 0.059510466 1.497827 0.0029652405 0.01204731

advantage.2.bias f4 [4]
00000000: da22 69bd d3da 693e a434 e33d dc9c cfbe
-0.056918003 0.22837381 0.11094025 -0.40549362

value.0.weight f4 [32, 64]
00000000: 6a34 acbf 4c79 1e3f d4f4 aabe 8e1a b6bb
00000010: ff65 653f d4c2 163e 58f3 8b3e f1c2 943c
00000020: 0536 84be 0408 203a 6306 b23f d748 b53d
00000030: 3df2 713e 9590 e33d 1afe 4b3e ae53 b93e
00000040: cdfe b13e 6dc8 85be a615 1bbe c1d2 6a3f
00000050: d9af 0fc0 77ae 7bbf f387 14be 6ab0 e73b
00000060: 5fda cabf 6a98 20bf 3de5 ccbe 456f b9bd
00000070: 7f09 4dbf 8672 d43d 9ab3 243e dd09 543f
00000080: e2a3 013e d7df 61bd c2cd a9bb 62e8 633f
00000090: f617 bdbc 0866 15be 4337 823d e3ee 10c0
000000a0: 2886 663d 4b76 f23e 848d 37bf e4c6 8a3c
000000b0: b9f1 b13f 64a5 f43b 6796 f53e 6eff d73e
000000c0: 0e05 22bf 68be f13e 45cb 863e c5f5 b5be
000000d0: 1113 6dbd 9de3 9b3e 10f1 933e 4130 c0bf
000000e0: 0a14 ab3e 672c eebe 81f7 2a3f 8303 c93e
000000f0: c389 c3be 92af e0bd 9370 333d 2d90 92be
00000100: eb24 183e 6a8a 913e 73b1 e63e 4cf6 7d3c
00000110: c5ec 4d3f fe7b cebd 8148 8ebe d80b 1f3e
00000120: 961f 59be b066 75bd 67e1 a03f 6495 14be
00000130: c2b4 7f3e 55fa ec3c 8927 35be 535d 66bd
00000140: 18c7 243d 9e09 b83d a045 8c3e 0059 8a3f
00000150: bfc8 cabf 4396 e8be 4cbd fd3e 8059 1fbd
00000160: fe6b c5bf 385a b4bb 1bcb 0b3d e3fd 413e
00000170: 2613 9abc 275a 383d 6851 093d 1b1b 973f
00000180: 4527 35be 79a6 d83e 1409 63be 5c35 56be
00000190: df30 30be 3ce5 c6bc ba27 8b3f af5a 92bf
000001a0: 8ae2 1abf abe6 c93e 4d46 b7bd 4b47 83bd
000001b0: e08c b13f df45 5bbe 8076 f83e b8e4 213f
000001c0: faeb dfbe 1067 d03e ed73 a33e a687 2d3e
000001d0: 9b4e 3ebe a333 2f3e ff8d 153e 58c4 9abf
000001e0: 1ad9 b63e 0d5e 2f3f ce8c 1f3e dfc4 cf3e
000001f0: c7b4 62bc a9e0 aebd 7c7c d2bd bc92 d43e
00000200: d758 d73e acb4 743e 9cbd aa3e e4e5 723d
00000210: 97ac 8f3f 0a5c 063e 1267 adbe 96b1 013d
00000220: 0e0c a8bb 2cc8 84bd 88a1 883f ae44 3fbe
00000230: 9a22 053e 2e9d 4e3e 20f0 953a 6981 ed3d
00000240: bc7b 1f3e 5137 bc3c c351 8f3e 2c1c 8f3f
00000250: 6ad9 5cbf 1555 1fbf 7357 363f c1de 0fbe
00000260: 108b 20c0 2d5a b83d 8a34 e63d d0a5 2b3e
00000270: 1f87 00be b981 7a3d 1f09 b53c 567d 923f
00000280: 8df8 4fbe 26a4 a63e c177 f4bd 204e 1cbe
00000290: 37b6 7bbd e1b7 5dbd 88e7 8c3f 4d36 65bf
000002a0: 95ab 20bf 7045 3a3e 51f9 eabd 9b29 2dbe
000002b0: e9d9 9a3f 2510 56be 902c e93e fce9 303f
000002c0: 1857 69be 6aa8 043f d57e c03e 9bbd 8d3e
000002d0: 91c5 22be ffb3 b53e 6898 313d 5d68 eabe
000002e0: 3f5c ec3e f2ab 243f af55 473c 0858 ea3e
000002f0: 6a94 0d3b efcf d1bd 8fcd 38be 59e3 ce3e
00000300: a727 c53e ff8d fcbc 4cff d43e e820 00be
00000310: 1fe0 2c3f d822 fbbc 090f 71be 8716 5e3e
00000320: 30b2 573f dd1c 083f a489 e03f 3ab4 38be
00000330: a40f 47bc ddb4 31bd 43c1 34bf 342d f2bd
00000340: a39f a5bd 4c73 373e aac4 313e dbea 753f
00000350: 3358 323e e4a3 9abe 34a5 5b3f 5628 a93d
00000360: 7013 01c0 a7d8 4b3e 683a c53e ed01 403e
00000370: 49a0 8d3e 47ea 4cbc ad67 14be 936c 1b3f
00000380: 8a1c e2be ca06 353e 0f67 56bf 9f63 a2bf
00000390: 67b3 413e 175b 9abe 4757 8e3f 077f 0c3f
000003a0: 6e18 fabe 8466 e6be f379 503e 76e3 b4be
000003b0: ba99 a43f fdc9 39bd c51a d73e 2723 513f
000003c0: 0f9a 143d a5d3 883e 9b69 0b3e eeca 80bd
000003d0: 02c0 2dbd c2d4 01bf e444 69be b993 98bc
000003e0: b767 963e 5a19 f03e 7a09 2bbe 3043 583e
000003f0: 2b3a 3e3e 9905 233e 35fe 23bf edc1 843e
-1.3453496 0.61903834 -0.33389914 -0.005557365 0.8960876 0.14722759 0.27334094 0.018159362
-0.25822464 0.000610471 1.3908199 0.08851784 0.23627563 0.11111561 0.19921151 0.36196655
0.3476471 -0.26129475 -0.15144977 0.91727835 -2.245108 -0.9831309 -0.14504986 0.0070705907
-1.5847892 -0.62732565 -0.40018645 -0.09054426 -0.80092615 0.10373406 0.16084138 0.8282755
0.12660173 -0.05514511 -0.005181999 0.89026463 -0.023082715 -0.14589703 0.063581966 -2.2645805
0.056280285 0.47355875 -0.7170031 0.016940542 1.3901893 0.007466005 0.4796631 0.42187065
-0.6328896 0.4721558 0.26326957 -0.3553907 -0.05787951 0.30447093 0.28894854 -1.5014726
0.33413726 -0.4651825 0.6678391 0.39260492 -0.3819104 -0.109709874 0.04380853 -0.28625622
0.14857833 0.28425914 0.45057258 0.015500616 0.80439407 -0.100822434 -0.2778969 0.15531862
-0.21203455 -0.059912384 1.2568787 -0.14510113 0.24971297 0.028927961 -0.17690863 -0.056241345
0.040228933 0.08986209 0.2739687 1.0808411 -1.5842513 -0.4542714 0.49558485 -0.038903713
-1.5423582 -0.005503919 0.034129243 0.18944506 -0.018807959 0.04500785 0.0335249 1.1805147
-0.17690761 0.4231451 -0.22171432 -0.20918792 -0.17206143 -0.02427923 1.0871499 -1.1433924
-0.6050192 0.39433798 -0.08948956 -0.064100824 1.3871117 -0.21413372 0.48527908 0.6323962
-0.43734723 0.4070363 0.31924382 0.16946277 -0.18584673 0.17109542 0.14604948 -1.2091169
0.3571251 0.68502885 0.15581056 0.40579888 -0.013837046 -0.08538944 -0.1027765 0.415182
0.42059967 0.23897046 0.33347785 0.059301272 1.1224545 0.13121048 -0.338677 0.0316635
-0.00512839 -0.06483492 1.0674295 -0.18678543 0.1300148 0.20177147 0.0011439361 0.11596949
0.15574545 0.022975596 0.27992067 1.1180472 -0.8626925 -0.622392 0.71227187 -0.14049818
-2.5084877 0.09001575 0.1124049 0.16762471 -0.12551545 0.06115887 0.022099076 1.14445
-0.20309658 0.3254711 -0.11936904 -0.15264177 -0.06145307 -0.05413044 1.1008158 -0.8953598
-0.62761813 0.18190551 -0.114733346 -0.16910402 1.2097751 -0.20904596 0.4554181 0.6910703
-0.2278713 0.5181948 0.37596765 0.2768372 -0.15895678 0.3548889 0.043358237 -0.45782748
0.46164128 0.6432487 0.012166425 0.45770288 0.0021603354 -0.10244738 -0.18047164 0.40407827
0.38506815 -0.030829428 0.41601026 -0.12512553 0.6752948 -0.030656263 -0.23540892 0.21688281
0.8425627 0.5316904 1.7542005 -0.18037501 -0.012149725 -0.043385375 -0.70607394 -0.11825028
-0.08087089 0.17915076 0.17360178 0.96061486 0.17416458 -0.30203164 0.85798955 0.082596466
-2.0168114 0.19906865 0.38521123 0.18750735 0.2766135 -0.012507028 -0.14492674 0.60712546
-0.441624 0.17678371 -0.83751005 -1.2686652 0.18916093 -0.3014762 1.1120385 0.5488133
-0.48846763 -0.45000088 0.2035902 -0.3532979 1.2859414 -0.045358647 0.4201261 0.81694263
0.036279734 0.26723972 0.13614504 -0.06288706 -0.04241944 -0.5071527 -0.22780186 -0.018625127
0.29376003 0.46894342 -0.16702834 0.2111938 0.18576877 0.15920104 -0.64059764 0.25929204

value.0.bias f4 [32]
00000000: e051 153d e7d5 063e 888f c23d 978d 11bd
00000010: 0163 3bbd 73d5 2fbe 62fb 0fbe a635 ffbc
00000020: a9b8 943b 7a9e 623e ea8b 6fbe 6d75 cf39
00000030: 153d 0d3d 44d4 7b3d a6f9 43be 5f24 553d
00000040: af98 a1be abc1 9c3c bdcc de3d 624d 0ebc
00000050: 77df 00be 364f 353e 780c 26be e695 2b3f
00000060: 941a 38bd 5331 82be 177a b2be b155 483d
00000070: 860b 343e 23eb 4b3d 5a6b 763d 22dd a0bd
0.036455035 0.13167535 0.09500033 -0.03553542 -0.045748714 -0.17171268 -0.14060739 -0.031153511
0.004538615 0.22130767 -0.23393217 0.00039569606 0.03448208 0.06148173 -0.19138202 0.05203664
-0.315618 0.019135317 0.108788945 -0.008685442 -0.12585245 0.17705998 -0.16215694 0.670256
-0.044947222 -0.25428256 -0.34858772 0.048909847 0.17582521 0.04978479 0.060160972 -0.07854678

value.2.weight f4 [1, 32]
00000000: cf7a 96bf e8b4 81bf bf90 77bf 0ed3 85bf
00000010: e36e f3bc 2ffc 13c0 7b19 0cbe fe13 ea3c
00000020: 28cd 76bf 1b90 ee3f cff1 a5bf de99 8cbf
00000030: 3b2f 64bf 63d1 83bf b97b 31bd 9a3a 5ebf
00000040: 953f e8bf 1f78 1440 a90a 3fbf d305 e13f
00000050: d5ed 8bbd 5c7b e03f eaac 293c d053 933f
00000060: 1d6e c53f 77c9 f7bf 50d2 0cc0 df73 15bc
00000070: f1ce d63f ca69 8fbf 8b77 58bf 010f 9fbf
-1.1756228 -1.0133333 -0.9670524 -1.0455034 -0.02971596 -2.312267 -0.13681595 0.028573986
-0.96406794 1.8637727 -1.2964419 -1.0984457 -0.8913457 -1.0298275 -0.04333088 -0.8680817
-1.8144404 2.3198316 -0.7462564 1.7579902 -0.06832472 1.7537646 0.010356167 1.1509953
1.5424229 -1.9358357 -2.2003365 -0.009121864 1.6781904 -1.1204159 -0.8455741 -1.2426454
