solved/Fixed-DQN_best.pth (torch, 22367 bytes, 6 tensors)

linear1.weight f4 [64, 8]
000000 6f 71 64 3e e1 c6 5d 3e 1c db 20 3f a0 74 95 be
       0.22308896 0.21657898 0.62834334 -0.2919054
000010 cb 79 01 c0 f4 cf 3e 3e 86 6e 75 3d 68 4b aa bf
       -2.0230587 0.18634015 0.059919856 -1.3304262
000020 54 e7 98 be bc bb 0c be b1 57 b1 be f6 4b 98 3d
       -0.2986399 -0.1374349 -0.34637216 0.074363634
000030 c6 1c b2 3f 10 f4 85 3f 08 eb 12 bf 67 8b e7 bd
       1.3915031 1.0465107 -0.5738988 -0.11305886
000040 6e e9 5c 3f 86 64 8e bd 9a 2a 0d 3f 76 37 6b 3d
       0.86293685 -0.06952767 0.5514313 0.05742594
000050 79 c4 d8 bf a7 d1 a4 3e f1 fc bb 3e ed 28 13 bf
       -1.6934959 0.32191202 0.36716416 -0.5748432
000060 36 9a 17 3e 5d e9 2b be 67 67 06 bf 79 4e 03 40
       0.1480492 -0.1678824 -0.5250153 2.0516646
000070 58 35 05 3f 45 7c 7b be cd dc c9 bf 92 fd 9f 3e
       0.5203452 -0.24559124 -1.5770508 0.31248146
000080 83 c1 a2 be 28 2f 28 be a4 10 d1 be 5d c8 5d bf
       -0.31788263 -0.16424239 -0.40833008 -0.86633855
000090 51 74 49 bf 14 ef 50 3e d3 2d 42 3f 18 3e dd bf
       -0.7869311 0.20403701 0.7585117 -1.7284575
0000a0 f7 18 1b bf ed b3 24 3f d1 bd fe be 78 f4 ce be
       -0.6058497 0.64337045 -0.49754193 -0.4042089
0000b0 a6 72 8b be 4b 12 8e 3c 66 ff 97 be 54 b5 2b 3f
       -0.27235907 0.017342707 -0.2968704 0.6707356
0000c0 41 56 77 3d 84 20 8a bf 6d f7 33 c0 7e cf c4 3f
       0.060384993 -1.0791173 -2.8119767 1.5375822
0000d0 9f 73 cb bf b2 9e 45 bf 55 2a fb 3e 4c e7 3a 3f
       -1.589466 -0.77195275 0.49055734 0.7300918
0000e0 e4 63 46 bf c3 82 eb 3e 15 6d b5 be d5 fc f2 bd
       -0.7749617 0.459982 -0.35434785 -0.1186463
0000f0 0b 90 3a 3f 72 a2 a3 bd 7c ff 05 bd e2 0f 0b bc
       0.7287604 -0.07989968 -0.032714352 -0.0084876735
000100 f3 51 8c be 0c ef a2 be 56 f5 6b bf 0f e0 e8 3f
       -0.27406272 -0.31823003 -0.9217123 1.8193377
000110 f1 17 85 3f ab 5f ee be 1d d1 ce bd 64 2b cb 3d
       1.0397931 -0.46557364 -0.10098479 0.099203855
000120 9a e3 dc 3f dd d3 1d be 3b b0 8b 3f 0a e1 10 3e
       1.7256958 -0.1541285 1.0913156 0.14148346
000130 34 e5 a6 bf fd 8d d0 3d d2 d7 84 bd ca a6 8e 3e
       -1.3038697 0.10183332 -0.06486477 0.27861625
000140 24 1e 03 3b c0 78 4f 3c 59 a8 ff 3f 38 ed 19 bf
       0.002000698 0.012663066 1.9973251 -0.6012759
000150 1b 76 8d 3c 19 b6 9b bd 8b 3c fd be 5a 28 00 3f
       0.017268231 -0.07603092 -0.49460253 0.5006157
000160 c0 b2 9c 3d 26 96 1a 3f 59 27 38 bf a6 ff a6 bc
       0.07651281 0.6038536 -0.7193504 -0.020385575
000170 23 51 73 3d a2 b9 3b be dc 1a 94 3e 80 89 bd 3e
       0.05940355 -0.18332532 0.28926742 0.37018967
000180 74 d3 69 be e3 57 da be e4 d4 8a bf 9b 97 09 c0
       -0.22834569 -0.42645177 -1.0846219 -2.1498783
000190 ae 02 81 3d 04 1a 2b be 19 12 d1 3e 55 28 fd be
       0.06299339 -0.16709143 0.4083412 -0.49444833
0001a0 9a f1 51 3f c5 20 69 bd 43 dc 40 bf 63 7a 79 bf
       0.8200928 -0.056916017 -0.7533609 -0.9745237
0001b0 52 aa a4 be db e7 57 3e b8 26 20 be 84 c1 c7 bb
       -0.32161194 0.2108454 -0.1563977 -0.006096067
0001c0 39 7f a7 be 97 37 72 3e 36 cd 26 bf 51 f5 c3 3d
       -0.3271425 0.23654018 -0.6515688 0.09568275
0001d0 6a b5 19 c0 bd 64 4c bf 35 ac 8e be 7b 34 82 bf
       -2.4016976 -0.79841214 -0.2786576 -1.0172266
0001e0 bd e3 5f be 16 c5 c6 bc 7b 96 2f 40 7b 29 7d bf
       -0.21864219 -0.0242639 2.7435596 -0.9889142
0001f0 a8 49 05 be f1 a4 39 bf b3 72 7b 3f 00 81 42 bf
       -0.13016379 -0.72517306 0.9822189 -0.7597809
000200 fa 97 8d bf 8b b4 1e 3e 88 20 cb 3e 57 e4 22 3f
       -1.1062005 0.15498559 0.39673257 0.6362967
000210 3d da 1b 3f 92 2f 6c bf 32 46 f2 bd 04 9b 97 3e
       0.6087988 -0.92260087 -0.11829795 0.29610455
000220 5c ab 27 3f df e8 a1 be ad 9e 61 3f d0 6c a6 3e
       0.6549585 -0.3162298 0.88132745 0.32504892
000230 a0 f2 06 3f f2 1c d4 be d5 bd b2 bf 2e 42 2d bf
       0.52713966 -0.41428334 -1.3964182 -0.6767911
000240 6d c4 b0 3f 08 fa 61 be 43 8f 5c be 52 be 61 3f
       1.3809944 -0.22068036 -0.21539025 0.8818103
000250 26 b5 6a 3f a1 ad ad 3e 01 21 e5 3e bf 4d 10 3f
       0.9168266 0.3392153 0.44751742 0.5636863
000260 f0 d7 8d ba d9 6f 08 3c a7 f5 41 bc f9 20 99 3a
       -0.0010821801 0.008327448 -0.011838353 0.00116828
000270 b7 ba 3f 40 a0 c0 f9 bd c7 d8 04 bf 2c 16 03 bf
       2.9957712 -0.121949434 -0.51893276 -0.51205707
000280 3d 62 6a bc 3b e8 d8 3c 32 f7 84 3d 0f 29 6c 40
       -0.014305648 0.026477924 0.06492461 3.690006
000290 cf f7 ce bd 1a cb 97 bb 04 6b 91 bf 4e d1 4e bf
       -0.101058595 -0.004632366 -1.1360784 -0.80788124
0002a0 b7 bb 36 bf 4c d6 07 3f 31 2c 01 3f 31 8d 1e bf
       -0.7138018 0.53061366 0.50458056 -0.6193419
0002b0 56 f7 3a bf a8 cc ca be 28 e4 b7 bf e6 56 6c 3f
       -0.73033655 -0.39609265 -1.4366503 0.92320096
0002c0 e0 98 db bf 56 21 4e be a0 cd a6 bf c2 bc 27 be
       -1.7156029 -0.20129904 -1.3031502 -0.16380599
0002d0 f8 72 4c 3e c7 e0 7e be 6e 36 3c bd 0e f5 e2 bc
       0.19965732 -0.24890433 -0.045950346 -0.027704742
0002e0 8e 6d be bd 9c 9d f4 3d b1 b0 6d 3e f3 27 5d be
       -0.0929824 0.11944124 0.23211934 -0.2159727
0002f0 7f a9 8c bf a2 df 12 3f b1 49 60 bd 7c 54 29 3f
       -1.0989226 0.57372487 -0.054757778 0.6614454
000300 fd e3 06 c0 e2 fb 52 be 3f 3d 9f 3e 3a 3c d6 bd
       -2.1076653 -0.20603898 0.31101415 -0.10460706
000310 24 16 df be 21 fa b0 3e 34 13 64 bf ef 97 89 be
       -0.4357158 0.34565833 -0.890918 -0.2687373
000320 91 d9 4b be 8d 1e 36 3e 2d 43 81 3c c7 11 da be
       -0.19907214 0.17785092 0.015779102 -0.42591688
000330 71 74 b0 bf cd 0f a1 3e d6 62 0f 3f 6f 39 53 bf
       -1.3785535 0.31457368 0.56010187 -0.8250951
000340 b2 27 c3 bd 01 f2 48 3e e6 1d 98 be 14 3c 45 3e
       -0.09529056 0.19623567 -0.2971031 0.19261199
000350 05 ef d1 3e 9c 1b b6 3f 41 eb c8 3b da 4d 0f c0
       0.4100267 1.4227176 0.00613156 -2.2391267
000360 7c 63 42 3d b4 39 8d be 3b cb 75 3f b8 13 95 bf
       0.047458157 -0.27583086 0.9601323 -1.1646643
000370 61 4b 82 3e 3e 2e 78 3f f5 f9 e1 bd 24 1c 1f be
       0.25448135 0.9694556 -0.11034004 -0.15538079
000380 46 72 1a bf f0 de 6c 3e f3 9c 95 3e ba 8e 64 bf
       -0.6033062 0.23131919 0.29221305 -0.89280283
000390 67 f2 1d 3f 31 82 a1 bd 74 5a 27 3f a7 dd 98 bf
       0.61698 -0.0788616 0.65372396 -1.1942643
0003a0 a2 3b c6 be da 7c 22 3f 11 c2 44 bf 2a 6d 67 be
       -0.3871737 0.6347176 -0.7685862 -0.22600237
0003b0 ae ad 08 bf 62 73 51 3f 13 1c 99 be 70 9a b9 3e
       -0.53390014 0.81816685 -0.2990423 0.3625064
0003c0 af 58 93 bd 0e 85 74 3c 20 04 2d 3f 60 48 2a 3e
       -0.071946494 0.014924301 0.6758442 0.16629171
0003d0 e0 14 86 bf cd b7 af bf 4b ec 25 3d 2f 68 06 3f
       -1.047512 -1.3727967 0.04050855 0.5250272
0003e0 fb c6 9c 3f 02 2f 08 be be ba 68 be 6f 5e 94 3c
       1.2248224 -0.13299182 -0.22727486 0.018111436
0003f0 55 ea da bd 9a 41 fa bd bc f4 18 bf 60 6b 4f bf
       -0.106892265 -0.12219544 -0.59748435 -0.81023216

linear1.bias f4 [64]
000000 d5 3e d8 be 49 5c ff 3e c2 56 4f 3e 35 a2 c9 3e
       -0.42235437 0.49875095 0.20247939 0.39381567
000010 09 9e 27 bf e9 c6 0e 3e ae 9b 94 3d 37 7d ac 3e
       -0.6547552 0.13943066 0.07256256 0.3368928
000020 92 3f d0 3e 76 0b 18 3c a6 33 ba bb b5 72 14 3e
       0.406735 0.009280076 -0.0056824265 0.14496882
000030 21 b2 c6 3e 6f 56 0a 3f fb 54 77 3e e6 ea b4 3e
       0.38807777 0.5403814 0.24153511 0.35335463
000040 06 80 0d 3f b1 6b 60 3f a2 4b de be 31 f4 d0 bb
       0.55273473 0.87664324 -0.43417078 -0.006376766
000050 b4 2a 54 3c 9c 16 13 bc 35 f1 92 3d a9 51 a4 3e
       0.012949634 -0.008977558 0.07174913 0.32093552
000060 ff 3b 88 3d 12 94 8a 3e 66 6e 74 3e a7 81 0d 3f
       0.06652068 0.27066094 0.23870239 0.5527596
000070 91 12 b1 3e 46 99 a9 3e 7c 30 c6 3e 05 c6 20 be
       0.34584478 0.3312475 0.38708866 -0.15700538
000080 d3 7e 3f 3e 8b 9c 1d 3d f6 79 9e 3d d3 c5 cc be
       0.18700723 0.03847937 0.07738106 -0.39994678
000090 4f 24 99 3e a7 d5 ac 3e a2 38 a5 3e 8a 46 56 3d
       0.29910514 0.33756754 0.3226977 0.052313365
0000a0 d6 6d 14 3e d1 22 e6 3e bd 6f f0 be c5 e4 82 3e
       0.14495024 0.44948438 -0.4696025 0.25565162
0000b0 0e da 3f be 8e 50 79 be 78 27 f9 3e f0 d5 7f be
       -0.18735525 -0.24347135 0.48662925 -0.24983954
0000c0 76 c6 5a bc 2b a7 c1 be 75 cc 15 bf b6 da 06 3f
       -0.013352981 -0.37822852 -0.585151 0.52677476
0000d0 f9 d1 92 3e a2 0d 7b 3e c9 86 bc 3e 79 53 a7 3b
       0.2867582 0.2451692 0.36821583 0.0051063863
0000e0 2d 35 80 3c 6d f2 f9 be 9b fd e2 3e 6b bb 06 bc
       0.015650356 -0.4881777 0.4433411 -0.008223395
0000f0 8a 43 c9 be 2b 09 95 3e 5d 80 f2 3d 44 41 a4 3e
       -0.3930934 0.29108557 0.118408896 0.32081044

linear2.weight f4 [64, 64]
000000 fe d4 4c 3f a5 5a 38 bf f0 b4 e6 be 1d 9d 0d be
       0.800125 -0.7201331 -0.4505992 -0.13829465
000010 41 e1 d0 3b b8 c1 9a 3e 0a 5f 63 bf a7 c3 57 3e
       0.0063745086 0.3022592 -0.88816893 0.21070729
000020 77 d1 20 be d0 c1 32 be b0 fc 4c 3f 4e bf a2 3d
       -0.15704904 -0.17456746 0.8007307 0.07946645
000030 a0 8a 1d 3e 15 f1 49 3d 56 1c e4 3e 3e 23 d4 3e
       0.15384912 0.04930218 0.4455287 0.41433138
000040 55 21 f0 bd d4 af a2 3a 6b dd f6 bf 7a 93 fa 3f
       -0.117251076 0.001241202 -1.9286321 1.9576256
000050 f2 c8 4d 3f f8 3c fb 3e 4a 63 a5 be 5d d2 d2 3c
       0.80384743 0.49069953 -0.32302314 0.025735075
000060 ce 80 37 3f 74 f2 f2 3d 35 aa 18 be 33 f1 b3 3e
       0.71680915 0.118626505 -0.14908679 0.35144958
000070 1f 38 4e 3e 4f 48 51 3e d5 d5 1a bf c6 d9 48 be
       0.20138596 0.2043774 -0.6048253 -0.19614324
000080 71 9a 02 3e 3c 00 10 3f 76 1a 8a 3e 41 0a a1 be
       0.12754227 0.5625036 0.26973313 -0.31453136
000090 ee b2 b1 3d bb da db 3e 31 62 27 3f 4f cc 29 bf
       0.08676706 0.42940316 0.65384203 -0.66327375
0000a0 1d 1d 3f be a4 86 6b be c1 64 96 be 73 11 d1 3d
       -0.1866345 -0.2300058 -0.29373744 0.10208406
0000b0 cd d5 4c 3f c3 f2 07 3f 30 a3 c7 bd 51 9b 99 be
       0.80013734 0.531048 -0.097479224 -0.3000131
0000c0 14 80 73 3f ff 21 91 3e 90 2e e5 3e 5d 0e ed bb
       0.95117307 0.2834625 0.44762087 -0.0072343783
0000d0 cd 38 bd 3e a8 6d ab 3e 15 00 10 3e ce a3 85 bf
       0.36957398 0.334821 0.14062531 -1.0440614
0000e0 3c 3b ae 3e a4 46 ff be 36 44 d2 be 69 63 f2 3e
       0.34029567 -0.49858582 -0.41067666 0.4734147
0000f0 fb 30 e8 be e1 31 13 3e 5e 26 5f 3e ab 44 d2 bd
       -0.4534987 0.14374496 0.2179198 -0.102670036
000100 81 ca aa bf 33 bb 1e bf 4d 54 ae 3f 53 86 7e bd
       -1.3343049 -0.62004393 1.3619477 -0.06213982
000110 ce 19 22 c0 62 5c ec 3e 85 22 2e 3f 76 68 be be
       -2.532825 0.46164232 0.6802142 -0.37189072
000120 21 81 a9 be 76 93 4e 3f b5 2a c5 3e 8d 66 32 3e
       -0.3310633 0.8069376 0.38509145 0.17421933
000130 ae 12 5d bf de 4d e7 3e bf 13 a2 3e ae ec 38 bf
       -0.8635663 0.45176595 0.3165569 -0.72236145
000140 37 4b 87 be d7 99 22 be 91 38 c8 bf e7 07 09 3f
       -0.26424572 -0.15878998 -1.5642263 0.53527683
000150 42 a8 37 bf 5b 41 4c 3f d2 a7 18 3f 37 8e 2c 3f
       -0.71741116 0.79787225 0.59631073 0.674045
000160 73 02 48 c0 78 6d 30 3b 90 8e 17 bd d2 c5 48 3d
       -3.1251495 0.0026920717 -0.037001193 0.04901678
000170 c7 f3 f9 be fa 60 d1 3e 1e e1 16 bd 7d d0 4b 3f
       -0.488188 0.408943 -0.036835782 0.79615
000180 e8 20 70 bf 51 33 75 3f 7c 89 8c 3d 0f 41 ae bf
       -0.9380021 0.9578143 0.068621606 -1.3613604
000190 e0 44 3b 3e 4e 09 6a 3e 4e 97 01 bc e2 b9 99 3f
       0.18287992 0.22855112 -0.007909609 1.2009852
0001a0 e4 2c 1e 3f 9e 24 31 bf e4 5b 1a c0 ae b6 f2 3d
       0.6178725 -0.691965 -2.4118586 0.1185125
0001b0 7f cb 15 bf 97 f4 c9 3e 01 a7 37 3e 19 55 39 3f
       -0.58513635 0.3944442 0.179348 0.72395474
0001c0 e4 07 57 3f 06 14 2d 3f d3 79 d5 bd 12 63 9b be
       0.83996415 0.6760868 -0.10423627 -0.30349022
0001d0 2f 72 00 3e bf ae e3 3d aa f9 b7 3d 8c ef aa bf
       0.12543558 0.111173145 0.089831665 -1.3354354
0001e0 cb c9 a2 3e 91 85 c3 3c 98 d5 1c be e7 c2 29 3e
       0.3179458 0.0238674 -0.15315855 0.16578256
0001f0 58 24 f2 be 53 a8 80 3d ec 3d eb be 3d 32 a1 be
       -0.47293353 0.06282105 -0.4594568 -0.3148364
000200 49 12 a0 bc c2 91 cd 3d 5d 77 fe 3e 77 84 12 3f
       -0.019539969 0.10037567 0.49700442 0.57233375
000210 d8 31 f3 3e 8c ec 33 bf 68 26 06 3f 9c 0a 85 be
       0.47498965 -0.70282817 0.52402353 -0.25984657
000220 ec de a6 be 7e dc 18 3f 57 87 7c be a5 30 11 bf
       -0.3259195 0.59711444 -0.24661003 -0.5671485
000230 ac ef 2c 3f 82 0f 65 3f 54 8a 4b be 38 38 98 3e
       0.6755321 0.8947679 -0.19876987 0.29730392
000240 9d 16 2b bf 5f f4 9d 3f e2 8d 76 bf d2 b0 d5 bf
       -0.6683138 1.2340201 -0.96310246 -1.6694586
000250 c3 1a 3f 3f 82 82 1c bf 6c ba 98 3f d8 13 0d 3e
       0.7465021 -0.6113664 1.1931891 0.13777101
000260 57 5e 7e 3f c3 78 6a 3e 18 72 c5 3e ea 4f 30 3f
       0.993627 0.2289763 0.3856361 0.6887194
000270 d5 cc 13 3f 02 17 71 be 44 cf 73 3e fa 52 96 bb
       0.57734424 -0.23543933 0.23809534 -0.0045875283
000280 71 4f 1d 3f 24 ad 76 3c 4b ce 06 be fa d3 2b be
       0.6144934 0.015055928 -0.13164632 -0.16780081
000290 1e e1 2b 3f 93 1a c3 3e 56 61 98 3e 46 3e af be
       0.67140377 0.38106212 0.2976176 -0.34227198
0002a0 20 b0 80 be 76 00 ab 3e 3c 27 19 3e fb b5 58 3e
       -0.25134373 0.3339879 0.14956373 0.2116317
0002b0 d4 13 89 3e 15 7b c8 be 09 75 84 3e af 70 4a bf
       0.2677294 -0.39156404 0.2587054 -0.7907819
0002c0 89 48 c9 bf 16 10 f5 bf 2a 33 0e bf d9 28 5a 3f
       -1.5725261 -1.9145534 -0.5554682 0.8521858
0002d0 fb bf 25 3b 80 71 64 be d4 34 de 3e b8 6b 43 3e
       0.0025291431 -0.22308922 0.4339968 0.1908406
0002e0 16 76 45 bf f2 47 c3 bf 7a bb 50 be 81 d7 ab 3d
       -0.7713331 -1.5256331 -0.20384017 0.083907135
0002f0 a8 87 8e bf 9a e1 bb bc 67 f1 3a bf d8 80 a0 3e
       -1.1135149 -0.022934724 -0.730246 0.313483
000300 c0 5a 8e 3c 4b fc 50 bc c6 84 c8 3d 09 1e 1c 3c
       0.017377257 -0.012755464 0.097909495 0.009528645
000310 f4 e8 f3 bd 0e cb 02 be 52 42 5b 3d ed 74 b1 3c
       -0.11909667 -0.12772772 0.053530045 0.0216622
000320 4e 03 eb bd 38 78 f5 bd a8 80 ae bc 50 3b 8b 3d
       -0.1147524 -0.119858205 -0.021301582 0.06798422
000330 0a 66 df bd b1 4e b8 bd 95 90 c7 bd d6 ee d1 bd
       -0.10908134 -0.08999384 -0.09744374 -0.102506325
000340 0f 5c 15 bd 49 7d ba bd d8 9f 98 bd cc 7e 6d bd
       -0.036464747 -0.091059275 -0.07452363 -0.05798225
000350 e4 fe 8d bd 96 3a a7 bd d1 de da 3d d9 6c c2 3d
       -0.06933382 -0.08165471 0.1068703 0.09493417
000360 e2 ad c5 bd 58 db 19 3d 3c 4c 07 bc 39 75 b1 3b
       -0.09652306 0.037562698 -0.008257922 0.0054155854
000370 67 af 97 bd 1c a2 f5 bd a4 cf fa bd 18 a7 06 3d
       -0.07406502 -0.119938105 -0.122466356 0.032874197
000380 96 e8 f3 bd ce ac 88 bd 80 4e 1f 3d c7 91 e5 bd
       -0.119095966 -0.06673585 0.038893223 -0.112094454
000390 6c 69 de bd cb 0b 9a 3d 37 5d eb bd 18 f1 90 bd
       -0.108599514 0.075217806 -0.11492389 -0.07077235
0003a0 1f 97 ef bc 12 44 bf 3c 58 01 43 bd 40 60 10 be
       -0.029246865 0.023347888 -0.047608703 -0.14099216
0003b0 dc 52 02 3d fc 4d 78 bd 97 3e e2 bd ee f1 86 bd
       0.031817302 -0.060621247 -0.11047094 -0.06589113
0003c0 03 fc b1 3d c8 83 91 3c b2 58 fc bd 28 b8 e9 bc
       0.086906455 0.017763034 -0.12321605 -0.028530195
0003d0 a4 f8 3e 3d 50 82 83 bd 68 66 20 3d 54 f8 8d bd
       0.04662384 -0.064213395 0.039160162 -0.069321305
0003e0 f1 b5 4d 3d 44 12 00 bd a8 23 07 3c 96 6e cb 3d
       0.05022234 -0.03126742 0.008248247 0.09933202
0003f0 0b a1 42 3d 1e f1 be 3d b6 d6 8b 3d 28 a7 22 bc
       0.047516864 0.09323333 0.06828062 -0.0099275485

linear2.bias f4 [64]
000000 d4 fb 37 3e d4 db e0 3d 87 05 14 3f 6f 06 96 3d
       0.17967159 0.10979429 0.57820934 0.07325446
000010 81 e1 b3 bd 5d fc 09 3e 6c 78 5c 3e 86 84 c8 bd
       -0.08783246 0.13475175 0.21530312 -0.09790902
000020 5b 33 3c bd 9d 3f 20 be 18 ad 95 3e 84 0d 6b 3e
       -0.045947414 -0.15649267 0.29233623 0.22954375
000030 f5 ec 8a bc 05 54 9a 3d 3e e9 1b 3e a8 69 0f bd
       -0.016958693 0.07535557 0.15225694 -0.03501287
000040 90 f6 2f be 03 23 53 3d 6e e2 9a 3e c5 c2 af 3c
       -0.171839 0.05154706 0.30250877 0.021455178
000050 5f c8 4f 3e d1 38 8e 3d 55 9e 73 be 8b 10 97 3d
       0.2029128 0.069444306 -0.23790868 0.07376202
000060 85 6b 1a be 1f 9a 97 3e 25 d2 0c bf 3d 70 f8 3d
       -0.15080078 0.29609773 -0.55008155 0.12130783
000070 54 67 17 be ac fc 1f 3d e0 37 66 3e 9f ed c7 3d
       -0.1478551 0.039059326 0.22482252 0.097621195
000080 d9 01 6d be 97 27 58 bd fb 3d 16 3e dc 92 ff bd
       -0.23145236 -0.05277213 0.14672081 -0.12479183
000090 fd 7b fd 3d 89 f1 15 be 04 5d 7e 3e 5a 9e 87 3e
       0.123771645 -0.1464292 0.2484017 0.26488
0000a0 62 29 91 3d 31 31 a4 3e 15 f0 52 bf fc 41 b7 3e
       0.07087971 0.3206878 -0.82397586 0.3579253
0000b0 e4 b6 e2 3d 16 8b 62 3d e5 32 f8 3c 49 90 a6 bd
       0.1107004 0.055308424 0.030297706 -0.08132989
0000c0 1c fd 79 be 37 69 ff bc cb f4 b2 3d df f6 96 bb
       -0.2441296 -0.0311781 0.08738097 -0.004607066
0000d0 d0 27 87 3e fd 03 c7 3e 24 a2 31 3e 68 29 5b bd
       0.26397562 0.3887023 0.17347008 -0.053506285
0000e0 78 9e 8b bd 06 7f ad 3e 8d 55 e4 bd a6 0f ef 3d
       -0.06817335 0.33885974 -0.1114913 0.116729066
0000f0 7b 0a fa bc e7 1e 34 bd 78 27 6c bf b2 54 80 bd
       -0.030522576 -0.043974783 -0.92247725 -0.06266154

out.weight f4 [4, 64]
000000 2d 0e 43 3f 02 94 b7 3f 4f e8 a4 bf 80 e1 02 bd
       0.76193506 1.4342043 -1.2883395 -0.031953335
000010 db 27 85 3f e9 c9 1e 40 75 37 43 bf 97 d3 78 bf
       1.0402788 2.4810736 -0.76256496 -0.9719786
000020 58 cc 57 bd 9c ee f8 3c 3f 86 23 bf 74 76 98 3e
       -0.05268511 0.030387215 -0.6387672 0.29777873
000030 92 d4 4b bc d7 af dd be b1 6d f5 3e 9d 9b 7e 3d
       -0.012440817 -0.43298218 0.4793525 0.062160123
000040 7a 69 d7 bf 0d af 72 3d a1 56 e0 3f c7 0b 54 3d
       -1.6829064 0.059248973 1.7526437 0.051769044
000050 da d2 3c be a1 88 5f 3f 75 35 43 bf 37 74 1d bf
       -0.18439808 0.87317854 -0.76253444 -0.61505455
000060 bd b9 81 bf 97 68 52 3f 3d d4 34 c0 3f 38 65 3f
       -1.0134808 0.8219084 -2.825454 0.8953895
000070 ad 4b 8f b9 31 0e 02 3e b5 cd 95 3f 2e f4 92 3f
       -0.00027331468 0.12700726 1.1703402 1.1480768
000080 12 f1 60 3f f5 b0 42 bf f9 e5 23 be 82 d9 42 3d
       0.87867844 -0.76051265 -0.16005696 0.047570713
000090 60 ca 01 bf fa de ef 3c fa 7e 90 3f 1e 8f 4d 3f
       -0.50699425 0.029281128 1.128875 0.80296504
0000a0 eb be 7c bf 57 66 ca be 97 29 3e c0 f0 53 41 3f
       -0.9872882 -0.39531204 -2.9712884 0.75518703
0000b0 10 6f 6f 3f a8 92 6d 3f 0c 3b 81 bf 2e c5 87 bc
       0.9352884 0.92801905 -1.0096145 -0.016573515
0000c0 3b be a1 3f 3c 10 a3 3f c7 fa a5 3d e1 55 f8 3e
       1.2636179 1.2739329 0.081044726 0.4850302
0000d0 b0 b9 66 bf 0f 41 7c 3f c6 ca e5 be 64 aa ac 3d
       -0.90127087 0.9853677 -0.44881266 0.08430937
0000e0 05 bf 95 bf 85 8e 91 bf da 9c 6a bf 34 44 d5 3f
       -1.169892 -1.1371619 -0.91645586 1.6661439
0000f0 23 c7 70 3e 08 a7 33 40 53 1c 01 c0 3d b5 96 3f
       0.23513465 2.8070698 -2.0173538 1.177406
000100 a4 b6 31 3f 1c 2a b1 3f 67 43 87 bf 7f c8 9e 3d
       0.6941931 1.3840976 -1.0567445 0.07753085
000110 24 01 91 3f ca b9 20 40 5d 6b 72 bf dd 7c 64 bf
       1.1328473 2.5113397 -0.94695073 -0.89253026
000120 9e 87 7c bc 1e 88 40 3d dc 29 90 be ef 59 c0 3e
       -0.015413193 0.04700481 -0.28156936 0.37568614
000130 d6 b9 8f 3d 24 73 34 bf e6 7c 42 3f 72 de 08 3d
       0.07017867 -0.7048819 0.7597183 0.033415265
000140 7e 19 e7 bf 60 ac 94 bd f4 8b 00 40 c4 20 a3 bb
       -1.8054655 -0.072594404 2.008542 -0.004978271
000150 a9 8a 33 bf ae 8e 67 3f 2c fe 12 bf 62 68 ef be
       -0.70133454 0.90452087 -0.57419086 -0.46759325
000160 7c 4e 87 bf 50 6e 69 3f a2 6f 00 c0 e8 a1 41 3f
       -1.0570827 0.9118395 -2.0068135 0.75637674
000170 e9 66 b1 bc bd 43 ca 3d 63 7b 8f 3f 8e 97 85 3f
       -0.021655517 0.09876201 1.120953 1.0436876
000180 b4 b1 68 3f 77 5e 53 bf 8d b5 8e bf 48 05 2e 3d
       0.90896153 -0.82566017 -1.1149155 0.042485505
000190 dc e3 b6 be 5b a1 d9 3d 0b 9f af 3f f3 ee 6e 3f
       -0.35720718 0.10626479 1.3720411 0.9333336
0001a0 40 33 5e bf 4d 98 23 bf 31 6f 36 c0 26 87 10 3f
       -0.8679695 -0.6390427 -2.8505366 0.5645622
0001b0 d0 4f 5f 3f 7f f3 3b 3f 91 cd 83 bf c4 ef 54 bd
       0.8723116 0.7341842 -1.0297109 -0.05198647
0001c0 f7 9d 83 3f 18 45 b5 3f 54 bd 3d bd 71 3e 00 3f
       1.0282582 1.4161711 -0.046323135 0.5009528
0001d0 14 7b 52 bf 66 a5 85 3f 9b 22 9c be 40 99 b0 3c
       -0.8221905 1.0441101 -0.30495152 0.02155745
0001e0 43 30 7c bf 1a f4 82 bf 87 b1 1f bf a6 3c e1 3f
       -0.9851114 -1.0230744 -0.6238026 1.7596633
0001f0 bc f9 92 be bd e9 36 40 b5 9b 19 c0 c7 dc ab 3f
       -0.28706157 2.8580163 -2.4001286 1.3426751
000200 eb 8a 7c 3f ba 64 a2 3f 29 8d 96 bf 54 6f e3 bd
       0.9864947 1.2686989 -1.1761829 -0.111052185
000210 02 63 fe bd a8 31 22 40 13 7c 28 bf 6f 2d 78 bf
       -0.12421228 2.5342808 -0.6581432 -0.96944326
000220 f0 0d e2 bc c1 04 37 bd ad bb 5c bf 06 5f 03 3f
       -0.027594537 -0.044682268 -0.8622387 0.5131687
000230 6e 3c 95 bd f3 3c 1d bf 9b 93 08 3f b1 e0 85 3c
       -0.07286917 -0.61421126 0.5335023 0.016342493
000240 02 85 c6 bf 65 5e cc bd be f5 ca 3f 8f 04 8e bc
       -1.5509341 -0.09978942 1.5856245 -0.017336158
000250 5f 07 a9 be a1 a2 7e 3f 7a c4 a4 bf fa 58 16 3f
       -0.33013436 0.994669 -1.287246 0.5872952
000260 ae 95 a3 bf 70 ac 76 3f da de f6 bf 05 56 52 3f
       -1.2780054 0.9635687 -1.9286759 0.82162505
000270 ce b7 51 3c 59 19 42 bd bb bd bb 3e 98 8d 98 3f
       0.01280017 -0.047387455 0.3666819 1.1918211
000280 85 50 8b 3f da 5e 28 bf 44 61 98 bd 56 97 fd bd
       1.0883948 -0.6576973 -0.07440427 -0.12382381
000290 c7 bd 0a bf dc e7 23 bc b0 76 98 3f 06 7c f5 3e
       -0.5419583 -0.01000401 1.191122 0.47946185
0002a0 81 69 89 bf cc 15 02 bf 0c 72 2d c0 a7 d5 46 3f
       -1.0735322 -0.5081451 -2.7100859 0.7766976
0002b0 aa 9d 81 3f 35 f5 75 3f 09 00 6d bf 2e 1f 82 3d
       1.012624 0.9607728 -0.9257818 0.06353603
0002c0 c4 c2 d1 3f c9 55 8b 3f 29 2a 1d 3f 2d 34 cb 3e
       1.6387563 1.0885555 0.61392456 0.39688244
0002d0 bd 26 80 bf 55 45 90 3f 68 6d f7 be 9a 05 87 3d
       -1.0011822 1.1271158 -0.48325658 0.06592865
0002e0 f5 b6 9c bf 18 9b 49 bf fa 2e 0c bf 92 82 ca 3f
       -1.2243334 -0.7875228 -0.5475918 1.5821097
0002f0 dc a5 47 bb e8 9c 2f 40 24 ed d7 bf 13 ac 97 3f
       -0.003046385 2.7439518 -1.6869245 1.1849388
000300 f4 71 5f 3f 26 c1 b6 3f af cd b9 bf 22 8b b3 bc
       0.87283254 1.4277694 -1.4515895 -0.02191693
000310 8e 90 4f 3f d2 84 34 40 7d 6f 04 bf 53 ff 9a bf
       0.8107995 2.8206067 -0.5173262 -1.2109169
000320 20 43 45 bd ef 29 c8 3c 8a a0 16 bf cd 4d 43 3e
       -0.04815972 0.024434058 -0.58838713 0.19072647
000330 4f 06 00 bd 52 35 0e bf da 29 1e 3f ab 68 f0 3d
       -0.031256016 -0.5555011 0.6178261 0.11738714
000340 88 1d eb bf 00 63 a1 bd e8 55 f0 3f 3f 04 95 3d
       -1.8368387 -0.07880211 1.8776217 0.072762005
000350 ab cc a0 3e 74 87 3a 3f cc 50 8e bf 63 9d 07 bf
       0.3140615 0.72862935 -1.1118407 -0.5297453
000360 40 1c b8 bf 1e 0c 27 3f 07 11 10 c0 d2 94 82 3f
       -1.4383621 0.65252864 -2.2510393 1.0201666
000370 dc af 9c 3b e7 7c 80 3d ae 0e 8a 3f 82 f5 9a 3f
       0.0047817063 0.06273823 1.078573 1.2106173
000380 2f 5c 8b 3f 7e 73 e6 be 04 4f c1 3e 78 87 e0 bd
       1.0887507 -0.4500999 0.37755597 -0.109633386
000390 4d 1d 23 bf 84 44 07 bd a8 72 15 3f 0f 61 30 3f
       -0.63716584 -0.033024326 0.58378077 0.688981
0003a0 e1 f8 7f bf e2 58 f0 be da 76 23 c0 bf 08 2b 3f
       -0.99989134 -0.46942812 -2.5541291 0.6681022
0003b0 70 0b a2 3f 17 4b 81 3f 86 32 50 bf c0 cf c5 3b
       1.265974 1.0101041 -0.8132709 0.0060367286
0003c0 eb e9 ab 3f 43 df 89 3f ca 9c 39 3e 23 25 2d 3f
       1.3430761 1.0771259 0.18126217 0.6763479
0003d0 27 91 8d bf 84 3f 4c 3f d0 b5 d8 be 6c ce 1f 3d
       -1.1059922 0.7978442 -0.42326212 0.03901522
0003e0 94 6e 61 bf 66 3a 96 bf 3b 6c 7e bf 6c 5c c5 3f
       -0.88059354 -1.1736572 -0.99383897 1.541883
0003f0 25 e8 6b 3f c4 7e 27 40 87 5f c0 bf b1 77 94 3f
       0.921511 2.6171122 -1.5029153 1.1599027

out.bias f4 [4]
000000 e0 30 c1 3e 31 2c 92 3e f0 b2 1c 3e 84 f6 21 be
       0.377326 0.2854934 0.15302634 -0.15816694
